cv_weights.pth (torch, 407690 bytes, 100 tensors)

models.0.ingest.0.0.weight f4 [3]
0.8574793 0.56383044 0.66169906
00000000: c383 5b3f 3157 103f 1c65 293f

models.0.ingest.0.0.bias f4 [3]
0.16765659 -0.18161422 -0.35446203
00000000: 2bae 2b3e 14f9 39be 0c7c b5be

models.0.ingest.0.0.running_mean f4 [3]
-0.4146087 -0.4383097 -0.4837309
00000000: 9747 d4be 216a e0be 94ab f7be

models.0.ingest.0.0.running_var f4 [3]
0.21367258 0.19655769 0.21935166
00000000: fccc 5a3e 6b46 493e b99d 603e

models.0.ingest.0.1.weight f4 [8, 3, 3, 3]
0.112814836 -0.05918847 0.21588983 0.034876592 -0.046072647 -0.11217335 -0.16780593 0.14745706
0.04538092 -0.18102992 -0.31575242 -0.043022424 -0.07545877 -0.3355256 -0.11126912 -0.16664642
-0.16092935 -0.1393705 0.004714796 0.016032573 0.029194899 0.13386102 -5.5276472e-05 0.08817221
0.12717336 -0.14472729 0.00046905808 -0.013309809 -0.1328919 -0.075101525 -0.107144296 -0.17482798
-0.010649145 -0.05193987 -0.085309684 0.012595481 0.010054543 0.085128106 0.069160365 0.11884993
0.26400658 0.18071076 0.0035916814 0.077895254 0.056254137 -0.011614828 0.07911533 0.053298436
0.11800916 0.29539955 0.09864861 -0.058116555 0.044011146 -0.07431296 -0.074674755 -0.24569604
-0.052676782 -0.03673817 -0.076426916 -0.22017 0.22938256 0.1868927 -0.03540158 0.10466673
0.08321513 0.0012604515 -0.06563643 -0.055489454 0.07655344 -0.05535367 -0.04394605 0.01413052
0.19152 0.18805426 0.022186657 0.11176584 0.058061954 0.24431989 -0.026261002 -0.10767656
0.08629721 0.097814955 -0.13021502 0.110956624 0.22500148 0.10628276 -0.14767729 0.0155035
-0.022509256 -0.16553348 0.18493225 0.068945065 0.1790113 -0.044474278 0.07418791 0.11861144
-0.0836018 0.0049922094 -0.01250183 0.06958972 0.119470894 0.1558265 -0.036852162 0.045884117
0.19478749 -0.0865665 0.015418035 0.004768958 -0.026779724 -0.06659457 -0.06369265 0.20550105
0.11569872 -0.12968124 0.16910215 0.038390525 -0.09385432 -0.10525105 -0.015542361 0.02464289
-0.13437326 -0.081663854 0.01817149 -0.10667181 0.07023844 0.12682399 -0.09726277 -0.0042194184
-0.02073829 -0.31509274 -0.123578124 -0.019103909 -0.22634861 -0.002494901 0.114748515 0.024909984
-0.22597085 0.11257393 -0.23533906 -0.24384737 0.07826945 0.005622505 0.0059601935 -0.016707662
-0.20926073 -0.11269358 0.080773465 -0.2844442 -0.08884263 -0.047455613 -0.08260195 0.011960401
-0.049566086 0.008854761 0.14159533 0.057024516 0.019218221 0.21776965 0.011514527 0.025619213
0.10804968 0.11879943 -0.21634705 -0.0559596 -0.07655005 -0.09957456 -0.27897057 0.2018751
-0.03070197 -0.014557813 0.014896808 0.0790778 0.15746564 0.012401243 0.14003934 -0.08576465
-0.05642524 0.021914525 0.012132425 0.033528633 0.14440489 0.112229414 0.008881173 0.021363651
-0.15468076 -0.23300825 -0.016083317 -0.119830005 -0.08777688 0.020855645 -0.012983967 -0.098403715
0.09528461 -0.15466328 -0.21515943 -0.16880448 0.14114897 0.12374332 0.08545791 0.0020034192
-0.10565213 0.08722014 -0.02944897 -0.0930829 0.0011121962 0.1547417 -0.100326896 -0.03880364
-0.061547074 -0.08304039 0.04575345 0.03029321 0.046376947 -0.041860398 0.064471014 -0.13736026
00000000: 770b e73d 9c6f 72bd 3912 5d3e c2da 0e3d
00000010: acb6 3cbd 24bb e5bd 51d5 2bbe fcfe 163e
00000020: 58e1 393d e85f 39be 4daa a1be 4838 30bd
00000030: 218a 9abd 03ca abbe 10e1 e3bd 5ca5 2abe
00000040: aaca 24be 24b7 0ebe 937e 9a3b be56 833c
00000050: 242a ef3c dd12 093e a9d8 67b8 a293 b43d
00000060: bc39 023e 6433 14be e9eb f539 6311 5abc
00000070: d014 08be d4ce 99bd 786e dbbd 1b06 33be
00000080: c079 2ebc e7be 54bd d8b6 aebd 475d 4e3c
00000090: cfbb 243c a557 ae3d f3a3 8d3d 9867 f33d
000000a0: df2b 873e 3e0c 393e 6a62 6b3b 8c87 9f3d
000000b0: bd6a 663d 1f4c 3ebc 3807 a23d 764f 5a3d
000000c0: c9ae f13d 9c3e 973e 4808 ca3d a00b 6ebd
000000d0: 0845 343d 6531 98bd 14ef 98bd be97 7bbe
000000e0: 9cc3 57bd c37a 16bd b785 9cbd 3f74 61be
000000f0: 43e3 6a3e cd60 3f3e 3f01 11bd 835b d63d
00000100: b26c aa3d bc35 a53a 656c 86bd e948 63bd
00000110: 0dc8 9c3d 88ba 62bd c600 34bd b283 673c
00000120: d21d 443e 4c91 403e cbc0 b53c 7de5 e43d
00000130: 5fd2 6d3d fe2e 7a3e 5021 d7bc 8785 dcbd
00000140: 97bc b03d 3553 c83d 1657 05be 3a3d e33d
00000150: ca66 663e c7aa d93d b738 17be 6402 7e3c
00000160: 5565 b8bc 9c81 29be e15e 3d3e 1233 8d3d
00000170: bd4e 373e a92a 36bd d5ef 973d 8eea f23d
00000180: 6c37 abbd b095 a33b 7ad4 4cbc 0e85 8e3d
00000190: 28ad f43d fb90 1f3e 4bf2 16bd fcf0 3b3d
000001a0: 5f76 473e c749 b1bd ed9b 7c3c eb44 9c3b
000001b0: 2761 dbbc bc62 88bd 4b71 82bd de6e 523e
000001c0: 73f3 ec3d 29cb 04be 1d29 2d3e 623f 1d3d
000001d0: b236 c0bd dd8d d7bd 63a5 7ebc e3df c93c
000001e0: 2599 09be 613f a7bd 60dc 943c c076 dabd
000001f0: 2cd9 8f3d 26de 013e b431 c7bd 0c43 8abb
00000200: 59e3 a9bc d653 a1be 8716 fdbd cd7f 9cbc
00000210: eec7 67be 7e81 23bb 4501 eb3d 0610 cc3c
00000220: e764 67be 298d e63d b9fc 70be 20b3 79be
00000230: bc4b a03d fe3c b83b ba4d c33b 82de 88bc
00000240: 7248 56be e4cb e6bd 8f6c a53d aca2 91be
00000250: 20f3 b5bd d160 42bd 362b a9bd 8ff5 433c
00000260: cf05 4bbd 8f13 113c 5efe 103e 8a92 693d
00000270: 886f 9d3c 02ff 5e3e 6da7 3c3c 62df d13c
00000280: 2749 dd3d 1e4d f33d 158a 5dbe e535 65bd
00000290: 46c6 9cbd bfed cbbd 3bd5 8ebe 59b8 4e3e
000002a0: b382 fbbc e583 6ebc be11 743c 8bf3 a13d
000002b0: ac3e 213e 952e 4b3c 7966 0f3e 60a5 afbd
000002c0: 271e 67bd 1786 b33c 14c7 463c 5255 093d
000002d0: e0de 133e 89d8 e53d 5782 113c d302 af3c
000002e0: a264 1ebe b799 6ebe 29c1 83bc 6f69 f5bd
000002f0: 5dc4 b3bd 75d9 aa3c b4ba 54bc e387 c9bd
00000300: 9424 c33d 0d60 1ebe c152 5cbe 15db 2cbe
00000310: 5b89 103e 236d fd3d 8f04 af3d cc4b 033b
00000320: 2560 d8bd 79a0 b23d f73e f1bc 3fa2 bebd
00000330: 1dc7 913a 9c74 1e3e 3078 cdbd 91f0 1ebd
00000340: c918 7cbd 1411 aabd f867 3b3d 7729 f83c
00000350: c1f5 3d3d cf75 2bbd 6109 843d 2ba8 0cbe

models.0.ingest.0.1.bias f4 [8]
0.11523369 -0.06127624 -0.06492287 0.12435048 -0.11752247 0.030853728 -0.112657815 -0.027852042
00000000: a4ff eb3d cbfc 7abd 48f6 84bd 77ab fe3d
00000010: 9faf f0bd f5c0 fc3c 24b9 e6bd f729 e4bc

models.0.outgest.0.0.weight f4 [8]
0.8508534 0.9887954 0.6265006 1.1672488 0.9410762 0.92158324 0.64234847 1.0930312
00000000: 87d1 593f b221 7d3f 5862 203f 6968 953f
00000010: 5fea 703f e1ec 6b3f f370 243f 72e8 8b3f

models.0.outgest.0.0.bias f4 [8]
-0.42175382 0.6349715 -0.6197968 0.24977541 0.50118816 -0.6355735 -0.59887946 -0.094818555
00000000: 1ef0 d7be 7e8d 223f 01ab 1ebf 20c5 7f3e
00000010: de4d 003f f2b4 22bf 2a50 19bf 3b30 c2bd

models.0.outgest.0.0.running_mean f4 [8]
0.81899375 0.9420646 -0.5491223 -0.57204914 -0.8787366 -0.8763954 0.20183627 0.30107456
00000000: 93a9 513f 252b 713f 4793 0cbf d071 12bf
00000010: e2f4 60bf 735b 60bf 2bae 4e3e 7226 9a3e

models.0.outgest.0.0.running_var f4 [8]
0.06413139 0.051648375 0.24533233 0.03225479 0.07465298 0.12311064 0.27160165 0.0865385
00000000: 5157 833d 3f8d 533d 6638 7b3e 991d 043d
00000010: a9e3 983d 6e21 fc3d 5f0f 8b3e 193b b13d

models.0.outgest.0.1.weight f4 [2, 8, 3, 3]
0.035732053 0.078925095 0.013321661 -0.028764334 0.3166164 0.11697693 0.01803738 0.23376782
0.22553618 -0.087565735 -0.105541706 -0.13229196 -0.07533724 -0.16100752 -0.019982697 -0.06783859
0.0014387551 0.072752856 0.38687715 0.49328873 0.4247776 0.44416237 0.47450176 0.39425063
0.41631082 0.6032388 0.5258617 -0.13040864 -0.4331401 -0.24037634 -0.22617564 -0.9328221
-0.9117708 -0.14389591 -0.5329953 -0.72225565 -0.036229964 -0.17347206 -0.2013702 -0.118236795
-0.5572285 -0.25676626 -0.13264684 -0.21669614 -0.19890174 0.15433039 -0.20114626 0.020120738
0.09579867 1.1622342 0.25180143 -0.073847584 0.74260485 -0.007292224 0.30280635 0.3153364
0.31405827 0.4486912 0.37648448 0.43282983 0.34988913 0.38272005 0.43905726 0.11942087
0.35148674 0.21292846 0.26174137 0.58356136 0.44260266 0.17909497 0.45560563 0.17000428
0.10480065 -0.04936738 0.029457984 -0.037145246 -0.78015417 -0.034284566 -0.012202281 -0.5356488
-0.04993219 0.2705332 0.1727128 0.041944034 0.38946941 0.98274976 0.50050795 0.15360422
0.5633185 0.32505307 -0.41771075 -0.37775168 -0.4083094 -0.40961042 -0.37161973 -0.46655688
-0.2088629 -0.31150597 -0.25082767 0.021218894 0.03233746 -0.015682058 0.104074955 0.068634614
-0.06020613 0.01349763 0.0070851822 -0.034144755 0.106463335 0.27890143 0.07836749 0.4293741
0.8273604 0.017041452 -0.032470915 0.099752694 0.0071805 -0.09807628 -0.15674067 -0.13436861
-0.283704 -0.86469 -0.34619853 -0.21817282 -0.5940785 -0.14500438 -0.33948234 -0.19150235
-0.23626356 -0.3976399 -0.30673116 -0.43174848 -0.41475937 -0.17202464 -0.3274698 0.0071272044
-0.06327812 -0.049807914 0.10475707 0.11146433 -0.016844355 0.022883907 -0.015059764 -0.029731344
00000000: c65b 123d 7ba3 a13d 1943 5a3c 2ea3 ebbc
00000010: 8b1b a23e 9a91 ef3d 21c3 933c d560 6f3e
00000020: f5f2 663e aa55 b3bd 4026 d8bd 8b77 07be
00000030: 694a 9abd 28df 24be c1b2 a3bc f5ee 8abd
00000040: 9c94 bc3a 73ff 943d c314 c63e 5790 fc3e
00000050: 737c d93e 4069 e33e e5f1 f23e 38db c93e
00000060: b126 d53e dc6d 1a3f df9e 063f d889 05be
00000070: 8ac4 ddbe 3725 76be 969a 67be 6ecd 6ebf
00000080: d069 69bf 7359 13be 6172 08bf bfe5 38bf
00000090: df65 14bd a9a2 31be fd33 4ebe 2226 f2bd
000000a0: 87a6 0ebf de76 83be 93d4 07be 98e5 5dbe
000000b0: e6ac 4bbe c908 1e3e 49f9 4dbe 3fd4 a43c
000000c0: 1832 c43d 17c4 943f 1eec 803e 673d 97bd
000000d0: 5a1b 3e3f 9cf3 eebb 6f09 9b3e c673 a13e
000000e0: 3fcc a03e daba e53e 93c2 c03e df9b dd3e
000000f0: ab24 b33e e2f3 c33e 1dcc e03e ee92 f43d
00000100: 12f6 b33e eb09 5a3e f702 863e 4764 153f
00000110: d19c e23e ac64 373e 2445 e93e 9a15 2e3e
00000120: b9a1 d63d 7335 4abd df51 f13c 9d25 18bd
00000130: 2fb8 47bf f96d 0cbd 13ec 47bc 4820 09bf
00000140: b285 4cbd 5483 8a3e a0db 303e 82cd 2b3d
00000150: 8968 c73e 7d95 7b3f 4a21 003f 6d4a 1d3e
00000160: a435 103f 5b6d a63e 2fde d5be ab68 c1be
00000170: ee0d d1be 75b8 d1be f144 bebe 8be0 eebe
00000180: 28e0 55be b67d 9fbe 7c6c 80be 3fd3 ad3c
00000190: 4974 043d a977 80bc 4025 d53d 4e90 8c3d
000001a0: b49a 76bd 2a25 5d3c d12a e83b 5fdb 0bbd
000001b0: 7309 da3d 2bcc 8e3e 227f a03d ecd6 db3e
000001c0: e4cd 533f 849a 8b3c 3900 05bd 244b cc3d
000001d0: 664a eb3b 37dc c8bd a080 20be ed97 09be
000001e0: a741 91be 535c 5dbf ef40 b1be b268 5fbe
000001f0: 8715 18bf 077c 14be a1d0 adbe 3119 44be
00000200: 13ef 71be 7597 cbbe de0b 9dbe 230e ddbe
00000210: 575b d4be 3a27 30be 1faa a7be 538b e93b
00000220: f597 81bd 6203 4cbd e08a d63d 6947 e43d
00000230: 2cfd 89bc 0877 bb3c 3abd 76bc 268f f3bc

models.0.outgest.0.1.bias f4 [2]
-0.20270571 0.34686106
00000000: 1692 4fbe c697 b13e

models.0.down_list.0.0.0.weight f4 [8]
0.56851333 0.58001435 0.5458409 0.5569291 0.60078126 0.43915048 0.5588153 0.46628553
00000000: 178a 113f d27b 143f 3bbc 0b3f e892 0e3f
00000010: cdcc 193f 55d8 e03e 850e 0f3f fabc ee3e

models.0.down_list.0.0.0.bias f4 [8]
-0.5622933 0.041917115 -0.008085717 -0.028036864 -0.32445914 0.19365199 -0.101473056 0.08276758
00000000: 74f2 0fbf 48b1 2b3d f579 04bc 91ad e5bc
00000010: 821f a6be b54c 463e 1bd1 cfbd 0d82 a93d

models.0.down_list.0.0.0.running_mean f4 [8]
0.32546848 -0.5119194 -0.39677304 -0.11485822 0.18555266 -0.16064124 -0.14501838 -0.011527403
00000000: cea3 a63e 260d 03bf d625 cbbe c93a ebbd
00000010: 8401 3e3e 237f 24be b37f 14be 6fdd 3cbc

models.0.down_list.0.0.0.running_var f4 [8]
0.2814003 0.09844388 0.07562722 0.41226244 0.19128977 0.18851563 0.2556912 0.13113494
00000000: b313 903e f29c c93d 72e2 9a3d 1014 d33e
00000010: 77e1 433e 3e0a 413e f5e9 823e 3d48 063e

models.0.down_list.0.0.1.weight f4 [16, 8, 3, 3]
-0.0064765727 0.07652486 0.03331228 0.07242908 0.045704097 0.035953443 -0.019165855 -0.026320998
-0.06182307 0.07424138 -0.042946152 -0.067207195 0.04729883 -0.023016198 -0.043433078 -0.010494719
-0.016613215 -0.0044352985 0.015195474 0.0040107155 0.007102206 0.027466744 0.015339188 -0.022174979
-0.014956075 -0.035774533 0.03753866 -0.053495843 -0.0407144 0.005291492 -0.038223963 -0.086229526
0.0717803 -0.048593104 0.05988054 -0.017491318 -0.016468465 0.06195935 -0.026048722 -0.036004286
-0.053592164 -0.046220027 -0.020112319 -0.03413168 -0.080134615 -0.04576412 -0.017083526 -0.013720483
0.017609786 -0.028651927 0.009874817 -0.028212495 0.029760754 0.04950713 -0.034358244 -0.022437338
0.07995318 -0.059636936 0.06381824 -0.028180335 -0.0469673 -0.08651303 0.021355348 -0.062223796
0.066543266 -0.0077214763 -0.03229322 0.01977583 0.033969212 0.020401245 -0.04563707 0.030149845
0.04662412 0.01947671 0.0051744077 -0.0215031 0.07602623 -0.027986974 -0.06297402 0.071310274
0.031733707 -0.023966845 -0.054908838 0.0792495 0.0081105875 -0.0731037 0.01588312 -0.0069997325
0.009632856 -0.0051973797 -0.0011564466 0.06268586 -0.02864606 -0.071258605 0.13830829 0.019659292
0.03840754 0.0329074 -0.03509176 -0.034788273 -0.025143769 0.057422385 0.03499268 0.015630309
0.02667491 -0.0074718967 0.05546338 0.045729086 -0.08498866 0.023224851 0.12152013 0.022271428
-0.06466237 0.1139438 -0.037075542 -0.025847055 0.0037378797 0.029042903 -0.115673296 0.040048074
-0.03482976 -0.03958985 0.034252297 -0.058249693 0.045607828 -0.005283974 -0.012096862 0.06321103
0.01140316 0.021215191 0.08185382 -0.10772729 0.0607093 0.0674197 0.07080199 0.13767835
-0.13763408 0.05995216 0.055266798 0.009622732 -0.08938837 0.10338847 0.05301571 -0.008604176
-0.0677303 -0.059635848 0.012471176 -0.047738284 0.02527909 0.04389288 0.04527228 -0.04325516
-0.114137344 0.013130111 0.044161614 -0.030839244 -0.033587344 0.024529107 -0.060519442 -0.034690823
0.010837023 -0.09104827 0.00043759847 -0.053561173 0.030893974 0.034686357 -0.008341807 0.08073259
0.039494745 0.011354766 -0.05212503 -0.027355103 -0.04773002 -0.076168284 -0.042108897 -0.059747607
-0.03330215 -0.10979803 0.032985836 0.07208356 -0.013195115 -0.09220438 -0.004533029 -0.044908337
-0.043393467 0.08870733 -0.046115477 -0.047813963 0.05126308 0.0014610838 0.05979623 0.040450703
0.050379246 0.07716339 -0.07724908 0.022231968 -0.062664926 0.009905901 -5.0068684e-05 0.06010353
0.0152801545 0.05156677 0.02206261 -0.05596664 -0.020312583 -0.008902419 -0.03962653 0.043526243
-0.025494918 -0.0060164914 0.047758125 -0.037744246 -0.09921945 -0.013293121 -0.009366038 -0.0043530045
0.069188036 0.02469467 -0.037372924 0.046875127 0.089032724 0.051650483 0.03439372 -0.07779727
-0.042526577 0.042708445 0.0043290923 -0.03519246 -0.07320476 -0.15309612 -0.022069257 0.028468484
-0.09476855 -0.054973084 -4.4855537e-05 0.09200729 0.087415524 -0.1639309 -0.112960435 -0.06362268
0.03039687 -0.13220371 -0.073027626 -0.016112886 0.008748323 0.054078367 -0.059660815 0.045821894
-0.02823071 0.05448073 -0.09275398 0.056254946 -0.020561952 -0.004968982 0.08324881 -0.049445063
00000000: 6e39 d4bb 11b9 9c3d 7572 083d b355 943d
00000010: 3834 3b3d eb43 133d b601 9dbc 229f d7bc
00000020: 303a 7dbd dd0b 983d 4ee8 2fbd eda3 89bd
00000030: 6bbc 413d 778c bcbc e2e6 31bd 0bf2 2bbc
00000040: 7018 88bc fb55 91bb 70f6 783c 526c 833b
00000050: 9fb9 e83b f001 e13c 3851 7b3c 4da8 b5bc
00000060: 530a 75bc 5188 12bd 23c2 193d 751e 5bbd
00000070: 25c4 26bd 4164 ad3b bb90 1cbd 1b99 b0bd
00000080: 8d01 933d 9009 47bd 4c45 753d f449 8fbc
00000090: e0e8 86bc 16c9 7d3d 2164 d5bc 3b79 13bd
000000a0: 7583 5bbd 3651 3dbd 97c2 a4bc a9cd 0bbd
000000b0: 9e1d a4bd 2873 3bbd c0f2 8bbc e0cb 60bc
000000c0: 6642 903c 72b7 eabc fcc9 213c e41d e7bc
000000d0: d3cc f33c fdc7 4a3d 3bbb 0cbd 82ce b7bc
000000e0: 7ebe a33d dc45 74bd 23b3 823d 72da e6bc
000000f0: c960 40bd be2d b1bd 69f1 ae3c 61de 7ebd
00000100: d647 883d 7004 fdbb e545 04bd ec00 a23c
00000110: 4d23 0b3d 8320 a73c f0ed 3abd cffc f63c
00000120: eff8 3e3d 9f8d 9f3c 148e a93b 4527 b0bc
00000130: a4b3 9b3d f044 e5bc 86f8 80bd 1f0b 923d
00000140: 34fb 013d 1e56 c4bc 17e8 60bd 904d a23d
00000150: 45e2 043c 65b7 95bd 511d 823c 035e e5bb
00000160: 20d3 1d3c c84e aabb e993 97ba 7261 803d
00000170: 24ab eabc 08f0 91bd b0a0 0d3e 860c a13c
00000180: 3a51 1d3d e9c9 063d 61bc 0fbd 267e 0ebd
00000190: 4efa cdbc bc33 6b3d 7c54 0f3d 220b 803c
000001a0: 5785 da3c d0d6 f4bb 922d 633d 6c4e 3b3d
000001b0: 890e aebd 0b42 be3c 8cdf f83d 9272 b63c
000001c0: b46d 84bd 5e5b e93d 86dc 17bd 34bd d3bc
000001d0: 37f7 743b 62eb ed3c 1fe6 ecbd 7309 243d
000001e0: a7a9 0ebd f728 22bd 234c 0c3d 3b97 6ebd
000001f0: 46cf 3a3d 3025 adbb eb31 46bc c974 813d
00000200: 52d4 3a3c 7bcb ad3c faa2 a73d 20a0 dcbd
00000210: 51aa 783d 5713 8a3d a200 913d 8efb 0c3e
00000220: f3ef 0cbe 6590 753d 705f 623d aaa8 1d3c
00000230: 4011 b7bd 56bd d33d 0027 593d 88f8 0cbc
00000240: 2fb6 8abd b844 74bd e753 4c3c 3889 43bd
00000250: 1816 cf3c 05c9 333d 6d6f 393d 532c 31bd
00000260: d7c0 e9bd ad1f 573c cfe2 343d 95a2 fcbc
00000270: e292 09bd 44f1 c83c 3ce3 77bd f717 0ebd
00000280: c58d 313c 8477 babd 796d e539 f662 5bbd
00000290: 5c15 fd3c 4813 0e3d 13ac 08bc 2157 a53d
000002a0: 3ec5 213d 5709 3a3c 0e81 55bd cf17 e0bc
000002b0: 8e80 43bd 1efe 9bbd 617a 2cbd e8b9 74bd
000002c0: d667 08bd cadd e0bd 281c 073d 8ca0 933d
000002d0: 5330 58bc a6d5 bcbd ce89 94bb cef1 37bd
000002e0: 59bd 31bd 30ac b53d 95e3 3cbd 93d8 43bd
000002f0: 3cf9 513d d681 bf3a e4ec 743d a3af 253d
00000300: 785a 4e3d d707 9e3d c434 9ebd d11f b63c
00000310: 7856 80bd 5c4c 223c d700 52b8 1e2f 763d
00000320: 9d59 7a3c ad37 533d a6bc b43c 473d 65bd
00000330: 9366 a6bc 74db 11bc 6e4f 22bd 9348 323d
00000340: b8da d0bc fd25 c5bb 069e 433d b699 1abd
00000350: 9133 cbbd 64cb 59bc 0374 19bc a6a3 8ebb
00000360: 75b2 8d3d 7a4c ca3c 5a14 19bd 2200 403d
00000370: ca56 b63d 758f 533d 6ee0 0c3d 2d54 9fbd
00000380: 5930 2ebd 0def 2e3d 0fdb 8d3b f825 10bd
00000390: 61ec 95bd 3bc5 1cbe 96ca b4bc bd36 e93c
000003a0: 0316 c2bd 752b 61bd 4423 3cb8 516e bc3d
000003b0: e906 b33d 80dd 27be cd57 e7bd 9c4c 82bd
000003c0: db02 f93c 6960 07be 828f 95bd 2cff 83bc
000003d0: 2055 0f3c 4781 5d3d e65e 74bd bdaf 3b3d
000003e0: 1744 e7bc 3027 5f3d ccf5 bdbd 966b 663d
000003f0: 8a71 a8bc d8d2 a2bb 5a7e aa3d e886 4abd

models.0.down_list.0.0.1.bias f4 [16]
0.81626016 0.036863644 0.051669613 -0.04930145 0.48512736 0.56494915 -0.010540049 -0.32641867
0.18875286 -0.45128733 0.21915992 0.50983196 -0.7168557 0.20228787 0.27224356 -1.358087
00000000: 6df6 503f 55fe 163d 84a3 533d 51f0 49bd
00000010: 9d62 f83e 82a0 103f 2bb0 2cbc 5920 a7be
00000020: 6e48 413e 220f e7be 756b 603e 5984 023f
00000030: db83 37bf 8d24 4f3e 8263 8b3e cbd5 adbf

models.0.down_list.1.0.0.weight f4 [16]
0.6274925 0.7206726 0.5709608 0.7523877 0.5417686 0.5801697 0.69521457 0.73817825
0.7335666 0.76674086 0.7728064 0.5873214 0.76918733 0.6839068 0.70877814 0.7201614
00000000: 59a3 203f 007e 383f 7d2a 123f 7b9c 403f
00000010: 59b1 0a3f 0086 143f 95f9 313f 40f9 3c3f
00000020: 05cb 3b3f 2149 443f a4d6 453f b25a 163f
00000030: 76e9 443f 8414 2f3f 7c72 353f 7f5c 383f

models.0.down_list.1.0.0.bias f4 [16]
-0.024641637 0.27773565 0.046625257 -0.35908124 0.20535713 0.062455155 0.5897172 0.033850968
0.5534309 0.3371876 -0.48698336 0.3650467 0.09257934 -0.031392086 0.14741465 -0.50755227
00000000: 42dd c9bc 5e33 8e3e 20fa 3e3d 7fd9 b7be
00000010: 2449 523e fad0 7f3d b5f7 163f 50a7 0a3d
00000020: a6ad 0d3f daa3 ac3e e255 f9be 67e7 ba3e
00000030: 3d9a bd3d fd94 00bd def3 163e f2ee 01bf

models.0.down_list.1.0.0.running_mean f4 [16]
0.69474995 -0.007939598 0.26131976 -0.09114765 0.667917 0.49222216 -0.08061886 -0.3705219
0.43399104 -0.54045296 0.24828736 0.6500637 -0.6652287 0.43872148 0.49266648 -0.8761684
00000000: 22db 313f 1615 02bc b4cb 853e 9eab babd
00000010: 9cfc 2a3f 8b04 fc3e 801b a5bd 0cb5 bdbe
00000020: 1334 de3e 205b 0abf 0b3f 7e3e 936a 263f
00000030: 6e4c 2abf 1aa0 e03e c83e fc3e 924c 60bf

models.0.down_list.1.0.0.running_var f4 [16]
0.0014205998 0.028719246 0.0036214327 0.04682255 0.0028210904 0.002319695 0.024671037 0.03582146
0.031532127 0.023613943 0.039280344 0.004443111 0.0134571 0.018110186 0.0130092995 0.0047770767
00000000: 6b33 ba3a a044 eb3c 8f55 6d3b 01c9 3f3d
00000010: 0be2 383b 0606 183b ea1a ca3c 86b9 123d
00000020: d527 013d 0772 c13c 6de4 203d 8497 913b
00000030: 2b7b 5c3c d05b 943c f524 553c 0689 9c3b

models.0.down_list.1.0.1.weight f4 [32, 16, 3, 3]
0.14360596 -0.026396682 -0.05405668 -0.051304467 0.042382777 -0.08589516 9.5951764e-05 -0.041908264
0.095106766 0.0062593324 0.046229124 -0.020648947 -0.016448826 0.0038905232 0.024427198 -0.025575351
-0.012035284 0.016560968 0.009602027 -0.018222949 -0.011514086 -0.014225183 0.028998606 -0.0038426223
-0.013792979 0.060057625 -0.003983927 0.08467501 -0.041403446 0.010106382 -0.057358522 -0.108536705
0.037529323 0.003513581 0.0055214474 0.041313883 -0.050221063 0.009925631 0.014815305 -0.009667237
0.025893038 -0.037680686 -0.015672918 -0.05014799 0.008197219 0.076627545 -0.05559658 0.035804383
0.06390446 -0.016162986 -0.0036729288 -0.027957188 -0.12464005 -0.040353972 0.05249292 0.013129103
-0.09729878 0.09103996 -0.06414274 -0.036552213 -0.038687933 -0.12721781 -0.051954746 -0.0051867636
-0.037909366 -0.051878475 -0.03624289 -0.07989818 0.0088356165 -0.039865065 0.011291016 0.0891204
-0.017369539 0.036033433 0.06965311 -0.12191868 -0.0070060305 -0.063474774 0.082355976 0.05445124
-0.020644603 0.0720423 0.014846797 -0.06081454 -0.08243757 -0.06649376 0.0947863 -0.039107308
-0.09775312 0.08670643 -0.05332376 -0.046392754 0.012039863 0.027183093 -0.011755443 0.014324352
0.14990336 0.1399443 0.037779175 -0.07687193 0.021422803 -0.0034025193 -0.016292252 -0.0031998996
-0.032495275 0.012291151 0.051969595 0.0006131027 0.15760405 0.019909956 -0.08500701 -0.043735143
-0.05781342 -0.087675646 0.0203089 -0.12038922 -0.071987055 0.11608593 -0.016903304 -0.07518799
-0.023646422 -0.037586983 0.034098096 -0.037044052 -0.010584475 0.017461382 -0.010920513 0.031907283
-0.026839677 0.059736293 0.03055318 -0.003801682 0.039678052 -0.05056201 -0.088123225 0.09915876
0.05937603 -0.080545016 0.11015222 -0.012151171 -0.024160177 -0.0049086725 -0.1074771 -0.02068655
-0.041146733 -0.034460127 0.057865597 0.009236545 0.03249189 0.07469974 0.027690701 2.3968685e-05
-0.0771142 -0.045213576 -0.029198673 0.024432188 0.0012103574 -0.05289172 0.020371942 -0.023540834
-0.015675439 -0.0696312 -0.006658775 -0.033104382 0.033861768 -0.004299146 0.120948255 0.016732082
-0.017616984 -0.003029583 -0.09208368 -0.0670434 -0.0796414 -0.010890792 0.02218199 -0.014356614
-0.005652321 0.039727222 -0.049453504 -0.02341372 0.018526787 -0.01987541 -0.04415049 0.010166661
0.006444402 -0.069783196 0.023631493 -0.0449792 -0.021393863 -0.01636076 -0.058698624 0.0186949
-0.05297976 0.024576288 0.09599802 0.039593443 0.11002899 0.017059004 0.010198343 -0.026884077
0.039557677 -0.027766982 -0.08552943 0.060207695 -0.082601205 0.0011459233 -0.0105591575 0.00044776723
-0.031991817 0.057347458 -0.044926632 0.13889466 0.058779787 0.10119524 -0.012373081 -0.003938134
0.0155361025 0.009397709 -0.06406381 0.0076848413 0.008991841 -0.111209705 -0.0517362 -0.077604145
-0.07576107 -0.010867954 -0.012104348 0.04560193 0.0148833655 -0.0030248798 0.059548993 0.04474459
0.07383319 -0.07541056 0.023145018 0.027324926 -0.05657834 -0.02008002 -0.12123219 -0.061294876
-0.0773771 -0.096264586 0.00701233 -0.024481064 0.015969316 -0.0016618278 0.04983818 0.07567064
0.013334632 0.0025904984 -0.030341363 -0.070394665 -0.014140062 0.01311464 -0.057456933 -0.083349675
00000000: 710d 133e db3d d8bc 8a6a 5dbd a224 52bd
00000010: 9099 2d3d cde9 afbd b639 c938 00a8 2bbd
00000020: 56c7 c23d 161b cd3b c05a 3d3d fb27 a9bc
00000030: b0bf 86bc 26f8 7e3b 8c1b c83c 6683 d1bc
00000040: a42f 45bc deaa 873c d251 1d3c 4b48 95bc
00000050: 94a5 3cbc be10 69bc 7c8e ed3c 81d4 7bbb
00000060: f2fb 61bc fcfe 753d 9a8b 82bb 176a ad3d
00000070: a996 29bd 3d95 253c c5f0 6abd 7e48 debd
00000080: 59b8 193d 1b44 663b 42ed b43b bf38 293d
00000090: 9ab4 4dbd 1d9f 223c e5bb 723c 5563 1ebc
000000a0: a31d d43c 1057 1abd 7e64 80bc fb67 4dbd
000000b0: a14d 063c e7ee 9c3d 3db9 63bd 9ea7 123d
000000c0: 57e0 823d 3d68 84bc 85b5 70bb 7906 e5bc
000000d0: 4843 ffbd 354a 25bd d102 573d 731b 573c
000000e0: 9544 c7bd 2973 ba3d 455d 83bd c6b7 15bd
000000f0: 3d77 1ebd 6345 02be 80ce 54bd baf5 a9bb
00000100: da46 1bbd 867e 54bd 6d73 14bd a8a1 a3bd
00000110: 43c3 103c 8d49 23bd f4fd 383c c284 b63d
00000120: 904a 8ebc cb97 133d 4aa6 8e3d 80b0 f9bd
00000130: d892 e5bb 10ff 81bd 40aa a83d 4308 5f3d
00000140: df1e a9bc ea8a 933d fb3f 733c ab18 79bd
00000150: 07d5 a8bd e12d 88bd 521f c23d fc2e 20bd
00000160: ca32 c8bd 2493 b13d 046a 5abd 5406 3ebd
00000170: d842 453c 14af de3c e799 40bc b0b0 6a3c
00000180: 4480 193e 8f4d 0f3e 56be 1a3d 086f 9dbd
00000190: e07e af3c cdfc 5ebb 5477 85bc 68b5 51bb
000001a0: c419 05bd d360 493c 12de 543d a0b8 203a
000001b0: f562 213e 341a a33c 2818 aebd 9f23 33bd
000001c0: c4cd 6cbd 4a8f b3bd da5e a63c a08e f6bd
000001d0: f36d 93bd 76be ed3d cc78 8abc 29fc 99bd
000001e0: 24b6 c1bc cff4 19bd 72aa 0b3d 81bb 17bd
000001f0: 816a 2dbc 2c0b 8f3c f4eb 32bc 36b1 023d
00000200: e2de dbbc 0bae 743d aa4a fa3c a425 79bb
00000210: 7485 223d 1c1a 4fbd f379 b4bd bf13 cb3d
00000220: 4834 733d c9f4 a4bd 7d97 e13d b515 47bc
00000230: 90eb c5bc eed8 a0bb f41c dcbd d776 a9bc
00000240: 7a89 28bd 1026 0dbd 7a04 6d3d e154 173c
00000250: 3716 053d 2dfc 983d 9cd7 e23c 5c10 c937
00000260: 0dee 9dbd df31 39bd 0e32 efbc 0326 c83c
00000270: dba4 9e3a fda4 58bd 0fe3 a63c b5d8 c0bc
00000280: c769 80bc cd9a 8ebd da31 dabb 7698 07bd
00000290: a3b2 0a3d dadf 8cbb b8b3 f73d b811 893c
000002a0: 7e51 90bc f88b 46bb 5e96 bcbd 0d4e 89bd
000002b0: 081b a3bd 4b6f 32bc 01b7 b53c 0138 6bbc
000002c0: 1b37 b9bb 03b9 223d c28f 4abd 21ce bfbc
000002d0: 7dc5 973c c1d1 a2bc 25d7 34bd 1192 263c
000002e0: 902b d33b 7eea 8ebd d596 c13c 1c3c 38bd
000002f0: 2f42 afbc 0007 86bc f86d 70bd 0c26 993c
00000300: 4e01 59bd 3654 c93c 9c9a c43d bc2c 223d
00000310: e156 e13d 53bf 8b3c f316 273c ff3b dcbc
00000320: 3b07 223d 9577 e3bc 0e2a afbd 589c 763d
00000330: d22a a9bd ce32 963a 5100 2dbc 4dc2 ea39
00000340: da09 03bd 2be5 6a3d fd04 38bd 673a 0e3e
00000350: 13c3 703d 733f cf3d 77b8 4abc 760b 81bb
00000360: 238b 7e3c d9f8 193c e333 83bd 1fd1 fb3b
00000370: 8452 133c eac1 e3bd 56e9 53bd ecee 9ebd
00000380: 9f28 9bbd 810f 32bc 5151 46bc 17c9 3a3d
00000390: 5cd9 733c 103d 46bb a5e9 733d 1a46 373d
000003a0: db35 973d da70 9abd 9f9a bd3c 86d8 df3c
000003b0: b0be 67bd db7e a4bc 9548 f8bd 5610 7bbd
000003c0: e377 9ebd 5e26 c5bd b0c7 e53b 838c c8bc
000003d0: 15d2 823c b0d1 d9ba 1f23 4c3d 35f9 9a3d
000003e0: 8079 5a3c 5ac5 293b 738e f8bc 142b 90bd
000003f0: b8ab 67bc c9de 563c f657 6bbd 3cb3 aabd

models.0.down_list.1.0.1.bias f4 [32]
-0.103591815 -0.43500164 -0.090316646 0.5666483 -0.2854501 -0.48744163 -0.20224494 -0.4556312
-0.3862388 -0.46388224 0.3302441 -0.14517029 0.16320878 0.05432685 -0.23354882 0.09955555
0.080570586 -0.32076168 0.023448678 -0.3435059 -0.10615628 -0.13533276 -0.30253065 0.13279603
-0.23542185 -0.4865501 -0.5959065 -0.60929286 -0.10128147 0.17299218 -0.3127835 -0.23728342
00000000: f227 d4bd 89b8 debe eff7 b8bd dd0f 113f
00000010: 8426 92be f391 f9be 4c19 4fbe 7e48 e9be
00000020: 18c1 c5be f981 edbe c115 a93e 85a7 14be
00000030: 3420 273e d585 5e3d 6c27 6fbe c8e3 cb3d
00000040: 3102 a53d e03a a4be 7117 c03c 01e0 afbe
00000050: 7768 d9bd ac94 0abe 4ce5 9abe affb 073e
00000060: 6d12 71be 181d f9be 548d 18bf 9efa 1bbf
00000070: a96c cfbd dd24 313e 2925 a0be 6dfa 72be

models.0.down_list.2.0.0.weight f4 [32]
0.67444634 0.7123823 0.6138344 0.7130239 0.6557473 0.63736755 0.61667675 0.606192
0.6267803 0.7510674 0.6968828 0.6463275 0.57768494 0.6868006 0.6576389 0.6557354
0.70958203 0.6636369 0.65621376 0.76119447 0.6370377 0.6830931 0.6799908 0.66192067
0.5786482 0.6605445 0.93894196 0.697198 0.59327865 0.62944657 0.5938702 0.67197
00000000: 84a8 2c3f b05e 363f 4024 1d3f bc88 363f
00000010: 0edf 273f 852a 233f 87de 1d3f 662f 1b3f
00000020: ac74 203f f445 403f e966 323f b875 253f
00000030: 29e3 133f 2ad2 2f3f 065b 283f 46de 273f
00000040: 2ba7 353f 1ce4 293f a0fd 273f a4dd 423f
00000050: e714 233f 30df 2e3f e113 2e3f a273 293f
00000060: 4a22 143f 7219 293f 805e 703f 917b 323f
00000070: 1ce1 173f 6923 213f e107 183f 3a06 2c3f

models.0.down_list.2.0.0.bias f4 [32]
0.5105776 -0.06710513 -0.1771277 -0.088319175 -0.09862447 -0.35680732 0.4664179 -0.2474089
0.3137221 -0.26608947 -0.17569026 0.34963748 0.4162511 -0.45888856 -0.09380501 0.610371
0.40873858 0.06884951 0.24294908 -0.16070157 0.5333489 0.3345245 -0.38404486 0.49825478
-0.11068823 -0.26399416 0.07076607 -0.23018202 0.408592 0.07008742 0.3152035 0.18350512
00000000: 37b5 023f 6a6e 89bd f760 35be afe0 b4bd
00000010: a0fb c9bd 73af b6be 54ce ee3e c258 7dbe
00000020: 2fa0 a03e e13c 88be 26e8 33be af03 b33e
00000030: dd1e d53e 71f3 eabe d71c c0bd 4641 1c3f
00000040: 2f46 d13e f900 8d3d a5c7 783e f48e 24be
00000050: 8e89 083f cc46 ab3e 87a1 c4be 401b ff3e
00000060: 83b0 e2bd 3e2a 87be cded 903d d6b4 6bbe
00000070: f832 d13e fe89 8f3d 5a62 a13e c4e8 3b3e

models.0.down_list.2.0.0.running_mean f4 [32]
-0.23387441 -0.3447881 0.22139102 0.9010643 -0.10847005 -0.6836894 -0.16690423 -0.29588434
-0.29993615 -0.5265838 0.6478299 0.24367736 0.22420706 0.42198062 -0.028915212 0.24129553
0.44243544 -0.26992553 0.31884053 -0.79257745 0.15647206 -0.50708973 -0.008531767 0.6410527
-0.34522477 -0.6110117 -0.6849422 -0.7487122 0.023461673 0.44700888 -0.17642885 -0.5954828
00000000: c67c 6fbe 1188 b0be 54b4 623e 26ac 663f
00000010: 8c25 debd 4506 2fbf f1e8 2abe 277e 97be
00000020: 3b91 99be 32ce 06bf 2ed8 253f 8f86 793e
00000030: 8996 653e d80d d83e 98df ecbc 2d16 773e
00000040: e686 e23e ae33 8abe 113f a33e 5be6 4abf
00000050: 363a 203e a2d0 01bf d3c8 0bbc 081c 243f
00000060: 4dc1 b0be 436b 1cbf 5f58 2fbf 9aab 3fbf
00000070: b232 c03c 59de e43e c4a9 34be 9071 18bf

models.0.down_list.2.0.0.running_var f4 [32]
0.09230562 0.06952376 0.12260713 0.012745834 0.13583134 0.03971431 0.09061312 0.07069337
0.10853579 0.07234589 0.054804347 0.07625046 0.07662405 0.10258817 0.1431126 0.08653608
0.14105844 0.10144449 0.2416526 0.042338822 0.21540159 0.10805979 0.101426505 0.070594646
0.05881126 0.032705482 0.12963514 0.039384577 0.08038007 0.07462822 0.10394712 0.08411948
00000000: bb0a bd3d 7962 8e3d 7219 fb3d e7d3 503c
00000010: 5f17 0b3e 79ab 223d 5f93 b93d b0c7 903d
00000020: 0348 de3d 152a 943d 867a 603d 3429 9c3d
00000030: 12ed 9c3d bf19 d23d 1c8c 123e d439 b13d
00000040: a071 103e 21c2 cf3d c773 773e 796b 2d3d
00000050: 3c92 5c3e 744e dd3d b3b8 cf3d ed93 903d
00000060: 13e4 703d 2ff6 053d 13bf 043e b951 213d
00000070: 4e9e a43d aed6 983d 3ae2 d43d d546 ac3d

models.0.down_list.2.0.1.weight f4 [64, 32, 3, 3]
0.0684016 0.10188167 0.067250386 -0.004705931 -0.06575758 -0.1008369 0.0067154597 -0.018069765
-0.015777517 0.08351998 0.10381201 -0.077310055 0.004266195 0.02479558 -0.032571334 -0.030506177
-0.039471094 0.024020653 0.044434372 0.005894285 -0.022968248 -0.038159966 -0.12648122 0.020175114
0.01778712 -0.042994216 -0.008977285 0.08706566 -0.07442204 -0.0026416192 0.08102013 0.055943698
0.119267665 0.068742454 -0.030188309 -0.020928556 0.012453789 -0.024131866 -0.071021795 -0.027170531
0.071489654 -0.024781862 -0.017143136 0.044608984 -0.011752914 -0.1362267 -0.11191188 -0.0113068735
-0.007418443 0.02424242 -0.03704877 0.009522315 0.036733925 -0.037923057 -0.0051991413 0.013721101
0.012283033 -0.11323166 0.04172988 0.0022519818 -0.07031252 0.027368754 0.029214174 0.14384216
0.1481293 0.042299595 0.0877455 -0.09219491 -0.012372148 0.030696753 -0.029850442 -0.027031645
-0.063847095 -0.10010648 0.03404395 0.06819389 0.024801245 0.04202313 0.008047559 0.022782674
-0.013617745 -0.0407886 -0.007538462 -0.07011168 0.035565883 0.0302365 0.06690442 -0.047004048
0.02281677 -0.009174058 -0.06224802 0.05043381 0.01519122 0.036718458 0.16508742 0.020152578
0.0043357727 0.043740176 -0.035886407 -0.04165511 -0.050799616 0.022196082 -0.047069855 -0.04678519
-0.0110605275 -0.06833558 0.005353008 -0.062940076 0.10726166 0.016710494 0.01142799 0.04201449
-0.095158115 0.0040091365 0.004013652 0.019446576 -0.010496093 0.100806035 0.05464959 0.018699588
0.036224212 -0.05594365 -0.005794683 -0.023629246 0.030476764 0.01998813 -0.044668913 -0.08769496
-0.0027177287 0.082070254 -0.06781926 0.0028738417 0.17038518 -0.014951819 0.05397273 -0.05480856
-0.0066631534 0.09002135 -0.058123328 -0.09991476 -0.018726744 0.0044215545 -0.014175261 0.030119626
-0.0664119 -0.112532645 0.0338952 -0.0832914 -0.10039202 -0.026053073 0.011917743 -0.0046007284
0.062513806 0.014534579 0.050468754 -0.04451848 -0.075433746 -0.05329457 -0.011454898 0.011303128
0.041943267 -0.012756367 -0.09617632 -0.068235554 -0.04890246 -0.19024254 -0.12391727 0.017716354
0.006740176 -0.10313998 0.024869202 -0.004095993 0.05116491 0.028192533 0.050905917 0.08833747
0.028971931 0.0483752 0.017052194 0.03903755 -0.021199994 -0.030969119 -0.008167962 -0.011762746
-0.0912801 -0.09395669 0.015599089 -0.0354799 -0.0046552415 0.0005166456 0.02013133 -0.022005776
-0.15492846 -0.08134149 -0.07074777 0.05226643 0.04054809 0.010133074 -0.053466205 0.04947238
-0.00853165 0.10669454 0.08896809 0.00621727 0.09419029 -0.025235709 0.06584675 0.06588758
0.054955043 0.055769537 -0.06765562 -0.016124614 -0.026643109 -0.035974782 -0.083882645 -0.0037182462
0.012364246 0.12606029 0.008259841 -0.009119293 0.058726843 0.051230077 -0.059894204 -0.030228628
0.06677041 0.039225496 0.056340028 -0.013407456 -0.051203676 0.012847869 -0.050066706 -0.023161775
-0.0016969389 0.013310049 -0.042781282 -0.17050445 -0.056167137 -0.10776749 -0.15573764 -0.042931855
-0.15754543 -0.024327094 -0.041561414 -0.111294664 -0.032739352 -0.006521242 0.10801706 -0.03994191
-0.06888069 -0.017321663 0.04401228 -0.03880435 0.014400003 0.0566258 -0.0025386086 -0.11705699
00000000: 2316 8c3d 56a7 d03d 92ba 893d 3634 9abb
00000010: e9ab 86bd 9483 cebd 5c0d dc3b 0b07 94bc
00000020: da3f 81bc 860c ab3d 649b d43d bc54 9ebd
00000030: 70cb 8b3b 1a20 cb3c 8569 05bd 17e8 f9bc
00000040: 71ac 21bd f6c6 c43c d100 363d d924 c13b
00000050: e827 bcbc a04d 1cbd 4b84 01be 4846 a53c
00000060: 4bb6 913c b41a 30bd 7615 13bc 7b4f b23d
00000070: 956a 98bd 041f 2dbb e2ed a53d 3825 653d
00000080: 9b42 f43d d8c8 8c3d 794d f7bc 5d72 abbc
00000090: fa0a 4c3c 31b0 c5bc e073 91bd bc94 debc
000000a0: 2b69 923d 5503 cbbc c36f 8cbc e9b7 363d
000000b0: 4b8f 40bc 037f 0bbe 0e32 e5bd 7740 39bc
000000c0: 6916 f3bb 0a98 c63c 73c0 17bd 7c03 1c3c
000000d0: 5076 163d 3555 1bbd 8f5d aabb 78ce 603c
000000e0: c63e 493c 00e6 e7bd f3ec 2a3d fc95 133b
000000f0: 0300 90bd 7034 e03c 9052 ef3c 5c4b 133e
00000100: 35af 173e 5742 2d3d eab3 b33d afd0 bcbd
00000110: 8db4 4abc c277 fb3c ea88 f4bc 7871 ddbc
00000120: 44c2 82bd a004 cdbd ab71 0b3d 3da9 8b3d
00000130: fb2b cb3c 7220 2c3d e9d9 033c bba2 ba3c
00000140: f61c 5fbc f211 27bd 3405 f7bb b696 8fbd
00000150: 88ad 113d 89b2 f73c 2f05 893d 5187 40bd
00000160: 3cea ba3c ca4e 16bc c8f7 7ebd af93 4e3d
00000170: 98e4 783c 1866 163d ad0c 293e 0517 a53c
00000180: 1913 8e3b e628 333d a0fd 12bd 8c9e 2abd
00000190: 4213 50bd 8fd4 b53c 52cc 40bd d4a1 3fbd
000001a0: 3737 35bc 86f3 8bbd 4968 af3b bae6 80bd
000001b0: 00ac db3d 72e4 883c 773c 3b3c 6317 2c3d
000001c0: 42e2 c2bd 135f 833b f484 833b 6d4e 9f3c
000001d0: cef7 2bbc 6573 ce3d 40d8 5f3d e12f 993c
000001e0: d75f 143d 2b25 65bd 53e1 bdbb 1f92 c1bc
000001f0: 68aa f93c 26be a33c c0f6 36bd 6a99 b3bd
00000200: ec1b 32bb 7314 a83d d3e4 8abd 1057 3c3b
00000210: 7479 2e3e 79f8 74bc 8212 5d3d f17e 60bd
00000220: 9556 dabb 1d5d b83d ba12 6ebd 1ca0 ccbd
00000230: d468 99bc b0e2 903b 5b3f 68bc 6fbd f63c
00000240: f602 88bd 8477 e6bd b1d5 0a3d ae94 aabd
00000250: 559a cdbd 416d d5bc a342 433c b5c1 96bb
00000260: 3d07 803d 7122 6e3c 53b8 4e3d 0259 36bd
00000270: 027d 9abd 684b 5abd 53ad 3bbc c130 393c
00000280: b4cc 2b3d 1500 51bc 17f8 c4bd 15bf 8bbd
00000290: f24d 48bd f1ce 42be 56c8 fdbd e321 913c
000002a0: b2dc dc3b 0e3b d3bd 7fba cb3c ae37 86bb
000002b0: 4c92 513d 07f4 e63c b982 503d 47ea b43d
000002c0: 8b56 ed3c 1325 463d 0bb1 8b3c d7e5 1f3d
000002d0: 9cab adbc f3b2 fdbc ead2 05bc 88b8 40bc
000002e0: 10f1 babd 5d6c c0bd 5293 7f3c 5f53 11bd
000002f0: ff8a 98bb 806f 073a 75ea a43c 7545 b4bc
00000300: 91a5 1ebe 5e96 a6bd 35e4 90bd 5315 563d
00000310: c115 263d 3105 263c 61ff 5abd 8da3 4a3d
00000320: 55c8 0bbc ab82 da3d e734 b63d 3eba cb3b
00000330: d7e6 c03d 1ebb cebc a9da 863d 11f0 863d
00000340: 8a18 613d 996e 643d 088f 8abd c417 84bc
00000350: a642 dabc 4b5a 13bd aaca abbd d2ad 73bb
00000360: 6893 4a3c f315 013e 4954 073c 1669 15bc
00000370: 8f8b 703d a1d6 513d a053 75bd 07a2 f7bc
00000380: edbe 883d eaaa 203d cdc4 663d f2aa 5bbc
00000390: f2ba 51bd de7f 523c bf12 4dbd c3bd bdbc
000003a0: d26b deba 6412 5a3c 6d3b 2fbd b898 2ebe
000003b0: 830f 66bd 34b5 dcbd b079 1fbe 50d9 2fbd
000003c0: 9753 21be 9d49 c7bc 4d3c 2abd 75ee e3bd
000003d0: b319 06bd 25b0 d5bb 0c38 dd3d 219a 23bd
000003e0: 5211 8dbd 29e6 8dbc 3846 343d 4ff1 1ebd
000003f0: fded 6b3c 74f0 673d c95e 26bb 93bb efbd

models.0.down_list.2.0.1.bias f4 [64]
-0.24385816 -0.3366891 -0.3586526 -0.13354237 0.06355142 0.1712487 0.121358775 -0.28912047
-0.252847 0.11459452 -0.1286727 -0.07551468 -0.026255284 0.07252839 -0.08810854 0.105936065
-0.36837614 -0.13689536 -0.41006106 -0.061002333 -0.49524018 -0.0029474047 0.08483901 0.05829385
-0.10440338 0.11043953 -0.09397856 -0.16800575 0.11672943 -0.16283992 -0.3030668 -0.05624955
-0.21234182 0.06688453 -0.09284752 -0.31505942 -0.40152338 0.09551109 0.15163219 -0.05670598
-0.21436454 0.09895054 -0.28973228 -0.23618895 0.07697721 0.024502354 -0.27567062 -0.0073728645
-0.06697867 -0.46571946 -0.28653967 0.07476922 -0.18394367 -0.0056682876 -0.41136104 -0.1770251
-0.050147712 0.066538624 0.22464456 -0.007469748 -0.17093505 -0.36890537 -0.36892012 -0.2118308
00000000: f4b5 79be 8462 acbe 50a1 b7be 55bf 08be
00000010: 3f27 823d d25b 2f3e f38a f83d 9907 94be
00000020: 2975 81be 88b0 ea3d c7c2 03be 71a7 9abd
00000030: 5215 d7bc c489 943d 4072 b4bd 02f5 d83d
00000040: cc9b bcbe 4c2e 0cbe 86f3 d1be 95dd 79bd
00000050: 1f90 fdbe 3f29 41bb 13c0 ad3d 88c5 6e3d
00000060: 70d1 d5bd 1f2e e23d d577 c0bd b309 2cbe
00000070: d70f ef3d 82bf 26be 922b 9bbe ee65 66bd
00000080: 2270 59be c2fa 883d d726 bebd 784f a1be
00000090: 7994 cdbe 519b c33d 7845 1b3e 8844 68bd
000000a0: 6182 5bbe 95a6 ca3d ca57 94be 84db 71be
000000b0: 3aa6 9d3d 29b9 c83c b324 8dbe 1298 f1bb
000000c0: 1d2c 89bd c872 eebe 54b5 92be 9b20 993d
000000d0: bb5b 3cbe 0bbd b9bb ea9d d2be 1146 35be
000000e0: b067 4dbd 6745 883d 3909 663e cac4 f4bb
000000f0: 9909 2fbe 2ae1 bcbe 19e3 bcbe 2cea 58be

models.0.up_list.0.0.0.weight f4 [64]
0.7753227 0.8423409 0.857339 0.95635337 0.796258 0.5112981 0.8530825 0.7824225
0.7131018 0.5440752 0.7963706 0.73519725 0.72044075 0.68034434 0.83476365 0.63581836
0.77973855 0.7809912 0.7464037 0.8034869 0.78635114 0.7912268 0.61846715 0.5540403
0.6528221 0.5976963 0.79438657 0.81225824 0.6338494 0.8001432 0.657878 0.87295914
0.81539905 0.8437952 0.8779888 0.8466707 0.8752527 0.65653396 0.8572744 0.7145752
0.837275 0.63362116 0.8979307 0.8710561 0.8998155 0.78317165 0.8473942 0.6722125
0.8661078 0.8080708 0.7778601 0.59716517 0.6546149 0.8463398 0.86774313 0.90230024
0.77122223 0.80490166 0.98322594 0.737479 0.7835665 0.7992494 0.7982214 0.74756104
00000000: 8c7b 463f a7a3 573f 927a 5b3f 93d3 743f
00000010: 90d7 4b3f 6fe4 023f 9d63 5a3f d74c 483f
00000020: d78d 363f 8348 0b3f f2de 4b3f e335 3c3f
00000030: ce6e 383f 0c2b 2e3f 12b3 553f fec4 223f
00000040: f29c 473f 0aef 473f 5014 3f3f 51b1 4d3f
00000050: 4f4e 493f d78d 4a3f dd53 1e3f 96d5 0d3f
00000060: 591f 273f a002 193f eb5c 4b3f 28f0 4f3f
00000070: f443 223f 2fd6 4c3f b16a 283f 407a 5f3f
00000080: febd 503f f602 583f e0c3 603f 69bf 583f
00000090: 9010 603f 9c12 283f 5676 5b3f 66ee 363f
000000a0: a857 563f ff34 223f c9de 653f 88fd 5e3f
000000b0: 4f5a 663f f07d 483f d4ee 583f 1e16 2c3f
000000c0: 3eb9 5d3f badd 4e3f d721 473f d1df 183f
000000d0: d894 273f baa9 583f 6a24 5e3f 26fd 663f
000000e0: d26e 453f 090e 4e3f b2b4 7b3f 6ccb 3c3f
000000f0: d097 483f 9c9b 4c3f 3d58 4c3f 2960 3f3f

models.0.up_list.0.0.0.bias f4 [64]
-0.33875173 -0.09635735 0.41705427 -0.01616021 0.285867 0.3729112 -0.5363187 -0.41227716
0.35136896 0.49562395 0.4191338 0.39804873 0.38116804 0.36772546 -0.31576246 0.44277593
0.4232776 0.52199876 0.35708362 0.19148763 0.35751742 -0.3991795 0.3402133 0.31668067
-0.41197383 0.41649276 0.5055954 0.30327597 0.4411558 -0.39829284 -0.27285203 -0.2997528
0.09300288 -0.26035932 0.1281729 0.21703324 0.12524946 0.29456085 -0.3395258 0.4016264
0.015314866 0.2996801 -0.22996543 0.15011707 -0.3086421 -0.30803555 0.45679274 0.3006806
-0.36263824 0.40053153 0.17114718 0.4951184 0.41428855 -0.37903816 -0.07922939 -0.26669943
0.38099745 -0.26023287 -0.22665228 0.41026208 0.37773424 -0.19430906 -0.30127406 0.3484278
00000000: de70 adbe 0157 c5bd 2388 d53e 6b62 84bc
00000010: 295d 923e 38ee be3e 2f4c 09bf fe15 d3be
00000020: a2e6 b33e 6cc2 fd3e b598 d63e 0bcd cb3e
00000030: 7528 c33e 8346 bc3e 9eab a1be 87b3 e23e
00000040: d7b7 d83e b6a1 053f aad3 b63e 5515 443e
00000050: 860c b73e 4161 ccbe 7030 ae3e f823 a23e
00000060: 3cee d2be 8a3e d53e b36e 013f fd46 9b3e
00000070: 2cdf e13e 0aed cbbe 43b3 8bbe 3379 99be
00000080: 4b78 be3d d14d 85be c23f 033e f63d 5e3e
00000090: 6541 003e aed0 963e 53d6 adbe faa1 cd3e
000000a0: 34eb 7a3c ac6f 993e 0f7c 6bbe 4ab8 193e
000000b0: 5606 9ebe d6b6 9dbe bde0 e93e cff2 993e
000000c0: b8ab b9be 7812 cd3e 3541 2f3e 2980 fd3e
000000d0: a11d d43e 4a11 c2be 0543 a2bd d48c 88be
000000e0: 1912 c33e 3e3d 85be 8917 68be df0d d23e
000000f0: 6266 c13e f4f8 46be 9840 9abe 2165 b23e

models.0.up_list.0.0.0.running_mean f4 [64]
-0.75602156 -0.44376904 -0.74534976 0.31520218 0.06648729 1.4619989 0.46320024 -0.6987314
-1.544415 1.4635869 -0.44097185 0.25627077 1.0228057 1.5567966 0.3371438 1.7386527
-0.64538187 0.25528678 -0.9205921 0.4011692 -0.26033399 0.54857564 1.0268514 1.2416896
-1.2152321 1.1870012 0.32912654 -0.6043938 1.2384571 0.56906617 -1.2258282 0.5735656
-0.6686474 0.3168759 0.30265233 0.026671208 -0.1802743 1.0030503 0.93979114 -0.36844802
-0.9370536 1.1437606 -0.32731536 0.42759565 -0.24609631 0.15533128 -0.7662545 0.843866
-0.1201198 -0.98830384 -0.5829424 0.8117236 1.0288539 0.3807489 -0.49947986 0.12467972
-0.6505017 -0.10436819 0.82794374 0.6437635 -1.2446144 -0.60657734 -1.1234009 -0.46873945
00000000: a18a 41bf b235 e3be 3ecf 3ebf 2e62 a13e
00000010: 7d2a 883d c822 bb3f 9528 ed3e 10e0 32bf
00000020: 64af c5bf d156 bb3f 10c7 e1be ec35 833e
00000030: 4ceb 823f 1c45 c73f 1d9e ac3e 2c8c de3f
00000040: bf37 25bf f3b4 823e edab 6bbf 0d66 cd3e
00000050: 7f4a 85be 746f 0c3f de6f 833f afef 9e3f
00000060: ba8c 9bbf a8ef 973f 4683 a83e 8db9 1abf
00000070: c385 9e3f 52ae 113f f0e7 9cbf 32d5 123f
00000080: 7a2c 2bbf 8f3d a23e 3ff5 9a3e 947d da3c
00000090: d399 38be f463 803f 2796 703f 38a5 bcbe
000000a0: bfe2 6fbf bf66 923f e195 a7be d1ed da3e
000000b0: ac00 7cbe 2a0f 1f3e 4129 44bf 9a07 583f
000000c0: 5f01 f6bd 7b01 7dbf b73b 15bf 1ecd 4f3f
000000d0: 7cb1 833f 85f1 c23e d3bb ffbe 1558 ff3d
000000e0: 4887 26bf fdbe d5bd 1ff4 533f afcd 243f
000000f0: 864f 9fbf a748 1bbf 9acb 8fbf 9efe efbe

models.0.up_list.0.0.0.running_var f4 [64]
0.322206 0.45360652 0.4102513 0.38009685 0.6430976 0.13295725 1.0857693 0.40364003
0.5552809 0.13416086 0.5779103 1.1326836 0.19131538 0.7468785 0.43398282 0.12615556
0.23352051 0.41171193 0.20543277 0.38600776 0.2865245 0.34648156 0.08992624 0.124181904
0.13399316 0.12667917 0.83836365 0.37165987 0.07422705 0.62648916 0.1634639 0.48902982
0.19757754 0.41342953 0.39159536 0.39677638 0.4638659 0.42354944 0.38025376 0.39354566
0.42620733 0.046212804 0.2649877 0.60816747 0.4915762 0.37048522 0.39707923 0.25163484
0.26286146 0.087916404 0.227921 0.1270294 0.66620284 0.54434633 0.31824076 0.3889346
0.41976374 0.5630432 0.39766994 0.17175047 0.4149105 0.6296798 0.52748734 0.6249592
00000000: 2ff8 a43e 1d3f e83e 750c d23e 0e9c c23e
00000010: 0ba2 243f f225 083e 7dfa 8a3f e8a9 ce3e
00000020: e426 0e3f 7761 093e eef1 133f c7fb 903f
00000030: 2ee8 433e 6e33 3f3f ff32 de3e ec2e 013e
00000040: 0020 6f3e e8cb d23e f85c 523e cfa2 c53e
00000050: 57b3 923e 0866 b13e 402b b83d 1553 fe3d
00000060: 8135 093e 2fb8 013e 009f 563f 344a be3e
00000070: 5a04 983d 9861 203f 1563 273e 1e62 fa3e
00000080: c451 4a3e 09ad d33e 307f c83e 4626 cb3e
00000090: d57f ed3e 79db d83e 9fb0 c23e d17e c93e
000000a0: d937 da3e a349 3d3d 78ac 873e ddb0 1b3f
000000b0: e0af fb3e 3db0 bd3e f84d cb3e 48d6 803e
000000c0: c795 863e 840d b43d 1f64 693e ff13 023e
000000d0: 458c 2a3f 485a 0b3f 74f0 a23e 7022 c73e
000000e0: 46eb d63e 9923 103f 659b cb3e 5bdf 2f3e
000000f0: 266f d43e b232 213f 6909 073f 53fd 1f3f

models.0.up_list.0.0.1.weight f4 [64, 32, 4, 4]
0.028615452 -0.031191738 0.028475527 -0.024367277 0.018096806 -0.009590913 0.012763599 -0.03196409
-0.008836184 0.024298916 -0.27055037 0.015693342 0.014763914 -0.0680054 -0.054668456 -0.06492704
-0.0017137444 0.03340214 0.025041014 -0.0650257 0.09519089 0.0013317044 0.15527935 -0.068223186
0.11824794 0.050721444 -0.0008217795 0.015107002 0.038832925 -0.06714569 -0.046913814 -0.047530938
0.024820974 -0.22059226 -0.12371935 0.05573612 -0.09147753 -0.19262838 -0.05739976 -0.0929269
-0.07382536 0.13635133 0.051634926 -0.11349495 -0.07208097 0.23869869 0.09079805 -0.16835704
0.13770095 0.11965149 0.012240913 -0.057457555 -0.08105543 -0.061056502 0.13386944 0.04461056
0.05553872 0.124920286 -0.12998149 0.05697835 -0.033765517 0.065841295 -0.0071171285 -0.005500896
0.08730994 -0.043511532 -0.08312251 -0.18760252 0.14946264 0.109182596 0.06890798 0.17363971
0.01811841 0.13963139 0.020320956 -0.068004474 0.034634594 0.106384486 0.11917821 -0.2344022
-0.34750107 -0.21419583 -0.06398637 -0.116037846 -0.16009665 -0.11237808 0.04414132 -0.097706296
-0.100050844 0.010263458 0.04722929 -0.042784505 -0.18046783 0.08377413 0.0024570753 -0.08782727
0.070906356 0.06666315 -0.03324807 -0.03373225 -0.022048492 0.1255851 0.044277065 0.0364793
-0.042381175 0.029892612 0.029587733 0.06066338 -0.00828462 -0.094399914 0.088646136 -0.027536482
0.0607384 0.13235247 0.04109121 -0.13101475 0.10338761 -0.012927956 -0.13642177 -0.12080579
-0.0021244008 -0.15807813 -0.20411906 0.022572255 -0.0017063714 -0.12751448 -0.026518404 0.022224706
0.17431742 -0.05244972 0.08076554 0.15598127 0.18305933 0.19949952 0.06367052 -0.032667186
0.121541895 0.0632037 -0.18623102 0.076642424 0.07359666 -0.017457707 -0.12460498 -0.0766398
0.15638822 0.0889217 -0.039218843 0.067300975 0.015863335 0.013457066 0.1073061 0.005175568
0.00059662695 0.27204898 0.077796616 0.11278422 0.103394255 -0.02706418 0.06291375 0.051473193
0.029617079 0.017874815 0.02296906 -0.007720594 0.21424824 0.09182144 0.08010414 0.05478738
-0.03808135 0.04640579 0.06457801 0.07201289 -0.030991547 0.083383106 0.11360396 0.015615924
-0.024269478 0.07027825 0.024226086 -0.06544858 0.049506154 0.13665482 0.08314201 -0.026911993
0.021793924 -0.055740032 0.026503291 -0.0062792995 -0.04460881 -0.25583926 -0.03209062 0.05802946
-0.027858209 0.045766514 0.06958492 0.042982623 -0.08283727 0.06423002 0.019953266 -0.0607222
0.037470672 -0.037471283 -0.07943161 -0.09950267 -0.0114946375 -0.07877689 -0.025865804 -0.016922396
0.036223985 -0.004717343 0.029852143 0.09550858 -0.01864341 0.003981341 -0.0033767319 -0.00829774
-0.009370951 0.044935446 0.06567903 -0.010537197 0.048383895 -0.04865822 -0.05180141 0.040203363
-0.1615766 -0.10624861 -0.011905468 -0.13813902 0.041742437 -0.2352338 -0.124517165 0.0707491
0.04470283 -0.009930427 -0.036322054 -0.0019778982 -0.0856206 0.022471813 -0.090190105 -0.01164909
0.07754264 -0.08394641 0.05900332 0.0886793 -0.15233935 -0.2553905 -0.020495448 0.024908405
-0.068788186 -0.09467544 -0.046529997 -0.039701015 -0.022762708 -0.067834884 -0.04640776 0.061844602
00000000: f46a ea3c d185 ffbc 8245 e93c e29d c7bc
00000010: c13f 943c 3423 1dbc 6a1e 513c c7ec 02bd
00000020: a4c5 10bc 850e c73c 9485 8abe 538f 803c
00000030: 58e4 713c 6a46 8bbd 08ec 5fbd 78f8 84bd
00000040: b89f e0ba afd0 083d d022 cd3c 322c 85bd
00000050: 71f3 c23d 968c ae3a 8d01 1f3e 99b8 8bbd
00000060: fa2b f23d 4ac1 4f3d b06c 57ba 5c83 773c
00000070: 460f 1f3d ae83 89bd b328 40bd cdaf 42bd
00000080: 5b55 cb3c f0e2 61be 9260 fdbd 8f4b 643d
00000090: 9258 bbbd 6040 45be 031c 6bbd 7550 bebd
000000a0: c031 97bd af9f 0b3e 257f 533d 0a70 e8bd
000000b0: 309f 93bd 6e6d 743e 54f4 b93d ca65 2cbe
000000c0: 7a01 0d3e d70b f53d 1c8e 483c 9d58 6bbd
000000d0: 6400 a6bd 6216 7abd 1215 093e 90b9 363d
000000e0: 927c 633d 35d6 ff3d de19 05be 2162 693d
000000f0: b64d 0abd cdd7 863d cd36 e9bb dc40 b4bb
00000100: 8ecf b23d 2639 32bd 223c aabd e01a 40be
00000110: bc0c 193e 209b df3d a11f 8d3d 9cce 313e
00000120: 0f6d 943c 88fb 0e3e 2278 a63c ee45 8bbd
00000130: 01dd 0d3d 1ce0 d93d b513 f43d 2107 70be
00000140: a9eb b1be 2756 5bbe 490b 83bd 40a5 edbd
00000150: 60f0 23be 7b26 e6bd 87cd 343d 3d1a c8bd
00000160: 75e7 ccbd 1028 283c 8073 413d ce3e 2fbd
00000170: 8fcc 38be c591 ab3d e206 213b c9de b3bd
00000180: 5a37 913d b186 883d 212f 08bd d42a 0abd
00000190: 0a9f b4bc 6199 003e de5b 353d 526b 153d
000001a0: e297 2dbd 5ae1 f43c f961 f23c 2a7a 783d
000001b0: 37bc 07bc be54 c1bd 1b8c b53d 3094 e1bc
000001c0: d4c8 783d 6887 073e 424f 283d bb28 06be
000001d0: e2bc d33d c7cf 53bc 26b2 0bbe 0769 f7bd
000001e0: 8839 0bbb 3cdf 21be 9604 51be 73e9 b83c
000001f0: 53a8 dfba 2893 02be 203d d9bc 9610 b63c
00000200: 4480 323e 85d5 56bd 6768 a53d 8eb9 1f3e
00000210: e873 3b3e 9a49 4c3e b165 823d 07ce 05bd
00000220: f5ea f83d f170 813d 58b3 3ebe b4f6 9c3d
00000230: d8b9 963d 7703 8fbc e530 ffbd 54f5 9cbd
00000240: 3c24 203e 951c b63d f0a3 20bd 18d5 893d
00000250: d3f3 813c 077b 5c3c 4dc3 db3d d097 a93b
00000260: f566 1c3a 014a 8b3e d553 9f3d 6afb e63d
00000270: 5ec0 d33d b3b5 ddbc edd8 803d 8ed5 523d
00000280: 849f f23c 346e 923c 9c29 bc3c 09fd fcbb
00000290: e463 5b3e e10c bc3d a40d a43d bb68 603d
000002a0: 31fb 1bbd ff13 3e3d 7a41 843d 7e7b 933d
000002b0: fce1 fdbc c3c4 aa3d 31a9 e83d efd9 7f3c
000002c0: c9d0 c6bc 0bee 8f3d c975 c63c e809 86bd
000002d0: f7c6 4a3d 3eef 0b3e 5c46 aa3d 8a76 dcbc
000002e0: 2c89 b23c a94f 64bd 6e1d d93c 95c2 cdbb
000002f0: bab7 36bd 5dfd 82be 7471 03bd 4db0 6d3d
00000300: e636 e4bc ab75 3b3d 8a82 8e3d 8c0e 303d
00000310: 96a6 a9bd 078b 833d 0875 a33c d7b7 78bd
00000320: d97a 193d 7d7b 19bd 0aad a2bd 0ec8 cbbd
00000330: 0154 3cbc c755 a1bd 86e4 d3bc d6a0 8abc
00000340: 9a5f 143d f193 9abb 7b8c f43c 019a c33d
00000350: 11ba 98bc e975 823b 294c 5dbb 3ef3 07bc
00000360: 9e88 19bc 3b0e 383d ba82 863d 35a4 2cbc
00000370: 312e 463d d74d 47bd b72d 54bd 48ac 243d
00000380: 5674 25be df98 d9bd 270f 43bc 5174 0dbe
00000390: 1efa 2a3d 21e1 70be db02 ffbd e7e4 903d
000003a0: 511a 373d 3bb3 22bc 6fc6 14bd a09f 01bb
000003b0: da59 afbd cf16 b83c 97b5 b8bd d3db 3ebc
000003c0: adce 9e3d 18ec abbd 77ad 713d 7e9d b53d
000003d0: d9fe 1bbe 8bc2 82be 12e6 a7bc b60c cc3c
000003e0: d2e0 8cbd 32e5 c1bd 3d96 3ebd 889d 22bd
000003f0: dc78 babc 04ed 8abd 1016 3ebd c450 7d3d

models.0.up_list.0.0.1.bias f4 [32]
0.3135599 0.5359008 -0.30171764 0.04366582 0.029748473 0.035250723 0.44380072 -0.4431912
-0.4529986 0.015477024 -0.13103814 0.092289805 -0.30641586 -0.28678977 0.17093273 -0.12397023
0.15513684 0.39623538 -0.12412711 -0.25172994 -0.19709755 0.3350222 -0.49324694 0.24449824
-0.46130508 -0.36247805 -0.4206286 -0.67574465 0.16593169 -0.1554895 -0.112388216 0.13838896
00000000: ec8a a03e cb30 093f bc7a 9abe eeda 323d
00000010: 12b3 f33c 1063 103d d939 e33e f5e9 e2be
00000020: 6fef e7be 5893 7d3c dd2e 06be 7002 bd3d
00000030: 8ae2 9cbe 1cd6 92be fd08 2f3e 1be4 fdbd
00000040: 31dc 1e3e 5ddf ca3e 5b36 febd bfe2 80be
00000050: f1d3 49be 0888 ab3e dd8a fcbe bf5d 7a3e
00000060: 2e30 ecbe b996 b9be a25c d7be 9afd 2cbf
00000070: ffe9 293e a438 1fbe cb2b e6bd d6b5 0d3e
