cv_weights.pth (torch, 423319 bytes, 100 tensors)

models.0.ingest.0.0.weight f4 [3]
0.71966934 0.73249334 0.6813417
00000000: 403c 383f af84 3b3f 696c 2e3f

models.0.ingest.0.0.bias f4 [3]
0.071483895 0.022131776 -0.073487625
00000000: 2666 923d b34d b53c ae80 96bd

models.0.ingest.0.0.running_mean f4 [3]
-0.4492819 -0.47281677 -0.51636827
00000000: 4708 e6be 0a15 f2be b630 04bf

models.0.ingest.0.0.running_var f4 [3]
0.21234535 0.19502059 0.22692733
00000000: 0f71 593e 7ab3 473e a35f 683e

models.0.ingest.0.1.weight f4 [16, 3, 3, 3]
-0.11465482 0.1391547 -0.0052583516 -0.04168254 0.38406363 0.26756206 -0.09084827 -0.050137255
0.2406164 0.16321895 -0.029726123 -0.16523355 0.09610923 -0.25908247 -0.09216316 -0.008741515
-0.16527785 -0.22164091 0.0033754625 0.113580175 0.087607116 0.03544562 -0.07096452 -0.11732779
0.12775111 0.10966106 0.02286571 0.08829653 0.20827892 -0.114192456 0.1796758 -0.10961613
-0.06494862 0.03846319 -0.20669535 -0.14369115 -0.019047 0.05674073 0.17509899 -0.15879984
0.060323503 -0.051130172 -0.011734975 0.04583967 -0.0032034402 -0.046847295 -0.23377025 0.050539367
-0.05698264 -0.082495496 -0.057680726 -0.0601654 0.15521598 -0.00038741628 -0.10192835 0.013785908
0.08719668 0.021525031 -0.015248461 0.08766512 -0.014279746 -0.12274734 0.07415261 -0.06138928
0.058849853 -0.08595927 0.10438914 0.08081451 0.053391654 0.012095529 -0.09561037 0.05155445
-0.041687638 0.066703714 -0.06661721 -0.26222235 -0.11678457 -0.13107798 -0.0043023652 0.028927458
-0.0006844217 -0.05886198 0.06412302 -0.044514485 -0.08016002 0.087888114 0.12794736 -0.015769716
-0.053679064 -0.11619209 0.067354135 -0.03286138 0.09189838 -0.025181683 0.07314827 0.07973786
-0.09018291 0.06667704 0.11871537 -0.07164525 -0.0826146 0.044835724 -0.09388101 0.074677624
-0.04741108 -0.15131593 -0.1690476 -0.093289495 0.1983394 0.021313192 0.12914492 -0.08845766
0.10037653 0.17395295 -0.033683643 0.06843421 0.071557164 -0.18286987 -0.07780387 -0.030183088
0.09243825 -0.1657506 -0.21703532 -0.14099772 -0.17822893 -0.1476687 0.005249591 -0.09628315
-0.012290822 0.011231815 0.018982144 0.010993142 -0.0026190104 0.1535863 0.050508 -0.08902134
0.1541272 0.12064776 0.080614515 -0.02667997 0.09141862 0.046916924 -0.061546903 -0.115985036
-0.10881833 -0.11899645 -0.038977668 -0.017309362 -0.10517581 0.07215567 -0.04612441 0.08937063
-0.05026778 -0.04330489 0.10801912 0.057913497 -0.12921263 0.09203834 -0.052994248 -0.07340993
0.03294436 -0.081606016 -0.05315924 -0.1114535 0.031203644 0.23296392 -0.2409738 0.022190938
0.019130263 -0.24961089 -0.076708615 0.036778685 0.10902948 -0.045763094 -0.1555215 0.109031916
-0.0034554962 0.034098465 0.08411802 0.05676435 0.024420926 -0.04475576 0.044908863 -0.039817356
0.23664533 -0.027728796 0.029862918 0.20863575 -0.018899085 0.12706484 0.015623046 -0.054909144
0.122577116 -0.049715657 0.026881685 -0.056112967 -0.09502604 0.09887522 -0.14915906 -0.12155871
-0.082918026 0.034072883 0.021400366 -0.041228052 0.022540817 0.11826843 -0.066751406 -0.037702475
0.082969524 0.09153736 0.061557304 0.044224154 -0.057776894 0.013959334 0.039429806 -0.10685555
-0.03718774 0.09605784 0.03486866 0.14792842 0.12566166 -0.088314705 0.08837766 0.022735264
0.035425827 -0.014737104 -0.08952256 0.030086612 -0.086571366 -0.14681524 -0.0954128 -0.0020287384
-0.16273895 0.10787226 -0.0006738408 -0.03573782 -0.09264779 -0.032469623 0.116523534 0.101154506
-0.056871064 -0.093457825 -0.023697723 0.021001672 0.117408894 -0.09258881 -0.07809721 -0.034713086
0.08009117 0.03710158 0.13674282 0.16347305 -0.16113304 -0.13806604 0.10931315 0.0059109945
00000000: 25d0 eabd 927e 0e3e 404e acbb 50bb 2abd
00000010: fda3 c43e e5fd 883e a80e babd b95c 4dbd
00000020: 2564 763e de22 273e 3384 f3bc fc32 29be
00000030: ead4 c43d 75a6 84be 0ac0 bcbd 9238 0fbc
00000040: 993e 29be d6f5 62be dd36 5d3b b99c e83d
00000050: 5c6b b33d 6d2f 113d d955 91bd 8d49 f0bd
00000060: 30d1 023e fa95 e03d df50 bb3c d0d4 b43d
00000070: 1247 553e bcdd e9bd effc 373e 6c7e e0bd
00000080: c803 85bd 948b 1d3d f2a7 53be c623 13be
00000090: 7408 9cbc f868 683d 264d 333e 6d9c 22be
000000a0: c715 773d df6d 51bd 0d44 40bc 61c2 3b3d
000000b0: cff0 51bb f3e2 3fbd 7861 6fbe 5e02 4f3d
000000c0: a166 69bd 66f3 a8bd a042 6cbd ff6f 76bd
000000d0: f0f0 1e3e 221e cbb9 d0bf d0bd 4ade 613c
000000e0: 2c94 b23d 4355 b03c aed4 79bc c589 b33d
000000f0: 99f5 69bc f562 fbbd 53dd 973d 5373 7bbd
00000100: 8b0c 713d 6a0b b0bd f9c9 d53d 1482 a53d
00000110: 35b1 5a3d 532c 463c 5fcf c3bd c22a 533d
00000120: a8c0 2abd f59b 883d 9b6e 88bd 0242 86be
00000130: c02c efbd 4e39 06be dbfa 8cbb 47f9 ec3c
00000140: c36a 33ba 4219 71bd ee52 833d d254 36bd
00000150: f02a a4bd affe b33d a204 033e 7e2f 81bc
00000160: 94de 5bbd 1ef6 edbd f7f0 893d a899 06bd
00000170: 3835 bc3d d149 cebc c3ce 953d 9a4d a33d
00000180: d1b1 b8bd f98d 883d 0b21 f33d bfba 92bd
00000190: d831 a9bd aaa5 373d b044 c0bd 95f0 983d
000001a0: 1f32 42bd 90f2 1abe d01a 2dbe 900e bfbd
000001b0: 7c19 4b3e 0199 ae3c 913e 043e 4a29 b5bd
000001c0: 3692 cd3d b920 323e dcf7 09bd 3c27 8c3d
000001d0: 908c 923d 3d42 3bbe a357 9fbd 8642 f7bc
000001e0: 4450 bd3d 86ba 29be 823e 5ebe b561 10be
000001f0: a581 36be 7736 17be c304 ac3b 1a30 c5bd
00000200: 725f 49bc a605 383c 7180 9b3c 941c 343c
00000210: b4a3 2bbb ba45 1d3e 7ae1 4e3d d250 b6bd
00000220: 85d3 1d3e 2c16 f73d 3919 a53d f48f dabc
00000230: af39 bb3d f62b 403d 9b18 7cbd 9089 edbd
00000240: 25dc debd 69b4 f3bd 0ca7 1fbd 5dcc 8dbc
00000250: 6a66 d7bd 5ac6 933d f3ec 3cbd f307 b73d
00000260: 96e5 4dbd 7860 31bd 2139 dd3d b436 6d3d
00000270: 5150 04be 997e bc3d 7f10 59bd f257 96bd
00000280: aaf0 063d 0e21 a7bd 81bd 59bd bc41 e4bd
00000290: c99e ff3c 188e 6e3e d6c1 76be c5c9 b53c
000002a0: 12b7 9c3c ff99 7fbe 6819 9dbd 3fa5 163d
000002b0: d94a df3d 1572 3bbd 0741 1fbe 204c df3d
000002c0: 9b75 62bb d5aa 0b3d 1246 ac3d bc81 683d
000002d0: 650e c83c d151 37bd 5bf2 373d 8617 23bd
000002e0: 2753 723e 8027 e3bc 14a3 f43c 9ca4 553e
000002f0: 41d2 9abc 491d 023e cef7 7f3c 69e8 60bd
00000300: b609 fb3d a5a2 4bbd fb36 dc3c b6d6 65bd
00000310: 039d c2bd 177f ca3d 27bd 18be c6f3 f8bd
00000320: edd0 a9bd 0290 0b3d d24f af3c bfde 28bd
00000330: 85a7 b83c b836 f23d f6b4 88bd e96d 1abd
00000340: edeb a93d f077 bb3d 8323 7c3d 6324 353d
00000350: 77a7 6cbd b1b5 643c 2681 213d 15d7 dabd
00000360: 2c52 18bd f9b9 c43d 71d2 0e3d 8c7a 173e
00000370: 73ad 003e 57de b4bd 59ff b43d 4e3f ba3c
00000380: ac1a 113d e573 71bc 9b57 b7bd 3378 f63c
00000390: 544c b1bd bc56 16be c967 c3bd 95f4 04bb
000003a0: 0aa5 26be 22ec dc3d b1a4 30ba d261 12bd
000003b0: 20be bdbd defe 04bd e4a3 ee3d 182a cf3d
000003c0: a2f1 68bd d166 bfbd ba21 c2bc b30b ac3c
000003d0: 1374 f03d 349f bdbd 6ef1 9fbd 4f2f 0ebd
000003e0: d706 a43d d4f7 173d 4f06 0c3e 7b65 273e
000003f0: 0f00 25be 2f61 0dbe 93df df3d 04b1 c13b

models.0.ingest.0.1.bias f4 [16]
0.040551465 -0.10336607 0.10973401 -0.08172693 -0.009755451 0.051930767 -0.047768556 0.128164
-0.014536499 -0.122970745 -0.009504472 -0.09011221 -0.011277998 -0.08951644 0.029756354 -0.06633136
00000000: 4b19 263d 97b1 d3bd 3abc e03d 7360 a7bd
00000010: 54d5 1fbc 5bb5 543d f6a8 43bd 6c3d 033e
00000020: 7f2a 6ebc 16d8 fbbd a5b8 1bbc c08c b8bd
00000030: 5ac7 38bc 6554 b7bd 99c3 f33c bcd8 87bd

models.0.outgest.0.0.weight f4 [16]
0.72404873 0.69885725 1.0695444 0.7115088 0.67195 0.67602766 0.70037824 1.1838292
0.72894454 1.654433 0.5331969 0.71455413 0.67026 0.69116575 0.7035135 0.76697123
00000000: 425b 393f 4fe8 323f d5e6 883f 7125 363f
00000010: ea04 2c3f 2610 2d3f fd4b 333f b787 973f
00000020: 1c9c 3a3f 76c4 d33f 987f 083f 05ed 363f
00000030: 2996 2b3f 3df0 303f 7619 343f 3a58 443f

models.0.outgest.0.0.bias f4 [16]
0.38513768 -0.497486 0.23369215 -0.3928002 -0.43787268 0.4775985 0.4603313 -0.31478265
0.31449312 0.23110496 0.4979781 -0.41027117 0.30672008 -0.5115242 -0.53513116 -0.5114203
00000000: c430 c53e 7cb6 febe ff4c 6f3e 1c1d c9be
00000010: d930 e0be ca87 f43e 8bb0 eb3e 312b a1be
00000020: 3e05 a13e c7a6 6c3e fcf6 fe3e 100f d2be
00000030: 6a0a 9d3e 40f3 02bf 5bfe 08bf 71ec 02bf

models.0.outgest.0.0.running_mean f4 [16]
0.0899411 -0.44604242 0.35504657 -0.5507871 -0.3650228 0.023636587 0.28916633 -0.8578673
-0.6956736 0.85070777 -0.35213226 -0.68319356 -0.42059666 0.70768034 -0.39496958 0.50217867
00000000: 0a33 b83d ac5f e4be aac8 b53e 6200 0dbf
00000010: 45e4 babe 84a1 c13c 9c0d 943e 319d 5bbf
00000020: aa17 32bf fcc7 593f ae4a b4be c6e5 2ebf
00000030: 7258 d7be 8a2a 353f 7439 cabe c88e 003f

models.0.outgest.0.0.running_var f4 [16]
0.22198208 0.28062204 0.76491886 0.16230513 0.31831077 0.5291135 0.17968716 0.22914831
0.14707133 0.25085542 0.2818257 0.1518759 0.16583382 0.1183802 0.2480538 0.36208186
00000000: 454f 633e b1ad 8f3e b9d1 433f 5133 263e
00000010: a1f9 a23e fb73 073f e9ff 373e dba5 6a3e
00000020: de99 163e 1f70 803e 754b 903e 5b85 1b3e
00000030: 57d0 293e 5171 f23d d101 7e3e cb62 b93e

models.0.outgest.0.1.weight f4 [4, 16, 3, 3]
-0.054757234 -0.20665517 -0.22652023 -0.12094485 -0.21577899 -0.2939823 -0.09672458 -0.16084476
-0.14550412 0.2502788 0.29216284 0.25165686 0.32179275 0.20880066 0.19717646 0.18301623
0.10730099 0.07926215 -0.23184247 -0.44118991 -0.32389948 -0.391758 -0.560435 -0.3943207
-0.25685972 -0.32952228 -0.21977118 0.038783036 0.115688995 0.015415383 -0.02680564 0.07342431
0.062149577 0.1023278 0.19580719 0.12803923 0.0759027 0.081916176 0.15538676 0.07028195
0.14251125 0.14097096 0.086784 0.13110077 0.18966855 -0.09533506 -0.16201468 -0.27592996
-0.11091224 -0.24613883 -0.35263163 -0.16009541 -0.33765393 -0.24809955 -0.14180316 -0.11854263
-0.05954438 -0.13395604 -0.16930845 -0.11449522 -0.12539591 -0.13217577 -0.12332064 -0.001061166
0.025215503 0.05282973 -0.016665509 0.9524505 -0.042100146 0.031765185 -0.11582772 0.027273253
-0.058828115 -0.15074486 -0.18745352 -0.17234473 -0.33339086 -0.24919532 -0.11229885 -0.22024742
-0.28729987 -0.0012617894 0.093123026 0.028813126 0.063317 -1.2558023 0.009732218 0.0500229
-0.007804339 0.015020726 0.0006347023 -0.07607532 -0.15604684 -0.006202996 -0.0879872 -0.12660196
-0.04154658 -0.041695602 -0.12538542 0.0627776 0.10145503 0.07749329 0.04197876 0.26392624
0.09901839 0.059534244 0.07788833 0.033658803 -0.1144647 -0.15966786 -0.15896034 0.016695095
-0.15391576 -0.1951009 0.017589984 -0.10063347 -0.14008297 0.14591396 0.115550175 0.038881432
0.023150934 0.12363471 0.11200893 -0.031934105 0.040015373 -0.013726113 0.23836291 0.09430149
0.11132121 0.19687766 0.09170121 0.04642948 0.20660706 0.063353114 -0.0049489965 0.04804526
-0.12750295 -0.023716899 0.03190335 -0.3118706 -0.25811285 -0.020810539 -0.076246254 -0.017594075
-0.0884884 -0.09903107 -0.10254282 -0.13087146 -0.12500405 -0.057292696 -0.049488988 -0.10046164
-0.13465276 0.097966745 0.19830371 0.13511708 0.095100895 0.15402922 0.1394442 0.123440124
0.12622567 0.050791573 -0.17869164 -0.16106236 -0.20144856 -0.14568108 -0.17981553 -0.18459028
-0.1595341 -0.12579085 -0.16676508 0.10374584 0.11651849 0.14839593 0.06795144 0.060395844
0.09280529 0.14801784 0.10271615 0.16116682 0.16299076 0.12412609 0.15156141 0.2037577
0.19321217 0.21677954 0.13139123 0.07078903 0.15592773 -0.21469839 -0.19410086 -0.16376473
-0.17901222 -0.22827147 -0.17111292 -0.21452215 -0.1952473 -0.24201295 -0.21462524 -0.15902671
-0.17301436 -0.12876548 -0.114588454 -0.16140376 -0.17994209 -0.12164869 -0.09521856 0.031430148
0.06919976 0.00603217 0.072262436 -0.042386808 -0.025725499 0.06380379 0.0637855 0.01876121
-0.22406617 -0.2675423 -0.17175725 -0.18655582 -0.28858247 -0.18553779 -0.24302594 -0.1814656
-0.19101189 -0.09744625 -0.12173498 -0.081310965 -0.15208149 -0.1261682 -0.115394466 -0.15048684
-0.105982125 -0.15945925 -0.15803325 -0.23205554 -0.23749904 -0.25682157 -0.30668113 -0.22610149
-0.20673428 -0.17493632 -0.23213479 0.17256749 0.14120422 0.10412199 0.13618746 0.0359334
0.118892714 0.10137692 0.11509314 0.15010476 -0.20710377 -0.2296137 -0.16874021 -0.21704781
00000000: 1f49 60bd 6a9d 53be ebf4 67be efb1 f7bd
00000010: 2bf5 5cbe d984 96be 8917 c6bd 7db4 24be
00000020: 08ff 14be 8b24 803e 5e96 953e 2bd9 803e
00000030: 05c2 a43e d7cf 553e a0e8 493e 9b68 3b3e
00000040: 9fc0 db3d 3254 a23d 1d68 6dbe a5e3 e1be
00000050: 27d6 a5be 8194 c8be ab78 0fbf 67e4 c9be
00000060: 1e83 83be 25b7 a8be b20b 61be f6da 1e3d
00000070: 5aee ec3d cd90 7c3c 8097 dbbc 7c5f 963d
00000080: 8e90 7e3d 3d91 d13d ae81 483e b71c 033e
00000090: e072 9b3d abc3 a73d b51d 1f3e fcef 8f3d
000000a0: 78ee 113e b15a 103e cfbb b13d 483f 063e
000000b0: 7938 423e 073f c3bd 2de7 25be b146 8dbe
000000c0: f525 e3bd d10b 7cbe 228c b4be 0df0 23be
000000d0: fae0 acbe cf0d 7ebe d934 11be 7ac6 f2bd
000000e0: cfe4 73bd c62b 09be 325f 2dbe 787c eabd
000000f0: c967 00be 1659 07be 888f fcbd d316 8bba
00000100: be90 ce3c fd63 583d 1b86 88bc ccd3 733f
00000110: 3471 2cbd 361c 023d 1537 edbd 286c df3c
00000120: c0f5 70bd dc5c 1abe d1f3 3fbe 237b 30be
00000130: 35b2 aabe 0f2d 7fbe f1fc e5bd 8a88 61be
00000140: f818 93be a062 a5ba 49b7 be3d 8109 ec3c
00000150: 58ac 813d 21be a0bf e273 1f3c d0e4 4c3d
00000160: 8abb ffbb 7e19 763c 2662 263a 61cd 9bbd
00000170: beca 1fbe 8042 cbbb a232 b4bd f2a3 01be
00000180: bf2c 2abd 02c9 2abd 0965 00be 8b91 803d
00000190: a8c7 cf3d cdb4 9e3d ecf1 2b3d 5721 873e
000001a0: 27ca ca3d 2eda 733d eb83 9f3d d0dd 093d
000001b0: 786c eabd f97f 23be 80c6 22be 27c4 883c
000001c0: 189c 1dbe 88c8 47be df18 903c ec18 cebd
000001d0: e971 0fbe 786a 153e 92a5 ec3d 2342 1f3d
000001e0: 07a7 bd3c 3234 fd3d f064 e53d 56cd 02bd
000001f0: 29e7 233d 7ee3 60bc 6815 743e 2421 c13d
00000200: 60fc e33d 4c9a 493e d8cd bb3d d72c 3e3d
00000210: cd90 533e 47bf 813d 312b a2bb 1bcb 443d
00000220: 2290 02be f149 c2bc 16ad 023d 81ad 9fbe
00000230: 5e27 84be dd7a aabc ff26 9cbd 7321 90bc
00000240: 6839 b5bd cdd0 cabd f801 d2bd 2b03 06be
00000250: 1001 00be bfab 6abd f7b4 4abd d5be cdbd
00000260: 6ae2 09be caa2 c83d 2110 4b3e 225c 0a3e
00000270: 42c4 c23d d6b9 1d3e 76ca 0e3e 2dce fc3d
00000280: 4d41 013e d30a 503d f1fa 36be 88ed 24be
00000290: 8848 4ebe 6c2d 15be 9021 38be 3c05 3dbe
000002a0: e85c 23be 51cf 00be 77c4 2abe b378 d43d
000002b0: 3fa1 ee3d 1af5 173e 202a 8b3d a261 773d
000002c0: b310 be3d fd91 173e d85c d23d ea08 253e
000002d0: 0de7 263e d235 fe3d ea32 1b3e dca5 503e
000002e0: 69d9 453e 75fb 5d3e 6c8b 063e d7f9 903d
000002f0: 85ab 1f3e e5d9 5bbe 60c2 46be f1b1 27be
00000300: fb4e 37be ffbf 69be 3a38 2fbe b2ab 5bbe
00000310: e9ee 47be 3ed2 77be b8c6 5bbe e6d7 22be
00000320: ad2a 31be 19db 03be 5aad eabd 0747 25be
00000330: bd42 38be f322 f9bd f301 c3bd e6bc 003d
00000340: 9bb8 8d3d 82a9 c53b 54fe 933d ca9d 2dbd
00000350: 48be d2bc 90ab 823d f9a1 823d 1cb1 993c
00000360: 9a71 65be 4efb 88be 22e1 2fbe 7d08 3fbe
00000370: 15c1 93be 9efd 3dbe cbdb 78be 1ed2 39be
00000380: 9f98 43be e691 c7bd 3050 f9bd 5d86 a6bd
00000390: 40bb 1bbe 3d32 01be ef53 ecbd 3919 1abe
000003a0: 280d d9bd 4949 23be 78d3 21be f89f 6dbe
000003b0: f332 73be 1e7e 83be 4f05 9dbe 2687 67be
000003c0: 27b2 53be 8222 33be beb4 6dbe 88b5 303e
000003d0: d797 103e e93d d53d ba74 0b3e e72e 133d
000003e0: 067e f33d b49e cf3d f4b5 eb3d 10b5 193e
000003f0: 0313 54be db1f 6bbe 3cca 2cbe c841 5ebe

models.0.outgest.0.1.bias f4 [4]
-0.06063036 -0.043668628 0.20564725 0.26194763
00000000: 8a57 78bd e0dd 32bd 3195 523e 001e 863e

models.0.down_list.0.0.0.weight f4 [16]
0.6567118 0.57707983 0.59433585 0.58579683 0.68615323 0.62717634 0.64715916 0.5595852
0.7465915 0.6308729 0.5311134 0.68710834 0.61336946 0.7011101 0.65834856 0.58226144
00000000: 441e 283f 81bb 133f 6526 183f c8f6 153f
00000010: bda7 2f3f a18e 203f 39ac 253f fa40 0f3f
00000020: 9f20 3f3f e380 213f 0cf7 073f 55e6 2f3f
00000030: c805 1d3f f47b 333f 8889 283f 160f 153f

models.0.down_list.0.0.0.bias f4 [16]
-0.2799849 -0.12494841 0.5187747 -0.5028351 -0.11944392 0.046761457 -0.028668767 -0.019172622
-0.16623749 -0.021586427 -0.03992261 -0.70539325 -0.21567866 -0.2545516 -0.3614104 0.12026996
00000000: 2e5a 8fbe f4e4 ffbd 6bce 043f cdb9 00bf
00000010: 049f f4bd f188 3f3d c3da eabc e70f 9dbc
00000020: 293a 2abe 05d6 b0bc e485 23bd a794 34bf
00000030: deda 5cbe 9654 82be c90a b9be 1950 f63d

models.0.down_list.0.0.0.running_mean f4 [16]
0.055329558 -0.0860571 0.15330453 -0.036880426 0.002682403 0.065753505 -0.10412536 0.12182644
0.01418463 -0.12074411 -0.0053230496 -0.12502831 -0.118597925 -0.17006682 -0.0009869589 -0.07509975
00000000: 3fa1 623d b43e b0bd ddfb 1c3e ee0f 17bd
00000010: 41cb 2f3b c6a9 863d ad3f d5bd 2480 f93d
00000020: a666 683c b048 f7bd fa6c aebb 6c07 00be
00000030: 78e3 f2bd ff25 2ebe d85c 81ba e6cd 99bd

models.0.down_list.0.0.0.running_var f4 [16]
0.054018512 0.0623517 0.0641338 0.057836093 0.045856107 0.031403974 0.02145645 0.0054047606
0.015793828 0.014900887 0.002218388 0.058632955 0.13575621 0.022064725 0.10817275 0.019202799
00000000: 8442 5d3d 7f64 7f3d 9558 833d 8ae5 6c3d
00000010: 9dd3 3b3d 74a1 003d 70c5 af3c 6b1a b13b
00000020: 0f62 813c da22 743c 6062 113b 1c29 703d
00000030: ad03 0b3e 15c1 b43c ad89 dd3d 304f 9d3c

models.0.down_list.0.0.1.weight f4 [16, 16, 3, 3]
-0.05137101 0.0445785 -0.017175725 0.061934114 -0.026802542 -0.0042031193 -0.0017273898 0.07999773
0.00020462679 -0.052684866 0.0057784384 -0.041498918 0.008451068 0.0005752475 -0.005655931 -0.06564701
-0.035767447 0.048056286 -0.0031821444 -0.055586427 0.030942699 -0.014772678 0.037979893 -0.033344086
-0.044276446 0.010346715 -0.009521424 -0.048281852 -0.035780005 0.001088553 -0.123719454 -0.08485396
-0.08052873 -0.024046795 -0.112699874 -0.036203682 0.025368448 0.0736189 0.039821927 0.041848175
0.060508035 0.044027478 0.014081004 0.076048255 0.05314637 -0.018369516 0.012633021 -0.033595376
0.010823226 0.024548205 0.032840207 -0.04544257 0.034660574 0.036474362 -0.011041687 0.014158107
0.019710792 0.011447746 0.07002162 -0.05560505 0.016618019 0.069587834 0.060028963 0.020802913
0.017176436 -0.04272955 0.0213887 0.08228463 0.04148794 0.040869337 0.09509019 0.031272206
-0.04997477 0.0521265 -0.0147712985 0.06699779 -0.034854703 0.008909667 0.01308255 0.024318371
0.076880485 0.04768214 -0.029340494 0.050076254 0.03528086 0.05560237 0.0134246275 -0.0033667728
0.078667305 -0.058396693 0.014858046 -0.0065347026 -0.027853098 0.012439364 0.042510252 -0.0146134775
-0.06122257 0.03210926 0.02921126 0.0428978 -0.012403818 0.0053616255 0.087462574 -0.04291473
0.058310114 -0.004431985 0.056407813 0.05108306 -0.0004536598 0.02393049 0.06468373 0.039284147
-0.050711453 -0.030474283 0.03249234 0.021653062 -0.034152444 0.06683012 0.06710338 0.12266137
0.03246289 0.07087463 0.108022794 0.111697294 0.06274484 0.11861992 0.046370327 -0.0026531408
-0.03705986 0.028308423 -0.026486708 -0.021516774 -0.05530724 -0.0083461255 0.03281783 -0.014884955
0.00032894692 0.032025304 -0.09372761 -0.065532066 0.051727388 -0.020962572 -0.06961938 -0.005734952
0.11618325 -0.015252453 -0.0050369464 0.15841855 0.0837834 -0.0058754478 0.04784041 0.06283199
-0.027877906 -0.044160347 0.031722005 -0.053506017 -0.0016130027 -0.03961469 0.011672437 -0.03849347
0.058286212 0.0017019787 -0.006119074 0.014975257 0.040175803 0.08282644 -0.04485284 -0.09409247
0.03480302 -0.06996684 -0.1107298 -0.0027357878 -0.014069656 -0.044661302 0.015254761 -0.05896129
-0.015535869 0.070603736 -0.027468797 0.0009169404 0.047249608 0.022217277 -0.007494492 0.10502108
0.0266643 -0.03088028 0.07481388 0.03334424 0.01473309 -0.036558777 0.00075672875 0.007723542
-0.0035082928 0.012524973 0.0045842207 0.043057766 0.029491257 -0.0062511684 0.0080770105 0.00032959937
0.084425606 -0.10362069 -0.08037246 0.06833822 0.06470744 -0.07661023 -0.0064384756 0.015736764
-0.02673434 0.04117108 -0.033013623 -0.068185665 0.027766451 0.011013968 -0.0014312371 -0.04246246
0.0063989344 0.061055414 0.0011368454 0.05690818 0.14870797 0.054779187 0.03708905 0.004664332
0.04045684 0.006933431 -0.021996256 0.026959807 0.06522596 0.022132458 0.00047241442 -0.008428194
0.035365306 0.021679366 0.07422781 0.06588737 -0.013078846 0.076895356 0.122581445 -0.0067400574
-0.011690648 -0.027160551 0.036091823 0.020090321 0.0070085363 0.006182064 0.10677186 -0.029311627
0.04156169 0.034749344 0.06984688 -0.005292894 -0.022564182 -0.0014936093 -0.009104094 -0.03860356
00000000: 686a 52bd f297 363d 1bb4 8cbc a0ae 7d3d
00000010: 0191 dbbc 52ba 89bb 9569 e2ba dad5 a33d
00000020: 1691 5639 16cc 57bd 0e59 bd3b c5fa 29bd
00000030: 5976 0a3c 35cc 163a 6355 b9bb f171 86bd
00000040: e380 12bd abd6 443d 868b 50bb 98ae 63bd
00000050: 8b7b fd3c 1a09 72bc ce90 1b3d cf93 08bd
00000060: 385b 35bd 4585 293c bfff 1bbc 31c3 45bd
00000070: 0e8e 12bd c7ad 8e3a a060 fdbd eac7 adbd
00000080: 3fec a4bd c9fd c4bc 31cf e6bd 504a 14bd
00000090: 7ed1 cf3c 81c5 963d 511c 233d fe68 2b3d
000000a0: 46d7 773d 2856 343d 03b4 663c 30bf 9b3d
000000b0: 02b0 593d ab7b 96bc bbfa 4e3c 4e9b 09bd
000000c0: e653 313c 5119 c93c 7483 063d fd21 3abd
000000d0: 3ff8 0d3d 2466 153d 31e8 34bc 68f7 673c
000000e0: 8778 a13c 548f 3b3c 7f67 8f3d 1fc2 63bd
000000f0: 8322 883c 1184 8e3d eee0 753d df6a aa3c
00000100: 99b5 8c3c 2e05 2fbd 5b37 af3c d884 a83d
00000110: 42ef 293d 9b66 273d a5be c23d 4917 003d
00000120: 58b2 4cbd 9982 553d 5103 72bc 2336 893d
00000130: cec3 0ebd daf9 113c 3158 563c 5237 c73c
00000140: 8473 9d3d 594e 433d 7a5b f0bc c21c 4d3d
00000150: aa82 103d 50bf 633d f8f2 5b3c 13a5 5cbb
00000160: 531c a13d 5f31 6fbd 296f 733c 0f21 d6bb
00000170: 2e2c e4bc 79ce 4b3c 3b1f 2e3d 5e6d 6fbc
00000180: 84c4 7abd 0085 033d 744c ef3c 9bb5 2f3d
00000190: 6239 4bbc 93b0 af3b 941f b33d 5bc7 2fbd
000001a0: 96d6 6e3d 2f3a 91bb e10b 673d 793c 513d
000001b0: 30d9 edb9 e009 c43c e778 843d 6ae8 203d
000001c0: d0b6 4fbd 34a5 f9bc b016 053d c361 b13c
000001d0: 6fe3 0bbd 3bde 883d 7f6d 893d e235 fb3d
000001e0: cff7 043d b826 913d 0e3b dd3d 8dc1 e43d
000001f0: 5e80 803d 00ef f23d d0ee 3d3d 51e0 2dbb
00000200: 14cc 17bd 11e7 e73c a7fa d8bc f243 b0bc
00000210: d889 62bd 30be 08bc fd6b 063d 07e0 73bc
00000220: 8276 ac39 f72c 033d 43f4 bfbd ad35 86bd
00000230: 19e0 533d b3b9 abbc 9b94 8ebd 44ec bbbb
00000240: 7cf1 ed3d 6de5 79bc f80c a5bb 7938 223e
00000250: a296 ab3d d486 c0bb 4ef4 433d 0fae 803d
00000260: 3560 e4bc 7be1 34bd efee 013d 2029 5bbd
00000270: 646b d3ba 0343 22bd c03d 3f3c 54ab 1dbd
00000280: 86bd 6e3d ee14 df3a 8382 c8bb c85a 753c
00000290: 628f 243d e9a0 a93d 9db7 37bd 8eb3 c0bd
000002a0: 9d8d 0e3d c64a 8fbd 4ec6 e2bd e74a 33bb
000002b0: 6a84 66bc c5ee 36bd 1bef 793c 6581 71bd
000002c0: 288a 7ebc b198 903d 3e06 e1bc d45e 703a
000002d0: ce88 413d 0201 b63c 5b94 f5bb 4b15 d73d
000002e0: 176f da3c a4f8 fcbc 0538 993d f893 083d
000002f0: 0f63 713c a8be 15bd 355f 463a c415 fd3b
00000300: 63eb 65bb 8b35 4d3c 3b37 963b 575d 303d
00000310: a697 f13c 9ad6 ccbb 7055 043c 14ce ac39
00000320: 55e7 ac3d 1637 d4bd 519a a4bd e9f4 8b3d
00000330: 5685 843d d3e5 9cbd d9f9 d2bb 63ea 803c
00000340: f901 dbbc 02a3 283d 4b39 07bd eda4 8bbd
00000350: 7876 e33c ee73 343c 5998 bbba 1eed 2dbd
00000360: 27ae d13b 3e15 7a3d 3402 953a 8d18 693d
00000370: e746 183e 2460 603d b0ea 173d 41d7 983b
00000380: 12b6 253d d631 e33b 7e31 b4bc d0da dc3c
00000390: 3095 853d 214f b53c 64ae f739 6816 0abc
000003a0: 36db 103d ed98 b13c c004 983d f5ef 863d
000003b0: a848 56bc 507b 9d3d fb0b fb3d b3db dcbb
000003c0: 228a 3fbc ce7f debc 05d5 133d 7594 a43c
000003d0: dda7 e53b e992 ca3b 34ab da3d f01e f0bc
000003e0: 973c 2a3d 5455 0e3d e20b 8f3d 0370 adbb
000003f0: 85d8 b8bc 36c5 c3ba 5629 15bc c41e 1ebd

models.0.down_list.0.0.1.bias f4 [16]
-0.13248788 -0.12869424 -0.12727161 0.032405123 0.0038615062 -0.753681 0.14140032 0.30546921
0.08581632 0.2522027 0.03049336 0.28329706 -0.11353687 0.013991378 0.17203502 -0.09723031
00000000: e7aa 07be 6cc8 03be 7d53 02be 3cbb 043d
00000010: 5311 7d3b 3df1 40bf 3fcb 103e 7666 9c3e
00000020: 77c0 af3d b620 813e 36cd f93c 500c 913e
00000030: 0586 e8bd 183c 653c f329 303e af20 c7bd

models.0.down_list.1.0.0.weight f4 [16]
0.79927063 0.6957442 0.7475703 0.60784936 0.7410866 0.71978545 0.718379 0.6876087
0.8005577 0.720136 0.71629757 0.860966 0.76721716 0.73957616 0.80494726 0.69586647
00000000: 009d 4c3f 4b1c 323f c460 3f3f 049c 1b3f
00000010: dab7 3d3f dc43 383f b0e7 373f 2007 303f
00000020: 59f1 4c3f d55a 383f 475f 373f 4568 5c3f
00000030: 5868 443f dd54 3d3f 0611 4e3f 4e24 323f

models.0.down_list.1.0.0.bias f4 [16]
-0.1524235 -0.1791662 -0.252539 0.1350511 0.25981557 -0.28754213 0.21276264 0.33127475
0.098213226 0.35044813 0.20711184 0.1578269 -0.4371858 -0.15245304 0.21609539 -0.19350007
00000000: e814 1cbe 5877 37be cb4c 81be d64a 0a3e
00000010: 8c06 853e b938 93be 73de 593e d89c a93e
00000020: 0424 c93d f06d b33e 2015 543e 609d 213e
00000030: d1d6 dfbe a61c 1cbe 1c48 5d3e e224 46be

models.0.down_list.1.0.0.running_mean f4 [16]
-0.16318826 -0.43015853 -0.27902526 -0.31744772 -0.07014902 -0.8806023 0.695981 0.83310187
0.26621354 0.93780917 -0.02609344 0.90267164 0.04721306 -0.11250599 -0.34891918 0.14349887
00000000: d31a 27be bd3d dcbe 66dc 8ebe 8288 a2be
00000010: 4aaa 8fbd 276f 61bf d02b 323f 2a46 553f
00000020: 244d 883e 4314 703f e9c1 d5bc 7d15 673f
00000030: 7b62 413d 8a69 e6bd 89a5 b2be 5ef1 123e

models.0.down_list.1.0.0.running_var f4 [16]
0.22089812 0.07225026 0.059096605 0.12641037 0.11868498 0.013281842 0.1303493 0.026949413
0.07042356 0.0032893203 0.098648615 0.064511485 0.051789336 0.037652098 0.14087568 0.047869854
00000000: 1e33 623e f2f7 933d 480f 723d b871 013e
00000010: 1c11 f33d 159c 593c 497a 053e 04c5 dc3c
00000020: 3a3a 903d a391 573b 4908 ca3d 991e 843d
00000030: 0e21 543d 1639 1a3d b741 103e 2e13 443d

models.0.down_list.1.0.1.weight f4 [32, 16, 3, 3]
-0.0022036168 0.056955215 0.033839613 -0.034550752 -0.026442941 -0.0060984674 -0.0095696105 -0.011387158
0.030088877 0.01777593 0.093749516 0.079511344 0.022408975 -0.11339277 0.092470825 0.009831047
-0.049451064 0.07711308 0.12604207 0.17250127 0.059225608 0.07247661 -0.019149154 0.074954785
0.02019826 -0.027944477 0.039267503 -0.003538236 0.17136283 -0.09914758 0.0007877554 0.06435555
0.09542309 0.060897596 -0.07831219 0.033269912 -0.04365461 -0.04308428 0.027332474 -0.04450161
-0.05756454 -0.01395486 1.0841572e-05 0.035272427 -0.0020503227 0.01219345 0.15960668 0.10306042
0.096801616 -0.05220902 0.016967928 -0.003196144 -0.046142697 -0.0018001562 0.019255852 0.027236572
0.012655652 0.010951611 -0.00022028218 0.03500269 -0.057950288 0.033657786 0.01508614 -0.0018767661
0.04745564 0.05065855 0.0009302848 -0.024385206 0.018584538 -0.013331525 -0.05842995 0.021783665
0.034541648 -0.0164406 0.017513057 0.057836253 0.050879784 -0.025637804 -0.045391433 0.046773054
-0.013437183 0.05801431 -0.020856071 -0.06087297 -0.026569238 0.022665964 0.048492197 -0.05224307
0.013403489 -0.050639812 0.055493042 0.018817298 -0.05032951 0.029640563 0.065454096 0.0585591
0.01699497 -0.03619198 -0.044220787 -0.03880122 -0.046746068 -0.057126783 0.06310481 0.06107471
-0.035056833 0.01731098 -0.01299676 -0.047017585 -0.02146771 0.071943216 0.040725835 0.07098408
0.14296587 0.090689786 0.037165146 0.012353974 0.068781696 -0.0067598713 0.1964593 0.10559864
0.015951937 -0.042202733 -0.02496466 -0.039373327 0.02253679 0.0058574704 -0.0007246883 -0.08739841
-0.038492735 -0.0019345023 -0.0150778955 0.0500595 0.060307898 0.036249977 -0.0012451069 0.03393344
-0.011509141 -0.012293711 0.038604613 0.07971841 0.034017034 0.061311625 7.510925e-05 0.015725909
-0.06945174 0.07731921 0.032386865 -0.05887236 -0.0011192759 0.04800681 -0.04713099 -0.025055801
0.03907855 -0.015747195 0.07263799 -0.00026990796 -0.004665961 -0.15175334 0.016437557 -0.0322562
-0.019067522 0.012587068 -0.019006593 0.0042021326 -0.068080865 -0.122150466 -0.13923593 -0.030321185
-0.088471755 -0.090101786 0.07060349 0.034046933 0.03157634 -0.05770987 0.089611076 -0.039250717
-0.007801285 -0.11596654 -0.09503676 0.10173189 0.006851015 -0.042221338 -0.04652795 0.07831535
-0.0054582786 -0.015449343 -0.003475181 -0.0075541707 -0.041807216 0.008849935 -0.00035446472 0.028280143
-0.10320739 -0.036404815 0.0064092227 -0.07090379 -0.002579619 -0.006385671 0.0722183 0.052508693
0.014082607 0.06648698 0.039471593 0.018576356 -0.00068531407 0.07130486 0.029768392 0.08603561
0.0038419922 -0.0057136198 0.039976604 -0.011784259 0.06396581 0.04842349 -0.032743074 0.028731521
0.046436317 0.020042468 0.01875685 0.083763875 0.08710808 0.033819538 -0.035595655 0.019532673
0.014779503 -0.019024694 -0.056937583 0.04270182 0.011558119 -0.043292742 -0.017788243 -0.038755212
-0.04737561 -0.051028557 -0.043848194 0.05345113 0.022619376 0.061439138 0.030857682 0.036488857
0.040563498 -0.026400477 -0.011364126 0.06628798 0.029881425 0.0027053412 -0.015329901 0.013028814
-0.0048742085 -0.062270742 -0.11124066 -0.064262226 -0.056605395 0.022823013 -0.0062717535 0.048738543
00000000: 8e6a 10bb df49 693d 689b 0a3d 1785 0dbd
00000010: de9e d8bc a7d5 c7bb dbc9 1cbc 3491 3abc
00000020: f37c f63c d49e 913c bfff bf3d d8d6 a23d
00000030: 0793 b73c 783a e8bd 5861 bd3d 6612 213c
00000040: 338d 4abd 76ed 9d3d 2c11 013e 2ca4 303e
00000050: 8d96 723d 9e6e 943d b0de 9cbc e581 993d
00000060: d276 a53c d1eb e4bc f6d6 203d c0e1 67bb
00000070: bd79 2f3e e30d cbbd 5f81 4e3a d8cc 833d
00000080: 2e6d c33d c26f 793d 2462 a0bd 0846 083d
00000090: 2dcf 32bd 2479 30bd 5ae8 df3c 5247 36bd
000000a0: ccc8 6bbd eda2 64bc 32e4 3537 d279 103d
000000b0: b55e 06bb 09c7 473c ef6f 233e 5711 d33d
000000c0: ed3f c63d 20d9 55bd 5300 8b3c 6676 51bb
000000d0: 2000 3dbd 38f3 ebba 73be 9d3c 3b1f df3c
000000e0: a759 4f3c 636e 333c 8cfb 66b9 fb5e 0f3d
000000f0: 485d 6dbd bfdc 093d db2b 773c d2fd f5ba
00000100: d860 423d 577f 4f3d 5bde 733a 7cc3 c7bc
00000110: 9a3e 983c 786c 5abc 3e54 6fbd a873 b23c
00000120: 8b7b 0d3d 70ae 86bc 8b77 8f3c b5e5 6c3d
00000130: 5267 503d 5f06 d2bc 5eec 39bd 1a95 3f3d
00000140: a127 5cbc 6aa0 6d3d 5ada aabc ef55 79bd
00000150: bba7 d9bc f9ad b93c c19f 463d d4fc 55bd
00000160: 4f9a 5b3c b16b 4fbd ac4c 633d bc26 9a3c
00000170: 5126 4ebd c4d0 f23c cc0c 863d abdb 6f3d
00000180: 0939 8b3c 0b3e 14bd db20 35bd 07ee 1ebd
00000190: ce78 3fbd c6fd 69bd 183d 813d 7a29 7a3d
000001a0: c197 0fbd c2cf 8d3c 5df0 54bc 8395 40bd
000001b0: 0ddd afbc f756 933d 22d0 263d 1a60 913d
000001c0: a565 123e 91bb b93d 7b3a 183d 5368 4a3c
000001d0: 6bdd 8c3d e981 ddbb a02c 493e 1a44 d83d
000001e0: a3ad 823c c6dc 2cbd b082 ccbc ed45 21bd
000001f0: 139f b83c 06f0 bf3b 02f9 3dba f0fd b2bd
00000200: 8faa 1dbd 208f fdba 4709 77bc 310b 4d3d
00000210: 6a05 773d db7a 143d db32 a3ba cafd 0a3d
00000220: d690 3cbc 906b 49bc df1f 1e3d 6843 a33d
00000230: 7255 0b3d e621 7b3d f983 9d38 9fd3 803c
00000240: b73c 8ebd 8959 9e3d 17a8 043d 2524 71bd
00000250: abb4 92ba caa2 443d 6d0c 41bd d341 cdbc
00000260: d410 203d 4300 81bc 3ac3 943d 6f82 8db9
00000270: ebe4 98bb 3a65 1bbe 0ea8 863c 141f 04bd
00000280: 7e33 9cbc fd39 4e3c b7b3 9bbc 0bb2 893b
00000290: fb6d 8bbd 062a fabd dd93 0ebe 2264 f8bc
000002a0: ae30 b5bd 4987 b8bd 9098 903d cc74 0b3d
000002b0: 3156 013d 2f61 6cbd 0386 b73d 5cc5 20bd
000002c0: eca1 ffbb de7f edbd a2a2 c2bd cf58 d03d
000002d0: 7b7e e03b 48f0 2cbd 1794 3ebd cc63 a03d
000002e0: 5cdb b2bb 3e1f 7dbc ddbf 63bb fa88 f7bb
000002f0: 0b3e 2bbd 51ff 103c 73d7 b9b9 c2ab e73c
00000300: 655e d3bd 371d 15bd 7504 d23b 0236 91bd
00000310: d30e 29bb e43e d1bb 30e7 933d 5b13 573d
00000320: bcba 663c 532a 883d f7ac 213d 712d 983c
00000330: a6a6 33ba 4808 923d d8dc f33c 7033 b03d
00000340: efc9 7b3b 5139 bbbb 82be 233d c412 41bc
00000350: 8200 833d b657 463d 9a1d 06bd 5e5e eb3c
00000360: 0234 3e3d 1a30 a43c f7a7 993c 658c ab3d
00000370: b965 b23d 5b86 0a3d c0cc 11bd fc02 a03c
00000380: bb25 723c add9 9bbc 6237 69bd 1be8 2e3d
00000390: 445e 3d3c bb53 31bd a6b8 91bc c9bd 1ebd
000003a0: ed0c 42bd 5203 51bd 2a9a 33bd 92ef 5a3d
000003b0: 454c b93c 9ba7 7b3d 40c9 fc3c 5775 153d
000003c0: e925 263d d045 d8bc 9930 3abc fec1 873d
000003d0: e4c9 f43c 184c 313b 442a 7bbc cf76 553c
000003e0: d3b7 9fbb 9b0f 7fbd 25d2 e3bd ea9b 83bd
000003f0: 0fdb 67bd 54f7 ba3c 4883 cdbb 11a2 473d

models.0.down_list.1.0.1.bias f4 [32]
-0.065674394 0.23139498 -0.0831825 -0.54465485 0.049975686 0.24110352 -0.46127856 -0.19127467
0.05120857 -0.16290735 0.050209388 0.081828564 -0.030290883 0.21781051 0.044206176 -0.56396806
-0.9013438 -0.08438717 0.0658836 -0.17027433 -0.04503601 -0.11925142 0.10764483 -0.32695496
-0.45001012 -0.1126305 -0.02721315 0.17882445 -0.16562262 0.010724048 0.201998 0.2049275
00000000: 4c80 86bd cef2 6c3e 965b aabd 806e 0bbf
00000010: 4eb3 4c3d d7e3 763e b42c ecbe 82dd 43be
00000020: 14c0 513d 2fd1 26be 5ca8 4d3d bc95 a73d
00000030: 9624 f8bc b809 5f3e 8911 353d 3660 10bf
00000040: 78be 66bf 2ed3 acbd fbed 863d 655c 2ebe
00000050: ae77 38bd 173a f4bd e574 dc3d a466 a7be
00000060: ba67 e6be d2aa e6bd 1dee debc c21d 373e
00000070: fa98 29be ebb3 2f3c 90d8 4e3e 84d8 513e

models.0.down_list.2.0.0.weight f4 [32]
0.68887675 0.5747412 0.8731702 0.79618657 0.71908885 0.74142754 0.76483923 0.87411684
0.7484142 0.75868285 0.80774134 0.724557 0.661385 0.92881024 0.82339096 0.7415831
0.7060151 0.67280966 0.7351926 0.6137295 0.7620775 0.71091425 0.7452443 0.6969987
0.79169285 0.7926042 0.6833674 0.6566564 0.9053923 0.71412605 0.7120483 0.6729166
00000000: 3a5a 303f 3d22 133f 1588 5f3f e2d2 4b3f
00000010: 3516 383f 32ce 3d3f 81cc 433f 1fc6 5f3f
00000020: 1398 3f3f 0a39 423f 23c8 4e3f 917c 393f
00000030: 8750 293f 82c6 6d3f c0c9 523f 64d8 3d3f
00000040: 68bd 343f 413d 2c3f 9535 3c3f 601d 1d3f
00000050: 8317 433f 7afe 353f 55c8 3e3f 826e 323f
00000060: 62ac 4a3f 1ce8 4a3f 2af1 2e3f a21a 283f
00000070: cac7 673f f7d0 363f cc48 363f 4344 2c3f

models.0.down_list.2.0.0.bias f4 [32]
-0.37038997 0.21005963 -0.2260313 0.21557727 0.2695197 0.28305656 -0.28223634 -0.24874435
0.2028765 -0.044697106 0.22106448 0.41776928 0.32496905 -0.15525849 -0.12615654 -0.25340736
-0.23858152 -0.34399462 0.23039798 -0.1517538 0.28590542 -0.22091736 0.10933979 0.51823777
-0.2520453 -0.32982025 0.32181183 0.09321622 0.39011067 -0.2723364 0.21131057 0.26339003
00000000: c1a3 bdbe df19 573e c074 67be 4ac0 5c3e
00000010: 7cfe 893e caec 903e 4881 90be d7b6 7ebe
00000020: dbbe 4f3e 5014 37bd ba5e 623e dbe5 d53e
00000030: 5862 a63e 15fc 1ebe 2e2f 01be 9cbe 81be
00000040: b74e 74be 1020 b0be 73ed 6b3e 5965 1bbe
00000050: 3262 923e 2938 62be 8aed df3d 3bab 043f
00000060: 150c 81be 33de a8be 85c4 a43e 25e8 be3d
00000070: 96bc c73e ad6f 8bbe cc61 583e 0fdb 863e

models.0.down_list.2.0.0.running_mean f4 [32]
-0.24427415 0.68349147 0.009594649 -0.4659615 -0.38190156 0.486652 -0.6066271 -0.38752705
0.34747404 0.2992464 0.08029844 0.13498448 -0.04770522 0.5506401 -0.2376264 -0.33502164
-0.6948357 -0.21275447 0.3330074 0.07788169 0.36453837 0.13162771 0.67170125 0.07638237
-0.5020112 -0.32873827 0.2825899 0.30003724 -0.38747048 0.42519078 0.5313986 0.80163467
00000000: 0123 7abe 4cf9 2e3f e032 1d3c 8192 eebe
00000010: 9a88 c3be 732a f93e ea4b 1bbf f269 c6be
00000020: 1ee8 b13e d336 993e 8273 a43d 5f39 0a3e
00000030: 8c66 43bd c0f6 0c3f 5654 73be f587 abbe
00000040: c1e0 31bf 4fdc 59be f27f aa3e 6f80 9f3d
00000050: c6a4 ba3e 6ac9 063e 9df4 2b3f 5c6e 9c3d
00000060: ce83 00bf 6250 a8be a0af 903e 7b9e 993e
00000070: 8862 c6be 9bb2 d93e bd09 083f ee37 4d3f

models.0.down_list.2.0.0.running_var f4 [32]
0.20211163 0.051330782 0.116896406 0.15522139 0.2618949 0.116864584 0.07483285 0.3605658
0.116324134 0.14717734 0.4225696 0.19396436 0.1394298 0.334865 0.40239397 0.07146499
0.048131756 0.12164712 0.105911754 0.3616766 0.14796905 0.17563236 0.119588256 0.21295927
0.076545246 0.38248453 0.22170019 0.22030571 0.29238227 0.522795 0.03787445 0.10793929
00000000: 5af6 4e3e 3a40 523d 6267 ef3d 5bf2 1e3e
00000010: 1717 863e b356 ef3d f741 993d 159c b83e
00000020: 593b ee3d a8b5 163e 0b5b d83e 989e 463e
00000030: afc6 0e3e 6d73 ab3e 9506 ce3e 3d5c 923d
00000040: ce25 453d 2022 f93d 43e8 d83d ad2d b93e
00000050: 3385 173e f8d8 333e b0ea f43d ff11 5a3e
00000060: c1c3 9c3d 03d5 c33e 6005 633e d297 613e
00000070: 21b3 953e e5d5 053f 3d22 1b3d 460f dd3d

models.0.down_list.2.0.1.weight f4 [64, 32, 3, 3]
-0.19476205 -0.14930981 -0.09600671 -0.093185924 0.020777525 0.028596992 -0.09725941 -0.05183313
0.02771993 -0.09217882 0.1272348 -0.043603066 0.082351476 0.049563445 0.02131381 0.019295597
-0.040497947 -0.011415882 0.057738848 -0.029032798 0.004637538 -0.022421062 -0.03347975 0.06798406
0.21963759 -0.036688317 0.05004896 -0.120838985 0.1664519 0.03479007 0.120159104 -0.06053753
0.03246848 0.1656698 -0.0037163696 -0.09269438 -0.13912939 -0.17110442 -0.10789552 -0.21103162
0.0376542 0.0004623826 -0.025074303 0.0032298248 0.0650014 0.12975714 0.08636759 0.04073986
0.13846043 -0.11113961 -0.29207706 -0.14411649 0.0072736647 0.028388942 0.069649406 0.123991
0.08271345 0.010589239 0.015901184 0.029734336 0.12688966 0.13502842 0.062090725 0.09602633
-0.071538135 -0.12591082 0.030117417 0.018946778 0.12079921 -0.148957 0.1670645 -0.023954345
0.06885741 0.0421861 -0.08215288 -0.043789815 -0.02124457 -0.0126447305 -0.058323335 -0.139698
-0.0033972291 -0.24854605 0.08394311 -0.03925946 -0.05040493 0.12620665 0.07695676 0.08221267
-0.01902976 0.03808088 0.072228886 0.1049187 0.010135869 0.05365429 -0.02561914 -0.17215224
0.18897109 -0.06252921 -0.030974759 0.050099347 0.043337557 -0.10230031 -0.077922195 0.021348294
0.098149344 0.07807432 -0.18421179 0.00027213644 -0.011273415 0.15842739 0.018347563 -0.05661728
-0.08987871 0.11372902 0.069753125 0.005132413 0.11688111 -0.04261553 -0.019444868 -0.1401054
-0.06989824 0.10100319 0.086986214 -0.006655234 0.19192514 -0.030209891 -0.13466139 -0.065958045
-0.09626374 0.0034194263 0.14321451 0.06793278 0.07154597 0.10779825 -0.12925419 0.11698479
-5.9151473e-05 -0.037128903 -0.061928414 -0.044325903 -0.07937394 -0.07531322 0.034510158 -0.012009256
-0.08147399 0.044559542 0.04562403 -0.05103322 -0.1046543 0.04922341 0.06051243 0.021111948
-0.096716344 -0.032772884 -0.010918686 -0.12886554 -0.018550206 -0.022425214 -0.08019607 0.024615843
0.024816342 0.08833187 0.020831598 -0.05156564 -0.038765125 0.048958156 -0.101425424 -0.1322652
0.034021277 -0.0061700377 0.02443232 -0.021528253 0.058525823 -0.07341124 0.120341666 0.044280823
-0.007359337 0.049728088 -0.003658903 -0.06276489 -0.098434106 -0.013440356 0.1178067 0.099197336
-0.10420222 -0.1549223 -0.08781955 -0.1320637 -0.060216285 0.028966524 0.042866256 0.1686583
-0.11849698 -0.016137075 0.06096986 0.01330755 0.03031152 -0.10777279 -0.04267183 -0.06649506
0.014956123 0.085349984 0.03057773 -0.15926109 0.022087904 -0.050862413 0.07517464 -0.011033252
-0.16675568 0.0086380225 -0.09933277 -0.043148383 -0.049928427 0.00886008 0.098503314 0.009429622
0.13263433 0.14484558 -0.0052661086 0.004832218 -0.05654711 -0.016420469 0.0485576 -0.037492953
-0.101830855 0.05014239 -0.23654115 0.10573389 -0.21045175 0.14591599 0.0646373 -0.089672096
0.15135475 0.14185873 -0.083993524 0.01825922 -0.012311972 0.12524341 0.017604373 0.10710232
-0.09400364 -0.069437526 -0.13005482 0.15729661 0.036558263 0.08747897 0.07144129 0.11207421
0.13228843 0.10035204 0.10057953 -0.11750109 0.08440353 0.09616334 0.21543045 0.09925873
00000000: b46f 47be ace4 18be 2a9f c4bd 43d8 bebd
00000010: a135 aa3c 3d44 ea3c f12f c7bd fa4e 54bd
00000020: e814 e33c 40c8 bcbd d749 023e 2199 32bd
00000030: e4a7 a83d 0a03 4b3d 4d9a ae3c cd11 9e3c
00000040: 2de1 25bd ae09 3bbc 927f 6c3d 31d6 edbc
00000050: 7df6 973b 60ac b7bc 1022 09bd 3a3b 8b3d
00000060: ade8 603e 7d46 16bd 2300 4d3d 6e7a f7bd
00000070: 5e72 2a3e 0880 0e3d fa15 f63d 33f6 77bd
00000080: abfd 043d 58a5 293e 568e 73bb 8dd6 bdbd
00000090: ef77 0ebe ff35 2fbe 54f8 dcbd ac18 58be
000000a0: 4a3b 1a3d f16b f239 a068 cdbc 78ab 533b
000000b0: 741f 853d 0edf 043e 7ee1 b03d d7de 263d
000000c0: 92c8 0d3e 2a9d e3bd 208b 95be 4693 13be
000000d0: ec57 ee3b ed8f e83c 59a4 8e3d feee fd3d
000000e0: ab65 a93d 7d7e 2d3c 3343 823c 6c95 f33c
000000f0: 5def 013e e444 0a3e d852 7e3d 74a9 c43d
00000100: 9682 92bd c4ee 00be cdb8 f63c 4636 9b3c
00000110: 9465 f73d 2f88 18be f512 2b3e e73b c4bc
00000120: 1d05 8d3d 55cb 2c3d c53f a8bd f35c 33bd
00000130: 1809 aebc d82b 4fbc 73e4 6ebd fe0c 0fbe
00000140: 0ca4 5ebb db82 7ebe 5eea ab3d 87ce 20bd
00000150: 6675 4ebd 513c 013e 819b 9d3d 1e5f a83d
00000160: 4de4 9bbc b2fa 1b3d bdec 933d 9edf d63d
00000170: ea10 263c 9ac4 5b3d 3bdf d1bc ad48 30be
00000180: a381 413e 500f 80bd c7be fdbc f934 4d3d
00000190: b982 313d d382 d1bd ac95 9fbd 9ee2 ae3c
000001a0: 8602 c93d 6ee5 9f3d 04a2 3cbe 89ad 8e39
000001b0: 21b4 38bc ca3a 223e a14d 963c 85e7 67bd
000001c0: 5412 b8bd c3ea e83d bada 8e3d cd2d a83b
000001d0: 5d5f ef3d 9f8d 2ebd d84a 9fbc ca77 0fbe
000001e0: cf26 8fbd c3da ce3d d425 b23d 2614 dabb
000001f0: 0688 443e bc7a f7bc ade4 09be 0315 87bd
00000200: ec25 c5bd 7418 603b d3a6 123e 5720 8b3d
00000210: b286 923d 54c5 dc3d 365b 04be b995 ef3d
00000220: 6919 78b8 7a14 18bd a6a8 7dbd 148f 35bd
00000230: ce8e a2bd d13d 9abd 865a 0d3d 78c2 44bc
00000240: d6db a6bd 1184 363d 43e0 3a3d 3608 51bd
00000250: fe54 d6bd 7d9e 493d e2db 773d f7f2 ac3c
00000260: 3813 c6bd dc3c 06bd 4ae4 32bc 54f5 03be
00000270: 9af6 97bc 15b5 b7bc d63d a4bd 2aa7 c93c
00000280: a44b cb3c 57e7 b43d 07a7 aa3c 7e36 53bd
00000290: 2ec8 1ebd 5988 483d 22b8 cfbd 8770 07be
000002a0: e559 0b3d 072e cabb 4a26 c83c 055c b0bc
000002b0: c6b8 6f3d a258 96bd b175 f63d cf5f 353d
000002c0: 9826 f1bb aeaf 4b3d 35ca 6fbb e18a 80bd
000002d0: d297 c9bd f034 5cbc a444 f13d f927 cb3d
000002e0: f967 d5bd f4a3 1ebe bcda b3bd b53b 07be
000002f0: 5aa5 76bd 344b ed3c 8794 2f3d c3b4 2c3e
00000300: 8bae f2bd e631 84bc 88bb 793d e907 5a3c
00000310: dd4f f83c fbb7 dcbd a8c8 2ebd 902e 88bd
00000320: 870a 753c f9cb ae3d 267e fa3c 5715 23be
00000330: b1f1 b43c 1b55 50bd 29f5 993d d0c4 34bc
00000340: 00c2 2abe 7e86 0d3c fb6e cbbd 5cbc 30bd
00000350: c081 4cbd de29 113c 1bbc c93d b47e 1a3c
00000360: 4bd1 073e 6652 143e 528f acbb 9557 9e3b
00000370: f19d 67bd 3884 86bc 55e4 463d 3692 19bd
00000380: b28c d0bd 1b62 4d3d d837 72be 028b d83d
00000390: aa80 57be 006b 153e 9060 843d 01a6 b7bd
000003a0: bdfc 1a3e 6a43 113e cc04 acbd 5c94 953c
000003b0: 27b8 49bc cf3f 003e 0c37 903c 7658 db3d
000003c0: fb84 c0bd 4335 8ebd 172d 05be 5d12 213e
000003d0: 1ebe 153d 2d28 b33d d04f 923d 2a87 e53d
000003e0: 9e76 073e 5f85 cd3d a4fc cd3d 69a4 f0bd
000003f0: c2db ac3d 49f1 c43d cd99 5c3e 2948 cb3d

models.0.down_list.2.0.1.bias f4 [64]
-0.18872252 -0.09587923 -0.0963884 0.028585115 -0.50758135 0.06503738 0.14302045 -0.024066009
-0.28336555 -0.008164384 -0.28237966 -0.12704872 -0.62253433 -0.15085979 0.024933292 0.07122387
0.06890045 -0.21125458 -0.53123283 -0.3733539 0.16040438 0.089128025 -0.22393328 -0.049783867
-0.6177804 0.21866448 -0.05278611 -0.7530005 0.1778131 0.061587024 -0.43366194 -0.5502742
-0.17846982 -0.15079015 -0.5987093 -0.145229 0.16325645 0.14796327 -0.026947306 -0.042661637
0.16691731 0.08817521 -0.2335417 -0.060945027 -0.21750641 -0.043781266 0.019668914 -0.18489161
-0.0052153063 0.25706965 -0.3103904 0.03368676 -0.3025834 0.14964573 -0.6265215 0.19337429
0.09129937 0.121649995 0.12022756 0.17855047 0.1857209 0.0071185254 0.044593487 0.22098528
00000000: 7a40 41be 545c c4bd 4867 c5bd 552b ea3c
00000010: daf0 01bf 5132 853d f473 123e 1426 c5bc
00000020: 4a15 91be e9c3 05bc 1194 90be 0f19 02be
00000030: 695e 1fbf fd7a 1abe e740 cc3c d2dd 913d
00000040: ae1b 8d3d 1f53 58be e0fe 07bf 3e28 bfbe
00000050: 0c41 243e c188 b63d c44e 65be 2bea 4bbd
00000060: db26 1ebf 95e9 5f3e 4036 58bd a4c4 40bf
00000070: a314 363e ad42 7c3d f008 debe c5de 0cbf
00000080: cbc0 36be bc68 1abe 0345 19bf e9b6 14be
00000090: b32c 273e af83 173e 99c0 dcbc f8bd 2ebd
000000a0: 5fec 2a3e 3495 b43d 8e25 6fbe 7ea1 79bd
000000b0: 00ba 5ebe fc53 33bd b420 a13c 3a54 3dbe
000000c0: 29e5 aabb a29e 833e 7eeb 9ebe 21fb 093d
000000d0: 36ec 9abe bb3c 193e b763 20bf e903 463e
000000e0: 2afb ba3d a223 f93d de39 f63d efd5 363e
000000f0: 9f2d 3e3e 8542 e93b a9a7 363d f749 623e

models.0.up_list.0.0.0.weight f4 [64]
1.110438 0.8051925 0.76958394 0.8626349 1.0484216 0.7286539 0.8742799 1.347102
0.88419765 0.8732269 0.89964306 0.69377 0.9980544 0.95772743 1.1353368 0.7967721
0.6228869 1.0150385 1.0178167 0.9736993 0.6713452 0.8909307 1.1030592 0.83895916
0.9771608 0.6100738 0.91551226 0.9392915 0.6723812 0.73767513 0.9090696 1.0317496
0.976955 1.0682106 1.0452346 0.9190449 0.6466164 0.5305994 0.77957153 0.94409716
0.6633207 0.95844644 1.2945944 0.82390743 1.0123441 0.957008 0.69636446 0.94132483
0.9155768 0.6223482 1.0060917 0.64250594 0.9517205 0.7484685 0.9889897 0.71768177
0.954165 0.5758649 0.7165986 0.809426 0.82704836 0.88535243 0.772832 0.665748
00000000: d522 8e3f 1821 4e3f 7403 453f a4d5 5c3f
00000010: ae32 863f 1089 3a3f cfd0 5f3f d76d ac3f
00000020: c75a 623f cc8b 5f3f 024f 663f e99a 313f
00000030: 7e80 7f3f a02d 753f b752 913f 42f9 4b3f
00000040: 8475 1f3f c8ec 813f d147 823f 5b44 793f
00000050: 47dd 2b3f 0914 643f 0b31 8d3f 07c6 563f
00000060: 3627 7a3f cc2d 1c3f 035f 6a3f 6875 703f
00000070: 2d21 2c3f 47d8 3c3f c9b8 683f 5f10 843f
00000080: b919 7a3f 20bb 883f 3fca 853f 8746 6b3f
00000090: a788 253f 5dd5 073f 0092 473f 5ab0 713f
000000a0: 63cf 293f bf5c 753f 45b5 a53f 99eb 523f
000000b0: 7e94 813f 7afe 743f f144 323f aafa 703f
000000c0: 3e63 6a3f 3652 1f3f 9dc7 803f 457b 243f
000000d0: f4a3 733f a29b 3f3f 6e2e 7d3f feb9 373f
000000e0: 2844 743f e26b 133f 0173 373f 8b36 4f3f
000000f0: 71b9 533f 75a6 623f 51d8 453f 766e 2a3f

models.0.up_list.0.0.0.bias f4 [64]
-0.22738114 -0.3132797 -0.30265674 -0.16598709 0.16980758 0.21407986 -0.31725258 -0.14956684
0.25483403 -0.5837499 -0.03211195 -0.5371814 -0.23421158 0.37577733 -0.111901544 0.19620723
0.46376124 -0.41051087 -0.083017714 -0.042610984 0.1946051 0.257366 0.04745191 -0.2168588
0.16917771 0.48278335 -0.20026308 -0.37223953 0.31714115 0.37066647 0.13459304 -0.16669935
0.11983333 0.25874352 -0.04661886 0.012734205 0.31074846 0.5993796 0.47395477 0.0017547387
0.3055017 -0.37511057 -0.0572606 -0.12939046 0.016999707 -0.49147916 0.3402636 -0.25510234
0.41972327 0.32594547 0.03686743 0.5384628 0.40580404 0.38548142 -0.051864404 0.27357304
0.054991383 0.3964513 0.2752914 0.1704724 -0.26164678 0.27770662 0.32529724 0.17810473
00000000: 9ad6 68be 3266 a0be d3f5 9abe 85f8 29be
00000010: 0ae2 2d3e c037 5b3e ee6e a2be 0d28 19be
00000020: 9b79 823e a270 15bf d287 03bd b884 09bf
00000030: 29d5 6fbe e365 c03e a32c e5bd 8cea 483e
00000040: 1d72 ed3e 7b2e d2be 3105 aabd db88 2ebd
00000050: 8f46 473e 7ac5 833e ef5c 423d 3c10 5ebe
00000060: ec3c 2d3e 612f f73e c411 4dbe 2e96 bebe
00000070: 5360 a23e ffc7 bd3e c2d2 093e 3cb3 2abe
00000080: 2d6b f53d 087a 843e 6bf3 3ebd 21a3 503c
00000090: 6c1a 9f3e f170 193f 33aa f23e 43ff e53a
000000a0: b86a 9c3e 7e0e c0be 178a 6abd ef7e 04be
000000b0: f842 8b3c 28a3 fbbe 0837 ae3e c69c 82be
000000c0: f8e5 d63e 53e2 a63e 4d02 173d b3d8 093f
000000d0: 8cc5 cf3e d25d c53e c56f 54bd c411 8c3e
000000e0: a53e 613d aafb ca3e fff2 8c3e 5190 2e3e
000000f0: 91f6 85be 902f 8e3e 5c8d a63e 1661 363e

models.0.up_list.0.0.0.running_mean f4 [64]
0.06651876 0.23940924 0.5905104 0.6504424 -0.8694637 0.9707509 0.61265975 -0.375088
-0.4992335 0.5381668 -1.0174292 0.9204045 -0.9163317 -0.85646576 -0.63887775 0.55928296
1.2373011 0.35145447 -0.6277416 -0.81093127 1.0703552 0.81784326 -0.1771843 0.43098912
-0.9389739 1.3484637 0.6757855 -1.0023748 1.3342003 1.007499 -0.70750546 -0.78382105
-0.86746514 -0.5081679 -0.7004791 0.4597779 1.0992767 1.0942631 0.6460805 0.5468397
1.0667442 0.91875744 0.09384646 0.82977104 -0.25311598 0.08477917 0.8372481 0.5453428
0.27020055 1.0379485 -0.17281105 0.932791 -0.9016573 0.94805604 -0.7261396 0.9364053
0.8179277 1.3125521 0.89028656 1.1493576 0.85262835 0.6371283 0.8364245 0.9922229
00000000: fd3a 883d b227 753e b12b 173f 6583 263f
00000010: 2c95 5ebf 2283 783f 45d7 1c3f 890b c0be
00000020: 899b ffbe 4dc5 093f 1f3b 82bf a19f 6b3f
00000030: b794 6abf 5741 5bbf 7e8d 23bf 2b2d 0f3f
00000040: e25f 9e3f d7f1 b33e acb3 20bf 3199 4fbf
00000050: 6601 893f 2d5e 513f cd6f 35be 9baa dc3e
00000060: 9860 70bf 759a ac3f 4700 2d3f d14d 80bf
00000070: 13c7 aa3f baf5 803f 141f 35bf 7fa8 48bf
00000080: 3212 5ebf 4b17 02bf 9952 33bf 0268 eb3e
00000090: 19b5 8c3f d010 8c3f 8865 253f b0fd 0b3f
000000a0: 138b 883f b033 6b3f 9332 c03d e06b 543f
000000b0: 6b98 81be b4a0 ad3d e455 563f 969b 0b3f
000000c0: ba57 8a3e 7fdb 843f 61f5 30be 64cb 6e3f
000000d0: 03d3 66bf cdb3 723f 49e4 39bf 42b8 6f3f
000000e0: b663 513f b501 a83f d2e9 633f 261e 933f
000000f0: da45 5a3f d71a 233f eb1f 563f 5202 7e3f

models.0.up_list.0.0.0.running_var f4 [64]
0.44452116 0.6184245 0.16316202 0.6195178 0.13154815 0.14794333 0.63569164 0.43150476
0.46956024 0.41676617 0.08071692 0.16525559 0.14596942 0.40256315 1.1806467 1.0756978
0.6329146 0.3636519 0.17625068 0.16230994 0.033511136 0.2043131 0.30647308 0.1929668
0.07618361 0.117226146 0.49280638 0.1460795 0.12276045 0.11172542 0.15877812 0.12846561
0.81201154 0.57006764 0.18210968 0.15149656 0.03930672 0.09734108 0.1550805 0.23591222
0.08552569 0.11826022 0.48255372 0.08737225 0.3866482 0.68333864 0.08200974 0.17724712
0.6104532 0.07651951 0.22778691 0.43975744 0.15096276 0.16538149 0.115136735 0.18552683
0.17302544 0.0743535 0.12691502 0.12185949 0.33007926 0.17252313 0.14659792 0.04402369
00000000: 4798 e33e 1151 1e3f f213 273e b898 1e3f
00000010: 8fb4 063e 757e 173e b0bc 223f 31ee dc3e
00000020: 336a f03e 6062 d53e ea4e a53d c338 293e
00000030: 0279 153e c21c ce3e 6e1f 973f 77b0 893f
00000040: b106 223f 9530 ba3e 0f7b 343e 9434 263e
00000050: f942 093d 7437 513e 0aea 9c3e 1799 453e
00000060: 2706 9c3d 4314 f03d 1e51 fc3e dd95 153e
00000070: d569 fb3d 4cd0 e43d bb96 223e 7d8c 033e
00000080: fddf 4f3f f4ef 113f f67a 3a3e ea21 1b3e
00000090: 1500 213d c35a c73d 6ccd 1e3e f992 713e
000000a0: 1828 af3d 6a32 f23d 4811 f73e 39f0 b23d
000000b0: c1f6 c53e 48ef 2e3f b9f4 a73d 4580 353e
000000c0: a946 1c3f 43b6 9c3d f940 693e e327 e13e
000000d0: fb95 1a3e c459 293e cfcc eb3d bffa 3d3e
000000e0: 952d 313e a646 983d 03f6 013e 7891 f93d
000000f0: 2600 a93e e7a9 303e c41d 163e 2f52 343d
