rl_weights.pth (torch, 185259 bytes, 12 tensors)

backbone_net.visual_net.0.0.weight f4 [16, 2, 3, 3]
0	0xbd0aa2d2	-0.033846684
1	0x3def9a54	0.11699358
2	0x3dc3744b	0.095436655
3	0xbd9d219c	-0.07672426
4	0xbe311420	-0.17292833
5	0x3c6ddcb5	0.014517953
6	0x3e860f90	0.26183748
7	0x3e7f0117	0.2490276
8	0x3e3b5f76	0.18298134
9	0xbdf30ec3	-0.1186805
10	0xbe5da443	-0.21644692
11	0xbbe1e71b	-0.006894005
12	0xbe1601ec	-0.1464917
13	0x3e35500b	0.17706315
14	0xbdaa3b9b	-0.0831215
15	0xbdc4da9d	-0.0961201
16	0xbe20a239	-0.15686883
17	0x3d72462f	0.059148964
18	0xbdc6362d	-0.09678302
19	0x3dc655d1	0.09684337
20	0xbdc7a748	-0.09748703
21	0x3d5d0059	0.05395541
22	0x3dd33524	0.1031287
23	0xbdd45e84	-0.1036959
24	0x3e8136fa	0.25237256
25	0xbe0bae73	-0.13640766
26	0x3e7a5ffe	0.2445068
27	0x3e2ffd97	0.1718658
28	0xbd9f0457	-0.077645
29	0xbcfc4790	-0.030795842
30	0x3d42c152	0.047547646
31	0x3e2fa4f0	0.17152762
32	0xbd1cf967	-0.038323786
33	0x3d76d81b	0.060264688
34	0xbe5a2d11	-0.21306254
35	0xbe3ecde6	-0.18633232
36	0x3e8b6dc2	0.27232176
37	0x3e598e6f	0.2124574
38	0x3d0cc25c	0.034365043
39	0xbe2c894e	-0.16849253
40	0xbbc6588c	-0.006053036
41	0xbdadf302	-0.08493616
42	0xbc820d0b	-0.01587536
43	0x3e2751bc	0.16339773
44	0xbe1351be	-0.14386651
45	0x3d6b79d2	0.057489224
46	0xbe20cfb7	-0.15704237
47	0xbda473ec	-0.08029923
48	0x3ce2f197	0.02770309
49	0x3d718cc0	0.05897212
50	0x3da2c738	0.07948154
51	0xbe0ef6a5	-0.13961275
52	0xbe2f01c5	-0.17090519
53	0x3da515d0	0.08060801
54	0xbcda3bfd	-0.026639933
55	0x3e6acd25	0.22929819
56	0xbe13e902	-0.14444354
57	0xbe49df80	-0.19714165
58	0x3e8d5273	0.27601966
59	0xbc070982	-0.008242013
60	0xbd65a25f	-0.056063052
61	0xbe586437	-0.21131979
62	0xbddb9fab	-0.107238136
63	0x3d9acff2	0.07559194
64	0xbce3324c	-0.027733944
65	0xbe1b4e68	-0.15166628
66	0x3e2ade75	0.16686423
67	0xbd87cc0a	-0.06630714
68	0x3e0230cf	0.12713932
69	0x3de1e741	0.11030436
70	0xbe09b156	-0.13446555
71	0x3e4a7031	0.1976936
72	0xbe570f52	-0.21001938
73	0x3e6f8a33	0.23392563
74	0x3e594e72	0.21221331
75	0xbd52ca53	-0.051462483
76	0xbe03ad22	-0.12859014
77	0x3e3689e6	0.17826042
78	0xbe356ef3	-0.17718105
79	0x3e73750d	0.2377512
80	0xbde597d4	-0.112105995
81	0x3cdf9e77	0.027297242
82	0x3d2d30b3	0.04228277
83	0xbe52e5e7	-0.20595513
84	0xbd0da487	-0.034580734
85	0xbdd1e175	-0.10248081
86	0xbdd82327	-0.1055358
87	0x3dca96e5	0.09892062
88	0x3e4e7e13	0.20165281
89	0xbd9ce514	-0.07660881
90	0x3e8a369b	0.26994786
91	0x3a10ae06	0.00055190956
92	0x3c807592	0.015681062
93	0xbcd3f33a	-0.025872815
94	0x3e4e0adb	0.20121329
95	0x3ddfbaf6	0.10924332
96	0xbd36afca	-0.04460124
97	0xbbd34b72	-0.0064482028
98	0xbdf69804	-0.120407134
99	0x3e318072	0.17334154
100	0xbe340244	-0.1757899
101	0xbe579b14	-0.21055251
102	0x3e27bd8b	0.16380899
103	0x3e0e7d02	0.13914874
104	0xbe1c5b1b	-0.15269129
105	0x3e2d9559	0.16951503
106	0x3d46b66e	0.048513822
107	0xbe50bdf9	-0.20384969
108	0xbdc4e310	-0.09613621
109	0x3e820cb4	0.25400317
110	0x3e2e4795	0.17019494
111	0xbe53e4b8	-0.20692718
112	0xbe0c2e24	-0.13689476
113	0x3da7bba8	0.081900895
114	0xbdca13da	-0.09867068
115	0xbd9f32a0	-0.07773328
116	0xbd93af5a	-0.0721118
117	0xbd6a9404	-0.057270065
118	0xbe133c98	-0.14378583
119	0xbe017da6	-0.12645587
120	0x3e2dfaf9	0.1699027
121	0x3e648cbf	0.22319315
122	0xbd1d8b3f	-0.038462874
123	0xbd8a2fe7	-0.06747418
124	0xbdfd1d4a	-0.12359102
125	0x3c65671c	0.014001634
126	0x3e68fb6f	0.22752164
127	0xbd8c020a	-0.068363264
128	0x3d9653a9	0.07340176
129	0xbd1469f4	-0.036233857
130	0x3db35be5	0.08757762
131	0xbe21e69f	-0.15810631
132	0xbe414fca	-0.18878093
133	0xbd51abe2	-0.05118931
134	0xbd91b9b6	-0.071155
135	0x3c8ec777	0.017429097
136	0xbd9623d5	-0.07331053
137	0xbe0408ee	-0.12894031
138	0xbceeffcb	-0.029174706
139	0x3e21a1ec	0.15784425
140	0x3e857cd7	0.26071808
141	0xbd388be5	-0.04505529
142	0xbde771f1	-0.113010295
143	0x3d08e596	0.033422075
144	0xbe557587	-0.20845614
145	0x3c8e6171	0.017380448
146	0x3da94a26	0.08266096
147	0xbe5b08eb	-0.2139012
148	0x3e8342ed	0.25636998
149	0xbce12694	-0.027484216
150	0xbd25bec1	-0.04046512
151	0x3e1269eb	0.14298217
152	0xbe1df364	-0.15424877
153	0xbd69e430	-0.057102382
154	0xbd13539c	-0.035968408
155	0xbcce0a4c	-0.025151394
156	0x3d98f2bf	0.07468175
157	0xbe3a04a2	-0.1816583
158	0x3da15c2d	0.07878909
159	0xbdec72f7	-0.11545365
160	0x3e68d237	0.2273644
161	0x3e5787e5	0.21047933
162	0xbe131052	-0.14361694
163	0x3ed41e36	0.414293
164	0xbc2d5760	-0.010579914
165	0xbdeb0ad5	-0.114766754
166	0xbd3c115a	-0.045914985
167	0xbe690bbd	-0.22758384
168	0xbd26d459	-0.040729854
169	0xbde9c7a4	-0.114150316
170	0xbe130fb2	-0.14361456
171	0xbcb577bf	-0.022151826
172	0xbc701c15	-0.014655133
173	0xbe50595f	-0.20346592
174	0x3e2a7691	0.16646792
175	0x3d881997	0.06645506
176	0xbd81a33f	-0.06329965
177	0x3e0efab6	0.13962826
178	0x3e41641b	0.18885843
179	0x3e2b2163	0.16711955
180	0xbe8cea53	-0.27522525
181	0xbc9d572c	-0.019206606
182	0x3e8ef30d	0.27919808
183	0xbe624a18	-0.22098577
184	0xbd6286a9	-0.055304203
185	0xbe08585f	-0.13314961
186	0x3e94180e	0.28924602
187	0xbe192857	-0.14956795
188	0x3df1cbfb	0.11806484
189	0x3bc86beb	0.0061163804
190	0x3e00bc22	0.12571767
191	0x3d0d1611	0.034444872
192	0x3cf825de	0.030291494
193	0x3de95055	0.11392275
194	0xbe874696	-0.2642104
195	0xbd825139	-0.06363148
196	0x3d61d04d	0.05513029
197	0x3e07485c	0.13211197
198	0xbe28d3c7	-0.16487037
199	0xbe01e47c	-0.12684816
200	0x3c15d630	0.009145305
201	0xbdb8a01e	-0.09014915
202	0xbd2d42a2	-0.042299874
203	0x3e839e89	0.2570689
204	0xbdb5d59f	-0.088786356
205	0xbe219d8f	-0.1578276
206	0xbd7dfa1b	-0.062006097
207	0x3dd0e444	0.10199788
208	0x3e43e5fa	0.19130698
209	0xbdd7e23d	-0.105411984
210	0x3e119250	0.1421597
211	0xbe009973	-0.12558536
212	0xbd9134fa	-0.070901826
213	0x3e4d53b2	0.20051458
214	0x3e52dc72	0.20591906
215	0x3db97a22	0.09056498
216	0xbdae8618	-0.0852167
217	0x3e3dfc17	0.18553196
218	0xbce58ea1	-0.028022112
219	0x3d0e80da	0.03479085
220	0xbe220881	-0.15823556
221	0xbe26ef9a	-0.16302338
222	0x3e2346e6	0.15945014
223	0x3dfeef05	0.12447933
224	0xbe1c9935	-0.15292819
225	0xbdeee879	-0.116654344
226	0xbd774a5c	-0.06037365
227	0xbe3ddbe1	-0.18540908
228	0x3d9e29dc	0.07722828
229	0x3d5a410a	0.053284682
230	0x3e04c1e6	0.12964591
231	0x3e2cc811	0.16873194
232	0xbe25ebdc	-0.16203254
233	0xbc210070	-0.009826764
234	0x3d791f5f	0.060820933
235	0xbc6c1dcd	-0.014411402
236	0xbc1b2e7a	-0.00947153
237	0xbe00f780	-0.12594414
238	0x3d2ee943	0.042702924
239	0x3db458bb	0.088059865
240	0x3e3dd48a	0.18538108
241	0x3e2a78ab	0.16647594
242	0xbd4a9b44	-0.04946448
243	0x3e5661a5	0.20935686
244	0x3d113201	0.035448078
245	0xbe189140	-0.14899158
246	0x3e021015	0.12701447
247	0x3e46efb9	0.19427384
248	0x3e57efec	0.21087617
249	0xbe0e72f6	-0.13911042
250	0x3da4572e	0.08024441
251	0x3e1d41a4	0.15357071
252	0x3e0b75ce	0.13619158
253	0xbd64d8f7	-0.055870976
254	0x3e3d302c	0.18475407
255	0x3e80613a	0.25074178

backbone_net.visual_net.0.0.bias f4 [16]
0	0x3ccbd888	0.024883524
1	0x3cd8863c	0.026431195
2	0x3bd27be9	0.0064234626
3	0xbd42b18d	-0.047532607
4	0x3ba30d08	0.0049759187
5	0x3e44424a	0.19165912
6	0xbdc3d07b	-0.09561249
7	0xbc214682	-0.0098434705
8	0x3cc5abc4	0.024129756
9	0xbd2f34e6	-0.042775057
10	0xbd2b5473	-0.041828584
11	0x3e229fa2	0.15881208
12	0xbe46d0c5	-0.19415577
13	0xbd47db0b	-0.04879288
14	0xbdb2f588	-0.087382376
15	0x3dd59601	0.104290016

backbone_net.visual_net.1.0.weight f4 [32, 16, 3, 3]
0	0x3c81b5fe	0.015833851
1	0xbd18bdfc	-0.03729056
2	0x3ca8158a	0.020518083
3	0x3d8582c8	0.06519085
4	0xbd99334e	-0.07480489
5	0xbdd6fff3	-0.10498037
6	0xbd547493	-0.051868986
7	0xbda9e1b0	-0.082949996
8	0xbe753a3e	-0.23947999
9	0xbc76bf2f	-0.01506023
10	0x3e0e98e0	0.13925505
11	0x3b909857	0.0044126916
12	0x3d655e91	0.05599839
13	0x3cf9f67b	0.030513039
14	0xbe700fdd	-0.23443551
15	0x3cebc26b	0.02877923
16	0xbe0908cc	-0.13382262
17	0xbe6873f0	-0.22700477
18	0xbc3bae2f	-0.011455103
19	0x3c633586	0.013867741
20	0x3ca67b5d	0.020322496
21	0x3ce74faf	0.028236238
22	0x3d45c9ab	0.04828803
23	0x3c349d9e	0.011023907
24	0x3d034273	0.032045793
25	0x3d8ee4b9	0.06977219
26	0xbe8c8316	-0.2744376
27	0x3df67fc9	0.12036092
28	0x3e045a8a	0.12925163
29	0x3e18820b	0.14893357
30	0xbd2ff914	-0.04296215
31	0x3d32480b	0.043525737
32	0x3e192b18	0.14957845
33	0xbd042b93	-0.032268118
34	0x3dee7e7c	0.11645219
35	0xbe17e818	-0.1483463
36	0x3dfdbbc4	0.12389329
37	0x3ded773a	0.11595006
38	0x3cdb3ca7	0.02676232
39	0x3dd3e13c	0.103456944
40	0xbd8c88ff	-0.068620674
41	0x3e1e8e9b	0.15484087
42	0x3c58305a	0.013195122
43	0xbd392f4b	-0.045211118
44	0xbdf831d4	-0.12118879
45	0x3d96aa31	0.0735668
46	0x3d8696f9	0.065717645
47	0x3dae54b2	0.08512248
48	0x3d7d8899	0.061897848
49	0x3d450e83	0.048109543
50	0x3d853ddc	0.06505939
51	0x3c8aa64b	0.016924998
52	0xbd65e163	-0.05612315
53	0xbe92d368	-0.28676915
54	0x3ca5f7dd	0.020259792
55	0x3ca34374	0.019929625
56	0xbd6026a7	-0.05472436
57	0xbc818be4	-0.015813775
58	0x3d240d2f	0.040051635
59	0x3d20a57a	0.03922031
60	0x3a0659be	0.0005125067
61	0xbde830db	-0.113374434
62	0xbc7a30ed	-0.015270454
63	0xbd6a35ee	-0.057180338
64	0x3cb8cfbc	0.022559993
65	0xbd377979	-0.04479358
66	0x3c089fc3	0.008338871
67	0x3dc4744f	0.095924966
68	0xbcd2a6e1	-0.02571434
69	0xbce7ed01	-0.028311254
70	0xbd169c25	-0.036770005
71	0xbd955da2	-0.0729325
72	0x3dac6741	0.084181316
73	0x3d9922c0	0.07477331
74	0x3d1ebb54	0.03875287
75	0x3d55b463	0.052173983
76	0x3e0831d8	0.13300264
77	0xbda16c09	-0.07881934
78	0xbd08ebb4	-0.03342791
79	0x3c8d5d84	0.017256506
80	0x3c9db442	0.019250993
81	0x3d9b1461	0.07572246
82	0x3d6c4df2	0.057691522
83	0xbd9416f1	-0.07230938
84	0x3dd35f05	0.10320858
85	0x3d93dd9b	0.07220002
86	0x3d2a9bd4	0.041652516
87	0x3e26bb46	0.16282377
88	0x3df86e06	0.1213036
89	0xbab9b972	-0.0014169647
90	0x3dc206f7	0.09473985
91	0x3dccd9c4	0.10002473
92	0x3d7aec64	0.061260596
93	0x3df54164	0.11975363
94	0xbcda8e86	-0.026679289
95	0x3c989059	0.018623518
96	0x3d5b8981	0.05359793
97	0xbdfb45e6	-0.122691914
98	0x3c9e914b	0.01935639
99	0xbc2efad5	-0.01067992
100	0xbd34f9fc	-0.044183716
101	0xbda3d21e	-0.07999061
102	0xbac2d4f9	-0.0014864496
103	0xbd20035d	-0.039065707
104	0xbd660d64	-0.056165114
105	0x3c9abafb	0.018887987
106	0x3cdbeb5b	0.026845625
107	0xbdeb2584	-0.11481765
108	0x3d16bd23	0.03680147
109	0xbc8b1980	-0.016979933
110	0x3d14701c	0.03623973
111	0x3b6745f5	0.00352895
112	0x3da28e31	0.07937277
113	0xbd317746	-0.04332664
114	0x3cb38d53	0.021917975
115	0x3d05c3e9	0.032657538
116	0xbea765ef	-0.32694957
117	0xbd8551a2	-0.06509711
118	0xbd419b2f	-0.047267135
119	0xbd32983c	-0.043602213
120	0x3d8a3eec	0.06750283
121	0xbd71575e	-0.05892121
122	0xbcd3f51f	-0.025873719
123	0x3d833885	0.064072646
124	0xbd990a61	-0.07472683
125	0x3c6d47c4	0.014482442
126	0x3ccb45c4	0.02481354
127	0x3dac5a82	0.084157005
128	0x3d473fb8	0.04864475
129	0x3d821f09	0.06353576
130	0x3d0c7086	0.034287
131	0xbcf221ea	-0.029557187
132	0xbd4e8b78	-0.050425977
133	0x3ca3405e	0.019928154
134	0xbe3afa56	-0.18259558
135	0xbd5a2d29	-0.053265724
136	0x3d725cba	0.059170462
137	0xbc6a86af	-0.014314338
138	0x3e041e84	0.12902266
139	0xbd9662d9	-0.073430724
140	0xbd363878	-0.044487447
141	0xbd28c5ba	-0.04120419
142	0xbe398271	-0.18116166
143	0xbe266d4a	-0.16252628
144	0xbd9751d1	-0.07388652
145	0xbc2def0d	-0.010616076
146	0x3d2096d0	0.039206326
147	0xbdcace3d	-0.09902618
148	0x3d3e6717	0.046485033
149	0xbd933335	-0.07187501
150	0xbc3da0b1	-0.011573956
151	0x3c598c3f	0.013278066
152	0xbda0c17a	-0.07849403
153	0xbc977169	-0.018486695
154	0xbd89a7e2	-0.06721474
155	0xbd9bef7a	-0.07614036
156	0xbd93150e	-0.0718175
157	0x3cd3fd68	0.02587767
158	0xbd97b3a6	-0.07407312
159	0xbc9750f0	-0.018471211
160	0xbd830361	-0.06397129
161	0x3c408392	0.011750119
162	0xbd830444	-0.06397298
163	0x3cd71f45	0.026260028
164	0xbd3fd321	-0.046832208
165	0x3d2165dd	0.039403785
166	0x3b95b4e9	0.0045686853
167	0xbcbe0150	-0.023193985
168	0xbcc069f8	-0.02348803
169	0xbd128018	-0.03576669
170	0xbc3cecc1	-0.011531056
171	0x3c526211	0.012840764
172	0x3d436b49	0.047709737
173	0xbdaae101	-0.08343697
174	0xbd05399e	-0.03252565
175	0xbd3aa1f1	-0.045564596
176	0xbce5b406	-0.028039943
177	0x3c7a039d	0.015259651
178	0x3d206b0e	0.039164595
179	0xbad5eda9	-0.0016321439
180	0xbd89dad6	-0.06731193
181	0x3cd694d1	0.026194008
182	0xbd26f4b8	-0.040760726
183	0xbd5939a2	-0.05303348
184	0xbcca7d51	-0.024717959
185	0x3d413588	0.047170192
186	0xbd93ae27	-0.07210951
187	0x3d710f47	0.05885246
188	0xbdce45e1	-0.10071922
189	0x3cc338d2	0.023830805
190	0xbd2fa9cd	-0.042886544
191	0x3c65c901	0.014024974
192	0xbcaae446	-0.020860802
193	0xbc269ea9	-0.0101696635
194	0xbd2c4ef5	-0.042067487
195	0xbd602fd8	-0.054733127
196	0x3ca0c653	0.019625818
197	0x3d43454f	0.04767352
198	0x3c533435	0.012890865
199	0xbc2c77d8	-0.01052662
200	0xbd79bf0c	-0.060973212
201	0xbc47c50e	-0.012192978
202	0xbd91e410	-0.071235776
203	0xbdbfb251	-0.09360183
204	0xbd3b252b	-0.045689743
205	0xbcb842a7	-0.02249272
206	0xbdb187a1	-0.08668447
207	0xbd9719ed	-0.07377992
208	0xbd24f109	-0.04026893
209	0x3c8a031a	0.016847182
210	0xbd77b8cb	-0.060478967
211	0x3d5cdbe9	0.05392066
212	0xbbcb7c59	-0.0062098918
213	0x3cb8ce33	0.022559261
214	0xbd5d8077	-0.05407759
215	0xbc1f28f7	-0.009714357
216	0x3cd8cf2b	0.026465973
217	0xbccb9ec2	-0.024855975
218	0xbdbe097e	-0.09279154
219	0xbd544593	-0.051824164
220	0xbd1f027a	-0.03882072
221	0x3d0993a9	0.033588085
222	0xbdae7cb3	-0.08519878
223	0x3d82c1db	0.06384631
224	0x3d192685	0.03739025
225	0x3c793835	0.015211155
226	0xbd61d1e7	-0.05513182
227	0x3b220d35	0.002472711
228	0x3d138ffb	0.036025982
229	0x3d87322d	0.06601367
230	0xbd8ecb49	-0.06972367
231	0xbd2b5343	-0.04182745
232	0xbd5de496	-0.054173075
233	0xbda6cf0c	-0.0814496
234	0xbd6d603d	-0.057953108
235	0x3d5d71fa	0.054063775
236	0x3cdc67c1	0.026904942
237	0x3c40f191	0.011776344
238	0xbcac45a9	-0.02102931
239	0x399edbaa	0.0003029977
240	0xbd561daf	-0.052274402
241	0xbac2c8de	-0.0014860888
242	0x3c405c5b	0.011740769
243	0xbdad1cda	-0.084527686
244	0x3d763b36	0.06011506
245	0x3cb0f7f2	0.021602605
246	0x3be9c896	0.0071345074
247	0x3cb30861	0.021854581
248	0xbd80c603	-0.06287768
249	0x3d62ba10	0.055353224
250	0xbbb61350	-0.0055565014
251	0x3d228656	0.039678894
252	0x3cba3a91	0.022733005
253	0x3d2a9f17	0.041655626
254	0x3d207936	0.039178096
255	0xbd85d207	-0.065342

backbone_net.visual_net.1.0.bias f4 [32]
0	0xba8674fb	-0.0010258252
1	0xbb4a3db0	-0.0030859523
2	0xbd739cae	-0.059475593
3	0xbd3cd467	-0.046101
4	0x3b7c503e	0.0038499977
5	0xbdafe0c9	-0.08587796
6	0xbdeb800f	-0.114990346
7	0x3d50078c	0.050788447
8	0xbc70305e	-0.014659969
9	0xbd804103	-0.062624
10	0xbd82c959	-0.0638606
11	0xbd62df87	-0.055388954
12	0x3aa8ec11	0.0012887736
13	0xbbe1cfd2	-0.006891229
14	0xbd40e06e	-0.047089033
15	0xbd14e2b3	-0.03634901
16	0xbd78f867	-0.06078377
17	0xbdbf4628	-0.09339553
18	0xbd21f267	-0.039537814
19	0xbd7a64b5	-0.061131198
20	0xbc4c68bd	-0.012476143
21	0xbd4bfe44	-0.049803033
22	0xbd98d35e	-0.0746219
23	0xbc548036	-0.012970021
24	0x3d06bfcb	0.03289775
25	0x3c1c806a	0.009552101
26	0xbca34258	-0.019929096
27	0x3d2a4dd2	0.04157812
28	0x3cb51364	0.022103973
29	0xbd5291a7	-0.051408436
30	0x3cc39d7d	0.023878807
31	0x3c1fbf53	0.009750205

backbone_net.visual_net.2.0.weight f4 [64, 32, 3, 3]
0	0xbd95c004	-0.07312015
1	0x3d60abe3	0.054851424
2	0x3d62b998	0.055352777
3	0xbda22f50	-0.079191804
4	0xbd25e933	-0.0405056
5	0x3d4172f5	0.047228772
6	0x3b33f49c	0.002745903
7	0x3bf8b74e	0.007590211
8	0xbd8c2659	-0.06843252
9	0xbcbc9359	-0.02301948
10	0xbc7f162c	-0.015569251
11	0xbcd96a72	-0.026540015
12	0x3b36f837	0.0027918944
13	0xbc977a2a	-0.01849087
14	0xbd1205e1	-0.035650138
15	0xbd1b36c5	-0.03789403
16	0x3d979e0e	0.074031934
17	0x3ca69aa7	0.020337416
18	0x3c965337	0.018350227
19	0xbde741cb	-0.11291846
20	0x3cd4fe82	0.026000265
21	0xbcd05573	-0.02543137
22	0xbe1917bd	-0.14950462
23	0xbcfc03f5	-0.030763606
24	0x3d5d68af	0.054054912
25	0x3d483ccb	0.0488861
26	0x3ab74262	0.0013981576
27	0x3b5b393a	0.0033450858
28	0xbd20f883	-0.0392995
29	0x3be28322	0.006912605
30	0xbe043504	-0.12910849
31	0xbca2c3b5	-0.019868711
32	0xbd5fc949	-0.05463532
33	0xbc72e12c	-0.014824193
34	0xbdbee87e	-0.09321688
35	0xbde4a834	-0.11164895
36	0xbd70a421	-0.058750276
37	0x3b868173	0.004104787
38	0x3d73b1c7	0.059495714
39	0xbda8bab5	-0.082387365
40	0xbda61a21	-0.081104524
41	0xba46ff80	-0.0007591173
42	0x3dfd42ec	0.1236628
43	0xbdb225ba	-0.08698602
44	0xbd56cb41	-0.05243993
45	0xbd4fa75f	-0.050696727
46	0x3e2eb28e	0.170603
47	0x3cb29e42	0.021803979
48	0x3d011430	0.031513393
49	0xbd08faa7	-0.033442166
50	0x3d50651b	0.05087767
51	0x3d91a8bf	0.07112264
52	0x3c93ea3f	0.018056033
53	0xbd373026	-0.044723652
54	0xbd6010ec	-0.054703638
55	0xb95f151b	-0.000212748
56	0x3d1fbd6a	0.038999
57	0xbd466298	-0.04843387
58	0xbdbaef39	-0.09127659
59	0xbd387171	-0.04503006
60	0x3d12ba39	0.035822127
61	0xbdff4031	-0.124634154
62	0xbd804ac9	-0.06264264
63	0xbd70610e	-0.05868631
64	0x3ce7ad2d	0.028280819
65	0x3d4274c1	0.047474626
66	0x3ca7af0d	0.020469213
67	0xbb84bc1b	-0.004050744
68	0xbccad719	-0.02476077
69	0x3d1c287c	0.038124546
70	0x3d0a4a2e	0.03376215
71	0x3d6e9239	0.058244918
72	0xbc3ebc54	-0.011641581
73	0xbd99804a	-0.07495172
74	0x3df01d41	0.1172433
75	0xbd955326	-0.0729125
76	0x3cea6a95	0.028615275
77	0xbd583eda	-0.052794315
78	0x3deeb3ad	0.11655364
79	0xbd32206a	-0.043487944
80	0xbe13fdd5	-0.14452298
81	0xbc3c6979	-0.011499756
82	0x3c66c3fb	0.014084811
83	0x3caf15ca	0.021372695
84	0xbd1cbcfd	-0.03826617
85	0xbc9f049e	-0.019411381
86	0xbcc19075	-0.023628453
87	0x3c8daa8e	0.01729324
88	0xbd12e475	-0.035862405
89	0x3ce4e014	0.02793888
90	0xbe022fa6	-0.12713489
91	0xbde12593	-0.10993495
92	0xbd6840c5	-0.056702394
93	0xbd86654b	-0.06562289
94	0xbda547ca	-0.08070333
95	0x3cc0d05c	0.023536853
96	0xbd7487c8	-0.059699804
97	0xbd848552	-0.06470741
98	0xbd0a77f6	-0.03380581
99	0xbd519e7e	-0.05117654
100	0x3d2929fc	0.041299805
101	0x3da6eefb	0.08151051
102	0x3d53219e	0.05154573
103	0xbdabc1c6	-0.08386569
104	0xbd5442c0	-0.05182147
105	0x3dd65e46	0.104672
106	0xbd7f9e8b	-0.062407058
107	0xbd19e092	-0.037567683
108	0xbdd986ac	-0.1062139
109	0xbdbf5940	-0.09343195
110	0xbd404e3a	-0.046949603
111	0xbd702415	-0.05862816
112	0x3d08f204	0.03343393
113	0xbc0f5e20	-0.0087504685
114	0x3df96942	0.121782795
115	0x3d9ccfc7	0.07656818
116	0xbced7e86	-0.028990995
117	0x3c7f7509	0.015591868
118	0x3d00da3c	0.031458125
119	0xbd046923	-0.03232683
120	0xbd46bfb2	-0.04852266
121	0x3cddc361	0.027070703
122	0xbd27be85	-0.040953178
123	0x3bad97b2	0.0052976245
124	0x3d0b89ca	0.034066953
125	0xbb91549f	-0.0044351364
126	0xbca7ce09	-0.020483987
127	0xbdb41377	-0.08792775
128	0xbcb9635c	-0.022630386
129	0xbe2d8a22	-0.16947225
130	0xbbbd8297	-0.00578339
131	0xbe0084cf	-0.12550662
132	0x3d245586	0.040120624
133	0xbe476727	-0.19472943
134	0xbb948a34	-0.0045330767
135	0xbd3edaa5	-0.046595234
136	0xbc2be652	-0.010491924
137	0x3ce9db2d	0.028546894
138	0x3c42d062	0.011890503
139	0xbc0cd461	-0.008595557
140	0xbd165ec3	-0.036711466
141	0xbc9f7d6c	-0.019468985
142	0xbd1151f9	-0.035478566
143	0xbd44980f	-0.047996577
144	0xbd9afe5d	-0.07568047
145	0xbde4ae98	-0.111661136
146	0x3ce7dac8	0.028302565
147	0xbcd98c67	-0.026556207
148	0xbe49c4c4	-0.19703966
149	0xbd1fcc92	-0.039013453
150	0x3dc3afc9	0.09555013
151	0xba3f32f5	-0.0007293665
152	0x3d2cc4be	0.042179815
153	0xbd9455c7	-0.07242923
154	0xbcc7e4e9	-0.024401145
155	0x3dfd2817	0.12361162
156	0xbcb7a817	-0.022419019
157	0xbad9a769	-0.0016605678
158	0xbe039930	-0.12851405
159	0xbd9ad8b5	-0.07560865
160	0xbddcbf72	-0.10778703
161	0xbe066013	-0.13122587
162	0xbddc908d	-0.107697584
163	0xbd6a93fd	-0.05727004
164	0xbd04a17c	-0.032380566
165	0xbd8c1b32	-0.068411246
166	0xbdd44bdc	-0.103660315
167	0xbd5a6f31	-0.053328697
168	0x3d3ddb15	0.04635151
169	0x3c32bd03	0.010909322
170	0xbbd6e117	-0.0065575945
171	0xbddf7e16	-0.10912721
172	0xbd8970b5	-0.0671095
173	0xbd14700c	-0.03623967
174	0xbd76a4be	-0.060215704
175	0xbe4c9163	-0.19977336
176	0xbd32c5e4	-0.043645754
177	0x3dbe8735	0.093031324
178	0x3ba37622	0.0049884478
179	0x3cdde025	0.02708442
180	0xbca28737	-0.019839866
181	0xbd2cb862	-0.04216803
182	0x3e0c9e75	0.13732322
183	0xbca944c8	-0.02066268
184	0xbdc0b910	-0.09410298
185	0xbe031afd	-0.12803264
186	0xbcf438ea	-0.029812295
187	0x3dd5557a	0.10416694
188	0x3d6bc669	0.057562266
189	0xbca62f7e	-0.020286318
190	0x3cb29e8e	0.02180412
191	0xbd1233cc	-0.03569393
192	0x3cf06039	0.029342758
193	0x3d1d3243	0.03837801
194	0x3c1ad824	0.009450946
195	0xbbf3b87e	-0.0074377647
196	0x3d004bec	0.031322405
197	0xbb4a6a43	-0.003088609
198	0xbdb6a93a	-0.08918996
199	0xbd2e0b5e	-0.04249131
200	0x3d7a8dc7	0.061170366
201	0xbd805843	-0.062668346
202	0xbdc995c1	-0.098430164
203	0xbd1fa444	-0.038975015
204	0x3d7b04cd	0.061283875
205	0xbd38fa21	-0.045160417
206	0xbd4477c0	-0.047965765
207	0xbd79a295	-0.060946066
208	0xbe5afbcf	-0.2138512
209	0xbcb46156	-0.02201907
210	0xbddf9f8f	-0.10919105
211	0xbd80ea2f	-0.06294667
212	0x3d3b94f9	0.04579637
213	0x3d8e516f	0.06949126
214	0x3cfcc38a	0.030854959
215	0x3d8ea4f7	0.06965058
216	0xbcf0364d	-0.029322768
217	0x3c930c93	0.017950332
218	0x3cd96d59	0.026541399
219	0x3cd57b16	0.026059669
220	0x3cbaf1b8	0.022820339
221	0x3d494a4d	0.049143124
222	0xbc443004	-0.011974338
223	0xbcd056df	-0.025432048
224	0x3c5677c1	0.013090075
225	0xbd642e7c	-0.055708393
226	0x3da411b8	0.08011192
227	0xbc5a74c6	-0.013333505
228	0x3ccbc423	0.024873799
229	0xbce6a0e0	-0.028152883
230	0xbd71d855	-0.0590442
231	0x3cc20dfe	0.023688313
232	0xbd4a0bb1	-0.049327556
233	0x3bab21c5	0.0052225315
234	0xbcf05f1a	-0.029342223
235	0xbda59278	-0.08084577
236	0x3c504abf	0.012713133
237	0xbd9bee4e	-0.076138124
238	0xbdade21d	-0.08490393
239	0xbd5b39e9	-0.053522024
240	0x3dc29d15	0.09502617
241	0xbdce82bc	-0.10083529
242	0xbd216338	-0.039401263
243	0xb934b565	-0.00017233712
244	0x3d1a83f8	0.03772351
245	0x3cd8ec30	0.02647981
246	0x3d51c49b	0.05121289
247	0xbb5a54af	-0.0033314636
248	0xbd14a5b2	-0.036290832
249	0xbc5d57ec	-0.013509732
250	0xbd1501b1	-0.036378566
251	0x3cb97163	0.022637075
252	0xbd508818	-0.05091104
253	0x3c393e25	0.01130632
254	0xbba4102a	-0.0050068097
255	0xbd2881ad	-0.041139293

backbone_net.visual_net.2.0.bias f4 [64]
0	0x3dc96e64	0.098355085
1	0xbd1638f0	-0.036675394
2	0x3da557e9	0.08073408
3	0x3e0a4998	0.13504636
4	0xbdd08ca8	-0.10183078
5	0xbb9dc64d	-0.004814899
6	0xbd17fc4a	-0.037105836
7	0xbd84b5b6	-0.06479971
8	0xbcfca5af	-0.030840723
9	0x3c2558b5	0.01009195
10	0xbda1577e	-0.07878016
11	0xbc8e601c	-0.017379813
12	0xbce69d07	-0.028151048
13	0x3dacf25d	0.084446646
14	0xbddc0aab	-0.10744222
15	0xbdf003cc	-0.11719474
16	0xbdb162a0	-0.08661389
17	0xbcc84978	-0.024449095
18	0xbda60189	-0.081057616
19	0x3cc98c04	0.024602897
20	0xbd782603	-0.060583126
21	0x3c89ec1d	0.01683622
22	0xbd010e1c	-0.031507596
23	0xbce7b155	-0.0282828
24	0xba98bcd9	-0.0011652961
25	0x3df98d4d	0.12185154
26	0xbc9722db	-0.018449238
27	0xbd7e26bd	-0.062048662
28	0x3db3e2a7	0.08783465
29	0xbd8a8250	-0.067631364
30	0x3c43bc4c	0.011946749
31	0x3dd8d67f	0.10587787
32	0x3c8f95ed	0.017527545
33	0x3da8eb0c	0.08247957
34	0xbda0b1a2	-0.07846381
35	0x3da0471c	0.07826063
36	0x3d21f40c	0.03953938
37	0x3e0d7c4c	0.13816947
38	0xbd1ad1c8	-0.03779772
39	0x3c8404ff	0.016115664
40	0xbcafac11	-0.021444352
41	0xbd86eb36	-0.06587832
42	0xbdc68c57	-0.096947365
43	0xbd52074f	-0.0512765
44	0xbd9a8582	-0.07544996
45	0xbe02fbb1	-0.12791325
46	0xbad25b5e	-0.0016048958
47	0xbd038094	-0.032105044
48	0x3cdd2aba	0.026997913
49	0xbd83d065	-0.064362325
50	0xbc95d51a	-0.018290091
51	0xbda2466f	-0.079235904
52	0xbd0b57e5	-0.03401937
53	0xbd6a89f9	-0.057260487
54	0xbb8b175b	-0.0042447275
55	0xbd7ddaf2	-0.06197638
56	0x3d63465f	0.055487033
57	0x3d8a2e32	0.06747092
58	0xbc4e7307	-0.012600667
59	0xbd0f0691	-0.03491837
60	0x3cfbce47	0.03073801
61	0x3d86a442	0.065742984
62	0x3d160eaa	0.03663508
63	0x3acb7016	0.0015521075

backbone_net.visual_net.3.0.weight f4 [8, 64, 3, 3]
0	0x3c414a8c	0.0117975585
1	0xbd1b7099	-0.03794918
2	0xbd420f5c	-0.04737793
3	0x3cde7cb3	0.02715907
4	0xbbb18270	-0.0054171607
5	0x3c289a95	0.0102907615
6	0xbd14f6c0	-0.03636813
7	0xbc751718	-0.014959119
8	0x3cfd856e	0.030947413
9	0xbba2111c	-0.0049458873
10	0x3cec7cd2	0.028868113
11	0xbd5d200f	-0.05398565
12	0xbc886c98	-0.016653344
13	0xbbe09bbc	-0.0068545025
14	0xbbcaaf66	-0.00618546
15	0x3cbf488c	0.023350023
16	0xbd22bc11	-0.039730135
17	0xbc91689d	-0.017750079
18	0xbc3de24c	-0.011589598
19	0xbbb88a9f	-0.0056317593
20	0xbd1404ce	-0.036137395
21	0x3c4a9792	0.012365239
22	0xbc3aecab	-0.011408965
23	0x3c90769a	0.017634679
24	0xbc092e33	-0.008372831
25	0x3ca1b8ad	0.01974138
26	0x3b747bb8	0.0037305187
27	0xbce4a551	-0.02791086
28	0x3c2783ad	0.010224265
29	0xbc1246fc	-0.008928057
30	0xbc322121	-0.010872156
31	0xbcbb64de	-0.022875246
32	0xbcd4c0a5	-0.025970766
33	0x3c313236	0.010815194
34	0xbcbe96db	-0.023265293
35	0x3c5ee2d9	0.013603889
36	0xbc1712bf	-0.009220778
37	0x3be80f9a	0.007081938
38	0xbc320778	-0.0108660385
39	0x3cd1c3af	0.025606005
40	0x38faa251	0.00011951163
41	0xbb4d7da2	-0.00313554
42	0x3ca2c93b	0.019871345
43	0xbd37f921	-0.044915322
44	0x3c45e068	0.012077428
45	0xbcf24f57	-0.029578848
46	0x3b663f7c	0.0035133054
47	0xbc2c92a9	-0.010533013
48	0x3c0de62c	0.008660834
49	0x3cff26f6	0.031146508
50	0xbcde8d29	-0.02716692
51	0x3bfc74de	0.0077043613
52	0x3c81a6c9	0.0158266
53	0x3cefc8bf	0.029270528
54	0xbcb71d37	-0.022352798
55	0x3c423403	0.011853221
56	0xbd0702b4	-0.032961562
57	0xbc5be71f	-0.013421803
58	0xbd105f9d	-0.035247434
59	0xbc8ccb62	-0.017186824
60	0xbcf7ff95	-0.030273238
61	0xbbaf7148	-0.0053540803
62	0x3cf4e3a0	0.029893696
63	0x3cc509af	0.024052469
64	0xb8bb7c74	-8.940036e-05
65	0xbc84840d	-0.016176248
66	0xbb983d3b	-0.004645971
67	0xbd00a44e	-0.031406693
68	0xbd4b7d35	-0.049679954
69	0xbd16e68e	-0.036840968
70	0x3c6e01f5	0.014526834
71	0xbd2a7ac0	-0.04162097
72	0x3d0d0467	0.034428027
73	0xbd23b1eb	-0.039964598
74	0xbb6f202c	-0.0036487682
75	0xbcdaba49	-0.026700156
76	0x3c4c9fa8	0.012489237
77	0x3c8d441a	0.017244387
78	0x3c92ecee	0.017935243
79	0xbc189543	-0.0093129305
80	0xbcb14e6c	-0.02164384
81	0xbc51e05f	-0.012809842
82	0xbd1bf60d	-0.03807645
83	0x3b1d767f	0.0024026928
84	0x3be01e70	0.006839566
85	0xbcc724f7	-0.024309618
86	0x3b06b4c8	0.0020554531
87	0xbd0bda61	-0.03414381
88	0xbb9bdb13	-0.0047563403
89	0x3ce6410b	0.028107187
90	0x3cb0b139	0.021568881
91	0xbc21a772	-0.009866582
92	0xbd1e7cb2	-0.038693137
93	0xbc8e9f2a	-0.01740988
94	0xbd10cda7	-0.035352375
95	0xbd1564e8	-0.036473185
96	0x3c300b68	0.010744907
97	0xbd008f09	-0.03138641
98	0xbbbfbaff	-0.005851149
99	0x3d04ac79	0.032391045
100	0xbcd60fcb	-0.026130578
101	0x3ab1c79f	0.001356352
102	0xba7d0f1d	-0.0009653436
103	0x3cff4cf9	0.031164633
104	0x3c0bbc59	0.008528792
105	0xbc80a8e0	-0.015705526
106	0xbd0360c6	-0.032074712
107	0xbc4fe900	-0.012689829
108	0xbd2f20ec	-0.042756006
109	0x3d13152b	0.03590886
110	0xbc540005	-0.012939458
111	0xbcebb82d	-0.028774345
112	0xbc2cbaa4	-0.0105425455
113	0xbd2ccd32	-0.042187877
114	0x3cd82e2e	0.026389208
115	0xb9338e60	-0.00017123809
116	0xbd180704	-0.037116066
117	0xbd2231f3	-0.039598417
118	0x3b74ef36	0.0037374026
119	0xbd09a23e	-0.03360199
120	0x3bbe595e	0.0058089932
121	0x3cd0a297	0.025468154
122	0x3c833bd3	0.016019737
123	0xbcd7d10d	-0.0263448
124	0xbd4ba572	-0.049718328
125	0x3cef3ce2	0.029203836
126	0x3b3ac4ed	0.0028498725
127	0xbcde320b	-0.027123472
128	0x3c08af45	0.008342569
129	0x3c9ac3ae	0.018892135
130	0x3c771304	0.015080217
131	0x3c4480fd	0.011993644
132	0x3c6a3855	0.014295657
133	0xbcd3e694	-0.025866784
134	0xbd01a5fa	-0.03165243
135	0x3ccbd2b1	0.024880739
136	0x3ca7ed41	0.020498874
137	0x3bb645f1	0.005562537
138	0x3b83075a	0.003998679
139	0x3ccf6cca	0.02532043
140	0xbd18f585	-0.03734352
141	0xbc9638a5	-0.018337557
142	0xbb3c1ede	-0.0028704922
143	0xbd05714a	-0.032578744
144	0xbd22b78b	-0.03972582
145	0xbcaf4e7b	-0.021399727
146	0xbd08f0f0	-0.0334329
147	0xbcc0717a	-0.02349161
148	0xbcf65025	-0.030067513
149	0xbc52fb7b	-0.01287734
150	0x3ca07f8d	0.019592071
151	0x3a41bf48	0.0007390869
152	0x3c35ac24	0.011088405
153	0x3b271754	0.0025496082
154	0xbcd8df0f	-0.02647355
155	0xbcdeea6b	-0.027211389
156	0xbcbe2f69	-0.023215966
157	0x3cb6015a	0.022217441
158	0x3bb60cab	0.0055557094
159	0x3ba04e38	0.004892137
160	0x3c1b7e9d	0.009490636
161	0xbd030c7b	-0.031994324
162	0xbd2162c7	-0.039400842
163	0x3c6850e5	0.014179443
164	0xbd37886e	-0.044807844
165	0xbbe034eb	-0.006842246
166	0xbd422112	-0.04739482
167	0x3c9dc5f4	0.01925943
168	0xbd3ff173	-0.046861123
169	0x3bc7f132	0.006101751
170	0xbb96691f	-0.004590168
171	0x3c928a6a	0.017888267
172	0xbcbefb60	-0.023313224
173	0xbd2a9e8e	-0.041655116
174	0xbba2db97	-0.004970025
175	0xbd32759f	-0.043569203
176	0xbca2d072	-0.019874785
177	0xbca4b0a5	-0.020103762
178	0xbce48e55	-0.0278999
179	0xbcc0ea51	-0.02354923
180	0x3c26fccd	0.010192108
181	0xbd066b18	-0.032816976
182	0x3b6c8570	0.0036090277
183	0xbd194ed6	-0.0374287
184	0x3c20be42	0.009810986
185	0x3c8ea03b	0.017410388
186	0xbb7b3684	-0.0038332054
187	0xbc962020	-0.018325865
188	0xba522fb1	-0.0008017971
189	0xbc698819	-0.01425364
190	0x3d01506c	0.031570837
191	0xbcaae3dd	-0.020860607
192	0xbcd1ec47	-0.025625361
193	0xbd0fd8a1	-0.035118703
194	0xbcd17255	-0.025567213
195	0xbd0a728f	-0.033800658
196	0x3a507547	0.0007952046
197	0x3c9747e1	0.018466892
198	0x3c94936e	0.018136706
199	0xbbe99ced	-0.0071293027
200	0xbce478aa	-0.027889568
201	0xbcfa1138	-0.030525789
202	0x3cde0b34	0.027104951
203	0xbc0346b5	-0.008012463
204	0x3c2bc88e	0.010484828
205	0xbca5b8e3	-0.020229762
206	0x3c8fc983	0.017552143
207	0xbc78391e	-0.015150337
208	0xbc8ba158	-0.017044708
209	0x3ac2102e	0.0014805847
210	0xbadc9aa9	-0.001683076
211	0xbd23ab88	-0.039958507
212	0xbb6bb933	-0.0035968542
213	0xbcc3dd90	-0.02390936
214	0xbd0f5990	-0.034997523
215	0xbbba15a9	-0.0056788516
216	0x3b2ca2b4	0.0026342096
217	0x3c6beed7	0.014400206
218	0x3ca15b37	0.019696815
219	0x3c6a739e	0.014309792
220	0x3c90abee	0.017660107
221	0xbd0cd4b0	-0.034382522
222	0x3cc55e53	0.024092829
223	0xbcd0f6f5	-0.025508383
224	0xbcfdea83	-0.030995613
225	0xbc28e0b8	-0.010307483
226	0x3c42243c	0.011849459
227	0xbd09f2c6	-0.033678792
228	0xbcf145a1	-0.029452147
229	0xbcd44760	-0.02591294
230	0xbd3effc2	-0.04663063
231	0xbc7a9a02	-0.015295507
232	0xbce3ba86	-0.027798902
233	0xbca2a392	-0.019853387
234	0xbc7bdabc	-0.015371975
235	0xbc9d24fd	-0.019182676
236	0x3c432cb5	0.011912514
237	0xbc3499c1	-0.011022986
238	0xbc226a1c	-0.009912994
239	0xbd032d43	-0.032025587
240	0xbcb5885c	-0.022159748
241	0xbcd00675	-0.025393704
242	0xbcc76555	-0.024340311
243	0x3acb65fd	0.0015518066
244	0xbce6d9e0	-0.028180063
245	0x3d14309a	0.036179163
246	0xbcfcfc7a	-0.030882109
247	0x3c30f2ef	0.010800107
248	0xbb5fa310	-0.0034124292
249	0xbd05e8df	-0.032692786
250	0xbcf14f36	-0.029456716
251	0xbd1367d2	-0.035987683
252	0xbcd769a6	-0.026295494
253	0x3ae9cd3a	0.0017837652
254	0xbd2aefe0	-0.04173267
255	0xbce17ad3	-0.027524387

backbone_net.visual_net.3.0.bias f4 [8]
0	0xbc402859	-0.01172837
1	0x3dec71dc	0.115451545
2	0x3d14d929	0.036339913
3	0x3e39d021	0.18145801
4	0x390a7647	0.00013204767
5	0x3d4bc0af	0.049744304
6	0x3bebc2a6	0.0071948348
7	0x3de5910b	0.112093054

merge_net.0.0.weight f4 [128, 128]
0	0xbc07eade	-0.008295743
1	0xbb88d9c2	-0.0041763494
2	0xbc745476	-0.014912715
3	0x3d8374e2	0.06418778
4	0xbd92a670	-0.07160652
5	0xbcb57f09	-0.022155302
6	0xbd82bc1f	-0.063835375
7	0xbd46249b	-0.048374753
8	0xbc65ac1a	-0.014018083
9	0xbcc1d584	-0.023661382
10	0x3d09a820	0.033607602
11	0x3cf9c614	0.030489959
12	0x3d0b917a	0.034074284
13	0x3d029e5c	0.031889305
14	0x3d12fd8b	0.03588633
15	0x3ce97fdf	0.028503357
16	0x3b2c213f	0.0026264933
17	0x3d829e59	0.06377859
18	0x3b19fabc	0.0023495397
19	0xbdacedc3	-0.08443787
20	0x3b4553d5	0.0030109782
21	0x3d2b48fc	0.04181765
22	0x3d32f8ea	0.043694414
23	0xbda6ce37	-0.08144801
24	0xbd8e4ed8	-0.06948632
25	0xbcab44df	-0.020906864
26	0xbd94212b	-0.07232889
27	0xbda29c01	-0.07939912
28	0x3d611d02	0.054959305
29	0xbcd062cd	-0.025437737
30	0xbd08b70f	-0.033377703
31	0xbd6653f0	-0.056232393
32	0xbd8afa65	-0.0678604
33	0xbd4a8995	-0.049447615
34	0xbd256a97	-0.040384855
35	0xbcb2c3d8	-0.021821901
36	0x3d58c3d7	0.052921142
37	0x3d04fc60	0.032467246
38	0x3d3527a1	0.044227246
39	0xbd77acd6	-0.060467564
40	0x3d230985	0.039804
41	0xbd4c46be	-0.049872153
42	0x3c531f32	0.0128858555
43	0x3d17731d	0.036975015
44	0x3cb989ac	0.022648655
45	0xbda1bf1d	-0.0789778
46	0xbdb43330	-0.08798826
47	0x3d465949	0.048424993
48	0x3d870c06	0.0659409
49	0xbd156ebe	-0.036482565
50	0x3d15294f	0.036416348
51	0xbd701cfa	-0.058621384
52	0x3d71ae46	0.05900409
53	0xbd8ca207	-0.06866842
54	0x3a95781f	0.0011403597
55	0xbce61e48	-0.028090611
56	0xbd9775ef	-0.07395541
57	0xbcab9d2e	-0.020948973
58	0x3d0a5dc8	0.033780843
59	0xbd792bf7	-0.060832944
60	0xbd5788c9	-0.052620683
61	0x3d41fbba	0.047359206
62	0xbc922f5c	-0.017844848
63	0xbd0ed315	-0.034869272
64	0xbcbf2748	-0.02333416
65	0x3d257a3a	0.040399767
66	0xbdac61f7	-0.08417123
67	0xbcfab5ca	-0.030604262
68	0xbd3bf8ac	-0.04589145
69	0xbd9f16fa	-0.07768054
70	0xbca0c98e	-0.019627359
71	0x3c5da451	0.013527946
72	0xbcb3e6e7	-0.021960689
73	0x3c9f41a8	0.019440487
74	0x3c6e12e3	0.01453087
75	0x3c4dbbde	0.012556998
76	0x3c23fe51	0.010009364
77	0xbd80677f	-0.0626974
78	0xbc3d01d9	-0.011536085
79	0xbd374cf9	-0.04475114
80	0x3ccb5979	0.024822937
81	0xbd298eea	-0.04139606
82	0x3bd89aff	0.006610274
83	0xbd4a405c	-0.049377784
84	0x3d0540d3	0.032532524
85	0xbd9e6609	-0.077343054
86	0x3d8121d7	0.063052826
87	0xbd06f8fd	-0.032952297
88	0xbd24f661	-0.040274028
89	0x3d908bd4	0.0705792
90	0xbc8e613b	-0.017380347
91	0xbd0d71c6	-0.03453233
92	0xbd9b75b4	-0.075908095
93	0xbd9c9916	-0.07646386
94	0xbd58ceca	-0.052931584
95	0xbbeffe8a	-0.0073240446
96	0xbd7672d7	-0.060168114
97	0xbc98b3d0	-0.018640429
98	0x3d822287	0.06354242
99	0x3cdc6c43	0.026907092
100	0xbcaa1ac0	-0.020764709
101	0x3be88e80	0.0070970654
102	0xbc6830bb	-0.0141717745
103	0xbd805c67	-0.06267624
104	0x3d0491c2	0.032365568
105	0x3d42d0ac	0.047562286
106	0x3c23f14c	0.01000626
107	0x3d9236d8	0.07139367
108	0xbc9cee4e	-0.019156601
109	0xbd54dc60	-0.05196798
110	0xbb1332d1	-0.002246071
111	0xbda7b75a	-0.081892684
112	0xbd5b4a40	-0.053537607
113	0xbc982e34	-0.018576719
114	0xbd307d0d	-0.043088008
115	0xbd29adf7	-0.04142567
116	0xbbd2af75	-0.0064296075
117	0xbb839ad6	-0.0040162606
118	0xbd7cc55e	-0.06171166
119	0xbd184f79	-0.037185166
120	0xbd14b101	-0.036301617
121	0x3d9ab70f	0.07554447
122	0xbc44e3ac	-0.012017172
123	0x3c580498	0.013184689
124	0xbc7482f0	-0.014923796
125	0xbd2e1488	-0.04250005
126	0xbd65221a	-0.055940725
127	0x3d600a39	0.05469725
128	0xbc2b12d2	-0.010441499
129	0xbcbff232	-0.023430917
130	0xbd919871	-0.07109154
131	0xbd45e346	-0.048312448
132	0x3d838484	0.0642176
133	0xbcfcb0cb	-0.03084602
134	0xbd42c7c0	-0.047553778
135	0x3d4d8f11	0.050185267
136	0x3d86ad12	0.06575979
137	0x3c341964	0.010992382
138	0x3c2ffb06	0.010741001
139	0xbba2576c	-0.004954269
140	0x3d9dfdcb	0.07714423
141	0xbd87d31a	-0.06632061
142	0x3d157329	0.03648678
143	0xbd860171	-0.06543244
144	0x3d586628	0.0528318
145	0xbc52c151	-0.012863473
146	0x3d406395	0.04696997
147	0xbd0ac125	-0.033875603
148	0x3db90b91	0.09035409
149	0xbd0d590d	-0.034508754
150	0x3d7fd135	0.062455375
151	0x3cb054bf	0.021524785
152	0xbd017659	-0.031607006
153	0xbd3f0709	-0.04663757
154	0x3cf84502	0.030306343
155	0xbd46a793	-0.048499655
156	0xb826ca41	-3.9765848e-05
157	0xbd88bacc	-0.06676254
158	0xbd795133	-0.060868453
159	0xbcdb18b7	-0.026745183
160	0xbd8cd9b5	-0.06877462
161	0x3c7da1fa	0.015480513
162	0x3c4f4d0d	0.012652648
163	0x3a035ff0	0.0005011549
164	0x3d4755d7	0.048665848
165	0x3d482694	0.048864916
166	0xbd1313db	-0.035907608
167	0xbd3742a8	-0.044741303
168	0x3dfc7acc	0.12328109
169	0x3d9b463b	0.07581755
170	0x3dc0b6f6	0.09409897
171	0xbd6b2047	-0.05740383
172	0xbe222eed	-0.15838213
173	0xbd6a3e9c	-0.057188615
174	0x3c93ee94	0.018058099
175	0xbd455988	-0.048181087
176	0x3cd1fcd6	0.025633257
177	0xbc56ac0d	-0.013102544
178	0x3c9919c5	0.018689046
179	0xbcfc0b59	-0.03076713
180	0xbc8ee227	-0.017441822
181	0xbc7b51c7	-0.015339321
182	0xbc133220	-0.008984119
183	0xbd88b1cd	-0.06674538
184	0x3d06774b	0.03282861
185	0x3e23c585	0.15993316
186	0xb802ce65	-3.1186635e-05
187	0x3c824d95	0.015906135
188	0x3d82f191	0.063937314
189	0x3c4a4d20	0.01234749
190	0xbde156f5	-0.11002914
191	0x3ce366ee	0.027759042
192	0xbd9eed6c	-0.077601284
193	0xbd406375	-0.04696985
194	0xbce74b97	-0.028234286
195	0xbc951d91	-0.018202575
196	0x3d22bc85	0.039730567
197	0xbdad2653	-0.084545754
198	0x3d264a48	0.040598184
199	0x3d882584	0.066477805
200	0x3dc4e430	0.09613836
201	0x3c8d101e	0.0172196
202	0xbde89ef7	-0.11358445
203	0x3dbbbef8	0.09167284
204	0x3d93b864	0.07212904
205	0xbdee5c3f	-0.11638688
206	0x3ddd39ee	0.10802065
207	0xbd284e76	-0.04109045
208	0xbd4fbd0e	-0.050717406
209	0x3d5e8c27	0.05433288
210	0x3d8e911a	0.0696127
211	0x3d2e0961	0.042489413
212	0x3e9573fc	0.29190052
213	0xbd32019b	-0.043458562
214	0x3c974761	0.018466653
215	0x3daab9c1	0.08336211
216	0xba284488	-0.00064189034
217	0xbc6add52	-0.014334993
218	0xbe218989	-0.15775122
219	0x3cb640dd	0.022247726
220	0xbb2b0e10	-0.0026100911
221	0xbe2f6032	-0.1712654
222	0xbd673b99	-0.05645332
223	0xbd9e25b2	-0.077220336
224	0x3d305d73	0.04305787
225	0x3d8bb1a1	0.068209894
226	0xbd9652f9	-0.073400445
227	0xbd66d337	-0.056353774
228	0xbc854a8f	-0.016270904
229	0xbd99cd9b	-0.07509919
230	0x3d539297	0.05165347
231	0xbd8a308e	-0.06747542
232	0x3d1cd058	0.03828463
233	0xbd68ac30	-0.056804836
234	0xbcb28154	-0.021790184
235	0x3d0ed386	0.034869693
236	0x3d2009f5	0.039071996
237	0x3beb6ac2	0.0071843574
238	0xbcc74d33	-0.024328804
239	0xbd69197a	-0.056909062
240	0xbcb8155a	-0.022471119
241	0x3cf30e1e	0.029669818
242	0x3d1c3619	0.03813753
243	0x3d8c4e6e	0.06850897
244	0x3e3f1211	0.18659236
245	0x3a72504f	0.00092435343
246	0x3c53fcc0	0.012938678
247	0x3dbe40e4	0.09289721
248	0xbd64ce00	-0.05586052
249	0xbe297d6f	-0.16551755
250	0xbd8fa314	-0.070135266
251	0x3d8b93c9	0.06815297
252	0xbe3c1a62	-0.18369439
253	0xbcb1b7ed	-0.021694148
254	0x3a3575bf	0.00069221476
255	0xbe176c58	-0.14787424

merge_net.0.0.bias f4 [128]
0	0x3ca05da4	0.019575901
1	0x3d68f743	0.056876432
2	0x3becce6f	0.0072267572
3	0x3cf182a8	0.029481247
4	0xbd78eb51	-0.06077129
5	0x3dc90307	0.098150305
6	0x3e798238	0.24366081
7	0x3ca5b481	0.020227673
8	0x3e691b14	0.22764236
9	0x3a070ecb	0.00051520456
10	0x3d044199	0.03228912
11	0xbdf9cf99	-0.12197799
12	0x3de2b073	0.11068811
13	0x3df74caa	0.120751694
14	0xbd0b4e84	-0.034010425
15	0xbd8591a0	-0.065219164
16	0xbd37f5ca	-0.044912137
17	0x3d4ecc5f	0.050487872
18	0x3cfdeaf4	0.030995823
19	0xbc9a4a01	-0.018834116
20	0x3cd70bbe	0.026250716
21	0x3d8e516e	0.06949125
22	0x3e43a9a5	0.19107683
23	0x3a550ce8	0.00081272284
24	0x3e21e05b	0.15808241
25	0x3cdfabec	0.027303658
26	0xbd900d4f	-0.070337884
27	0x3c16389e	0.009168772
28	0xbc097a9f	-0.008391052
29	0x3d28183c	0.041038737
30	0x3cf3e2db	0.029771259
31	0xbd3d448c	-0.04620795
32	0x3c3a9d52	0.011390047
33	0x3dc5641c	0.09638235
34	0x3d31ca2a	0.04340569
35	0x3c70694f	0.014673545
36	0x3e106f73	0.14105015
37	0xbc60af0a	-0.013713608
38	0x3e8bb8ec	0.27289522
39	0xbc7e57e2	-0.015523883
40	0xbd56e52d	-0.052464653
41	0x3c3c9953	0.011511165
42	0xbdae593d	-0.085131146
43	0xbd680f1f	-0.056655046
44	0xbd84dc02	-0.06487276
45	0xbdb68f10	-0.08914006
46	0xbadc5a58	-0.0016811593
47	0xbc884c32	-0.016637895
48	0xbdc43346	-0.09580092
49	0xbd19b080	-0.03752184
50	0xbe1e8ea2	-0.15484098
51	0x3c5e0dbf	0.013553082
52	0x3cda9765	0.026683519
53	0xbc33c48f	-0.010972156
54	0x3d1ef904	0.0388117
55	0x3d610943	0.054940473
56	0xbb68e680	-0.003553778
57	0x3e0489b9	0.12943162
58	0x3c666c38	0.014063887
59	0x3d90492e	0.07045208
60	0x3dff5767	0.124678425
61	0xbcd0247f	-0.025408028
62	0x3d9b11f1	0.075717814
63	0xbc11abce	-0.008891059
64	0x3d4be5c8	0.049779683
65	0xbd03d978	-0.032189816
66	0x3e7b3c83	0.24534802
67	0x3ce1423d	0.027497405
68	0x3c99cdb8	0.018774852
69	0x3cf4213e	0.029801007
70	0x3e35b803	0.17745976
71	0xbceb2f44	-0.028709061
72	0xbd03f518	-0.03221616
73	0xbcaec6d2	-0.02133504
74	0xbc645766	-0.013936853
75	0xba4a5d17	-0.000771956
76	0xbdaa86e4	-0.083265096
77	0x3d5e82ec	0.054324076
78	0x3e039d41	0.12852956
79	0xbd3882e1	-0.04504669
80	0x3d1d5ec9	0.038420472
81	0xbc30c5e8	-0.010789372
82	0x3d96f8d0	0.07371676
83	0xbdd9ef4d	-0.10641346
84	0xbd6b820c	-0.05749707
85	0xbd0273dd	-0.031848777
86	0x3d089140	0.033341646
87	0xbd142d75	-0.036176164
88	0xbd883805	-0.0665131
89	0x3d0bbdf3	0.034116697
90	0xbd69ba03	-0.05706216
91	0xbd356ca4	-0.04429306
92	0x3b672528	0.003526995
93	0xbdb7d7a5	-0.08976678
94	0x3df684ea	0.1203707
95	0x3e160e81	0.1465397
96	0x3dcae18d	0.09906302
97	0x3cccbbce	0.024991896
98	0x3b296c5a	0.0025851936
99	0x3e17f55b	0.1483969
100	0x3c74bd00	0.014937639
101	0x3d767813	0.060173105
102	0x3dcff17c	0.10153481
103	0x3d27c7d4	0.040962055
104	0x3c88ada7	0.016684366
105	0x3ac261d6	0.0014830183
106	0x3d8146ce	0.06312333
107	0x3df35e8e	0.11883269
108	0x3ba7a999	0.005116653
109	0x3cb7d97d	0.022442574
110	0x3e47cb82	0.19511226
111	0x3c02604a	0.007957527
112	0x3d0a425f	0.033754703
113	0x3e95443d	0.29153624
114	0xbd2f25c4	-0.042760625
115	0x3d398a18	0.045297712
116	0xbd196d0d	-0.037457515
117	0x3e456d4d	0.19279976
118	0xbcce8e30	-0.025214285
119	0x3e02937f	0.12751578
120	0x3cb6433a	0.022248853
121	0x3dfc0ca9	0.12307102
122	0xbbc352c8	-0.005960796
123	0xbc14620e	-0.009056581
124	0xbd5bd522	-0.053670056
125	0x3dbfac80	0.09359074
126	0xbda2c197	-0.079470806
127	0x3c0dde82	0.008659007

merge_net.1.0.weight f4 [4, 128]
0	0xbd333183	-0.04374839
1	0xbe02e49c	-0.1278252
2	0x3d9d994f	0.07695257
3	0xbea53d22	-0.32273203
4	0x3dc569e2	0.09639336
5	0x3c558e8c	0.013034474
6	0x3e0b31ce	0.13593218
7	0x3c223e6c	0.009902578
8	0x3debf578	0.11521429
9	0xbd81c6d8	-0.063367546
10	0x3c7f000e	0.015563978
11	0x3cf00c9b	0.029302886
12	0x3dc830cc	0.09774932
13	0x3d054676	0.0325379
14	0x3d87d2f1	0.06632031
15	0xbd89b100	-0.06723213
16	0xbd00a121	-0.031403664
17	0x3c30ff67	0.01080308
18	0xbd274f28	-0.040846974
19	0xbd8a3617	-0.06748598
20	0x3e3f94c1	0.18709089
21	0x3d3efb3f	0.046626326
22	0x3d396005	0.045257587
23	0xbeb2101e	-0.3477792
24	0x3d887ba2	0.06664206
25	0x3c5720d9	0.01313039
26	0x3bae939c	0.005327655
27	0x3d9d85ce	0.07691537
28	0xbe0c6098	-0.13708723
29	0x3d35fedf	0.044432517
30	0xbe66c4ad	-0.22535963
31	0x3d99e941	0.07515193
32	0x3d231927	0.03981891
33	0x3cfb8f41	0.030707957
34	0xbd318a61	-0.04334486
35	0xbd49b529	-0.049245033
36	0x3d8139e5	0.06309871
37	0x3b997e05	0.004684212
38	0x3e05b166	0.13055953
39	0xbe2d3d1a	-0.1691784
40	0xbdd4140c	-0.10355386
41	0xb8ab1e01	-8.159504e-05
42	0xbda2ef2f	-0.07955777
43	0xbbdd1c6b	-0.0067477725
44	0x3d72ddda	0.059293605
45	0x3d20632a	0.03915707
46	0xbc98f0b9	-0.018669473
47	0xbcc47775	-0.023982743
48	0xbcb2a38b	-0.021806499
49	0xbd91331a	-0.07089825
50	0xbd69177e	-0.05690717
51	0xbd5e4e48	-0.054273874
52	0xbd8572bf	-0.06516027
53	0xbdbd3b69	-0.09239847
54	0x3c4d8cb2	0.012545751
55	0xbc6460a3	-0.013939056
56	0x3c64c53b	0.013963039
57	0x3d7be470	0.06149715
58	0xbe3b4a95	-0.1829017
59	0xbdbfabe5	-0.09358958
60	0x3d8e13c1	0.069373615
61	0xbd23564c	-0.03987722
62	0xbe32a2e6	-0.17444953
63	0xbd8de1f6	-0.06927864
64	0x3b9946cd	0.0046776296
65	0x395d0984	0.00021079747
66	0x3de61fbb	0.11236521
67	0x3d30851b	0.04309569
68	0xbc616d16	-0.013758918
69	0x3d43a28e	0.047762446
70	0x3dd41ae8	0.103566945
71	0xbe6b37c1	-0.22970487
72	0x3d9278f3	0.071519755
73	0x3d6720b4	0.056427673
74	0x3d762b0c	0.060099646
75	0xbd9f877c	-0.077895135
76	0x3cdf469d	0.02725535
77	0x3d55ea5f	0.052225467
78	0x3db09a40	0.08623171
79	0xbdeef272	-0.116673365
80	0xbd4fcd91	-0.050733153
81	0xbdd974ff	-0.10618018
82	0x3d445766	0.047934912
83	0x3e3e8451	0.18605162
84	0x3d027694	0.031851366
85	0xbd800411	-0.062507756
86	0xbac84ff9	-0.0015282623
87	0xbdee9ed8	-0.11651391
88	0x3d927d8d	0.07152853
89	0xbc0695ac	-0.0082143955
90	0x3ceec893	0.029148376
91	0x3e09fe8c	0.13476008
92	0xbdb2f63b	-0.08738371
93	0x3bd793ba	0.0065788897
94	0x3dc4c657	0.09608143
95	0x3cbcf3ec	0.02306553
96	0xbcd1ca73	-0.02560923
97	0x3df87cef	0.12133204
98	0xbd96e4d3	-0.073678635
99	0x3d7b1974	0.06130357
100	0xbd28c359	-0.041201923
101	0x3d860177	0.06543248
102	0x3db05e37	0.0861172
103	0xbb3cecfe	-0.0028827782
104	0xbd94a2f5	-0.07257644
105	0x3d34ef2d	0.04417341
106	0x3c966262	0.01835746
107	0x3d16c1e0	0.036805987
108	0x3e1dcc4c	0.15409964
109	0x3d143a18	0.036188215
110	0x3dc39670	0.09550178
111	0x3e56b004	0.20965582
112	0x3c1972a2	0.0093657095
113	0x3e3db1e2	0.18524888
114	0xbd9defef	-0.07711779
115	0xbe18e3eb	-0.14930694
116	0xbcaf6106	-0.021408569
117	0x3d2a5351	0.041583363
118	0x3c36c029	0.011154213
119	0x3e084350	0.13306928
120	0x3d92e176	0.071719095
121	0xbe117552	-0.1420491
122	0xbe7efa22	-0.24900106
123	0xbd8c6a9a	-0.0685627
124	0xbe2abec4	-0.16674334
125	0x3de5ee9a	0.1122715
126	0x3cff2d07	0.0311494
127	0xbe37f735	-0.17965396
128	0xbd9e8d68	-0.07741815
129	0xbded9750	-0.11601126
130	0xbcd2de1c	-0.025740676
131	0xbe40e1be	-0.18836114
132	0xbe42d176	-0.19025216
133	0x3cb4056f	0.021975247
134	0x3d16b469	0.036793146
135	0xbd080ff5	-0.033218343
136	0xbd1720d3	-0.036896538
137	0xbdbdb566	-0.09263115
138	0x3c67807c	0.014129754
139	0xbb563d26	-0.0032690256
140	0x3d899c78	0.06719297
141	0x3e733c56	0.23753485
142	0x3d7fe417	0.062473383
143	0xbd5af99c	-0.053460702
144	0xbc5ab9ac	-0.013349932
145	0xbc3a0faa	-0.011356274
146	0xbd7af982	-0.061273105
147	0xbda0bb94	-0.07848278
148	0xbd8d6a28	-0.06905013
149	0xbda55745	-0.08073286
150	0xbd164704	-0.03668882
151	0xbdbbd2b6	-0.09171049
152	0x3d905f72	0.07049455
153	0x3af8262e	0.0018932277
154	0x3d502eb8	0.050825804
155	0x3ce3d4f1	0.0278115
156	0xbe30afe3	-0.17254595
157	0xbdaf7b3a	-0.085684255
158	0x3ccadc6c	0.024763308
159	0xbd7c708a	-0.061630763
160	0x3d1a4fbc	0.037673697
161	0x3e3d7b9e	0.18504187
162	0xbd951c8f	-0.07280838
163	0x3bba41c8	0.0056841113
164	0x3cac95c0	0.0210675
165	0xbd2ba7cf	-0.04190808
166	0xbcf4f28b	-0.02990081
167	0xbde98f50	-0.11404288
168	0xbbc3d0b1	-0.0059758057
169	0x3a9faaee	0.0012181678
170	0x3b63c345	0.003475384
171	0xbd7b1aeb	-0.061304968
172	0x3da7c175	0.08191196
173	0x3cb836c2	0.022487048
174	0x3c31208d	0.010810983
175	0xbdae74e0	-0.08518386
176	0x3c70ef59	0.014705502
177	0x3d3ca994	0.04606016
178	0x3c4cacee	0.0124924015
179	0xbdb989f4	-0.090595156
180	0x3d19e00b	0.03756718
181	0xbded89b7	-0.11598533
182	0x3d1f27f3	0.038856458
183	0x3c2165b2	0.009850906
184	0xbd9b3c24	-0.0757983
185	0xbb32f442	-0.0027306234
186	0xbe8541c2	-0.26026732
187	0xbdbb2e77	-0.09139722
188	0x3d6078bd	0.054802645
189	0x3edf4f9c	0.43615425
190	0xbe0ac521	-0.13551761
191	0x3e27fd08	0.16405118
192	0x3e80aafd	0.25130454
193	0x3c61b699	0.013776445
194	0xbc2aab82	-0.010416867
195	0x3e91767f	0.28410718
196	0xbceea45c	-0.029131107
197	0xbd811324	-0.06302479
198	0x3c2e7685	0.010648374
199	0x3d475796	0.048667513
200	0x3d257781	0.04039717
201	0x3d0f0d6d	0.034924913
202	0xbde668c0	-0.11250448
203	0xbdfcb88d	-0.12339888
204	0xbcaa4e15	-0.020789186
205	0xbd934c3c	-0.07192275
206	0xbd9b839e	-0.07593463
207	0x3c26b8de	0.010175912
208	0x3d7fdb98	0.06246528
209	0xbd2070ad	-0.039169956
210	0xbe0e55fb	-0.13899986
211	0x3dc867e3	0.0978544
212	0x3d934681	0.07191182
213	0xbd9ecadf	-0.07753538
214	0xbd9dfd39	-0.07714314
215	0xbcb1a71c	-0.02168613
216	0x3bac71b1	0.0052625765
217	0x3daa8478	0.08326048
218	0x3b4e5a82	0.0031487052
219	0x3d27fe5a	0.041014053
220	0xbd8dd4e4	-0.06925371
221	0x3d212b21	0.03934777
222	0xbc85d6bd	-0.016337747
223	0xbd613676	-0.05498358
224	0xbe0020d3	-0.12512521
225	0xbd28ae0f	-0.04118162
226	0xbc72ab86	-0.014811402
227	0xbd691afc	-0.0569105
228	0xbe3b8e16	-0.1831592
229	0x3daad376	0.08341114
230	0xbd9a7fc2	-0.07543899
231	0xbd6b2108	-0.057404548
232	0xbdbcf6d8	-0.09226769
233	0xbd286292	-0.04110963
234	0xbc37443c	-0.011185702
235	0x3e86b176	0.26307267
236	0x3d1f9b8c	0.0389667
237	0x3ce496b6	0.027903896
238	0x3e0ad627	0.13558255
239	0xbde12485	-0.10993294
240	0xbcc84b47	-0.024449958
241	0xbc10eba1	-0.008845241
242	0x3bb3aeed	0.0054834993
243	0x3c92b546	0.017908704
244	0xbd4e0faf	-0.050307926
245	0xbd36ed30	-0.044659793
246	0xbb9380b4	-0.0045014266
247	0xbd7ca8c3	-0.06168438
248	0xbe34b8ab	-0.1764857
249	0xbdc952a4	-0.098302156
250	0xbd686fea	-0.056747355
251	0xbbf31d3c	-0.0074192565
252	0xbcba237b	-0.022721997
253	0x3db1e641	0.086864956
254	0xbb9656a1	-0.0045879637
255	0xbe13b928	-0.144261

merge_net.1.0.bias f4 [4]
0	0x3e93b405	0.28848282
1	0x3d2fd778	0.042930096
2	0xbe207653	-0.15670137
3	0xbd7ea5e2	-0.062169917
