rl_weights.pth (torch, 183659 bytes, 12 tensors)

backbone_net.visual_net.0.0.weight f4 [16, 1, 3, 3]
0	0x3dd50d7a	0.10402961
1	0x3e5ab0f3	0.21356563
2	0xbe083b28	-0.13303816
3	0xbe9223f2	-0.2854305
4	0xbbfbdb42	-0.0076860497
5	0xbe407dcd	-0.18797989
6	0xbe564141	-0.2092333
7	0x3e84799a	0.25874025
8	0x3eb151f9	0.34632853
9	0xbe7774a7	-0.24165593
10	0x3de005e9	0.10938627
11	0x3e8b6288	0.2722361
12	0xbea8c1d2	-0.32960373
13	0xbe2ec99b	-0.17069094
14	0x3eff8837	0.4990861
15	0x3e0510c6	0.1299468
16	0x3ebb0042	0.36523634
17	0x3e2bf45f	0.16792439
18	0xbe51ba45	-0.20481212
19	0xbe3da8c5	-0.18521412
20	0x3dfedc50	0.12444365
21	0xbe69ac9e	-0.22819754
22	0x3e59e982	0.21280482
23	0xbe8d2bb3	-0.27572402
24	0xbe329c0d	-0.17442341
25	0x3e98088d	0.29694024
26	0xbd403d23	-0.046933305
27	0xbe477af6	-0.194805
28	0x3db48a33	0.08815422
29	0xbcc26fa1	-0.02373487
30	0xbe7628c1	-0.24038984
31	0x3e2e5fc2	0.17028716
32	0xbdc9d743	-0.09855511
33	0x3d507d70	0.050900877
34	0xbe5c44af	-0.21510576
35	0xbdc77d96	-0.097407505
36	0xbeb3428a	-0.35011703
37	0x3d33ca4b	0.043894093
38	0x3ec36ea8	0.38170362
39	0x3e6102ed	0.21973772
40	0x3e563a2b	0.20920627
41	0xbebad151	-0.3648782
42	0xbd81ef83	-0.06344511
43	0xbd8a4e05	-0.06753162
44	0xbdee9fc0	-0.11651564
45	0xbe064c5d	-0.13115068
46	0xbdd9792f	-0.10618817
47	0xbe00cc56	-0.12577948
48	0x3d292fda	0.0413054
49	0xbe14c806	-0.14529428
50	0xbdc1d8c0	-0.0946517
51	0xbc21a9f5	-0.009867181
52	0xbe060ab8	-0.13090026
53	0xb9d559c5	-0.0004069341
54	0xbe1c3d85	-0.15257843
55	0xbe2b5a0d	-0.1673357
56	0xbe854505	-0.2602922
57	0x3d429679	0.047506783
58	0xbd5a4bbc	-0.053294882
59	0x3e29f1a8	0.16596091
60	0xbe89105b	-0.2677029
61	0xbe532d84	-0.20622832
62	0x3df0b593	0.117533825
63	0xbea12da6	-0.3148014
64	0x3be8f985	0.007109823
65	0xbd4affb0	-0.04956025
66	0xbdb70164	-0.08935812
67	0x3ed2db26	0.41182822
68	0x3ebe978b	0.37224993
69	0xbb0de1f9	-0.0021649583
70	0xbe919f59	-0.28441885
71	0xbcc58489	-0.02411105
72	0xbde600d6	-0.11230628
73	0x3c5b4bad	0.013384742
74	0xbe8982a5	-0.26857486
75	0xbe91b403	-0.2845765
76	0xbe4d79c2	-0.20065978
77	0x3e99bcb0	0.3002677
78	0x3e9a899a	0.30183107
79	0xbe870490	-0.26370668
80	0x3ed29c94	0.41135085
81	0xbe420857	-0.18948494
82	0xbe5eb70d	-0.21749516
83	0x3e6301b3	0.22168617
84	0xbe69e0a8	-0.22839606
85	0x3d07892f	0.033089813
86	0x3e8a8c3c	0.27060115
87	0xbd97a1b8	-0.07403892
88	0x3db4d9df	0.08830618
89	0xbe859a9c	-0.2609452
90	0x3d3ce186	0.046113513
91	0x3e0de1ef	0.13855718
92	0xbca3de99	-0.020003604
93	0x3c822d80	0.015890837
94	0xbea18a82	-0.31550986
95	0xbe95fe04	-0.2929536
96	0x3ebc584b	0.36786112
97	0xbe444170	-0.19165587
98	0x3d63c50d	0.055607844
99	0x3c856b55	0.016286531
100	0xbd1dc16a	-0.038514532
101	0xbe6773fd	-0.2260284
102	0x3e88cb58	0.2671764
103	0x3e4a74f4	0.19771177
104	0xbe11e4c7	-0.14247428
105	0xbebed1d2	-0.37269455
106	0x3e9cf59d	0.30656138
107	0xbe52cc3e	-0.20585725
108	0x3d86021c	0.06543371
109	0xbf11abbe	-0.5690268
110	0x3ddbcf74	0.10732928
111	0x3ee93b4f	0.4555306
112	0xbd8b27f7	-0.06794732
113	0xbe8f2993	-0.27961406
114	0x3e1718f4	0.14755613
115	0x3e373445	0.17891033
116	0xbd5ed674	-0.054403737
117	0xbda8744f	-0.08225309
118	0xbe342c1a	-0.17594948
119	0xbe0920b4	-0.13391382
120	0x3e8b4917	0.272042
121	0xbe43f153	-0.19135027
122	0x3e6903e1	0.22755386
123	0xbebe76d8	-0.37200046
124	0x3e9f3c60	0.3110075
125	0x3ee342e1	0.44386962
126	0x3e9bc23d	0.3042163
127	0x3e9c5896	0.30536336
128	0xbd8d2a12	-0.0689279
129	0x3ea665e7	0.3249962
130	0x3e76b4e1	0.24092437
131	0x3e08f086	0.13373002
132	0x3de98c21	0.114036806
133	0x3e82150f	0.2540669
134	0x3e965dcb	0.29368433
135	0x3e3d08a3	0.18460326
136	0xbd9cd408	-0.07657629
137	0x3d8add6d	0.06780515
138	0x3eae26b8	0.34013915
139	0x3e50eac9	0.20402063
140	0x3ea77d51	0.32712796
141	0x3ebf35fd	0.37345877
142	0x3e6dce76	0.2322329
143	0xbe7c9dd7	-0.24669586

backbone_net.visual_net.0.0.bias f4 [16]
0	0xbb235fac	-0.002492885
1	0xbe41a779	-0.18911542
2	0xbe6bee8a	-0.23040214
3	0xbe5b8e43	-0.21440987
4	0xbe00ddbe	-0.12584588
5	0xbc012eff	-0.00788474
6	0xbe90467b	-0.28178772
7	0x3c129acd	0.00894804
8	0xbe1cf44a	-0.15327564
9	0xbe8d3d54	-0.27585852
10	0xbe9cc7c7	-0.30621168
11	0xbe543143	-0.20721917
12	0xbe1d85fe	-0.15383145
13	0xbdc6bc8f	-0.097039334
14	0x3e1ae020	0.1512456
15	0x3d8f2ebc	0.06991336

backbone_net.visual_net.1.0.weight f4 [32, 16, 3, 3]
0	0xbe4823a2	-0.19544843
1	0x3d804a33	0.062641524
2	0x3b745aa8	0.003728548
3	0xbda32e62	-0.07967831
4	0x3da43eb6	0.08019774
5	0xbd4c932f	-0.049945053
6	0xbc798fa0	-0.015231997
7	0x3ca28b6e	0.019841876
8	0x3caa7e52	0.020812187
9	0x3c72128d	0.014774931
10	0x3e20bbb7	0.15696608
11	0xbd979c2c	-0.07402834
12	0xbc40e767	-0.011773921
13	0x3dfa8590	0.12232506
14	0xbc44932b	-0.011997978
15	0xbcd4b5b1	-0.025965543
16	0x3e1e2a0d	0.15445729
17	0xbda590cc	-0.080842584
18	0xbd2073c9	-0.03917292
19	0x3d2ef026	0.042709492
20	0x3d420cc4	0.047375455
21	0xbd212e57	-0.039350834
22	0x3cb150ad	0.021644915
23	0xbd61017e	-0.054933064
24	0xbda39c2b	-0.07988771
25	0x3d36dd0d	0.044644404
26	0x3d3aa98a	0.04557184
27	0x3cf529b2	0.029927108
28	0xbd8874c7	-0.066628985
29	0x3d8d9d32	0.06914748
30	0xbc22376f	-0.009900912
31	0x3b1f7a98	0.0024334546
32	0x3b81fff1	0.003967278
33	0xbd942534	-0.072336584
34	0x3d43e4c8	0.047825605
35	0xbd83f5d1	-0.0644337
36	0xbdd72b29	-0.10506279
37	0xbd75f4bb	-0.060047846
38	0xbba7e344	-0.0051235277
39	0xbe86d0db	-0.2633122
40	0x3dceebfd	0.10103605
41	0x3d4e0425	0.05029692
42	0x3c98ae13	0.018637693
43	0x3df1ddb2	0.11809863
44	0xbda1efd9	-0.079070754
45	0x3cd6f5c9	0.026240246
46	0xbc3e9ed9	-0.011634552
47	0xbd85c6a1	-0.06532026
48	0x3cf75143	0.030190116
49	0x3cf18894	0.02948407
50	0x3c2b29aa	0.010446945
51	0x3cf9cc21	0.030492844
52	0xbb386f37	-0.002814246
53	0x3d49ddb0	0.049283683
54	0xbd99cd43	-0.07509854
55	0xbd82c3d6	-0.06385009
56	0x3d4eca91	0.05048615
57	0xbd287f4d	-0.04113703
58	0xbc51b531	-0.012799547
59	0x3d54deaa	0.05197016
60	0xbcc5b388	-0.024133459
61	0x3d452d26	0.04813876
62	0xbb448476	-0.002998618
63	0xbdd77ae2	-0.10521485
64	0x3e0db23c	0.13837522
65	0xbca2756b	-0.01983138
66	0xbdddea14	-0.108356625
67	0x3df6b1cd	0.120456316
68	0xbcd84878	-0.026401743
69	0xbd4b84db	-0.049687248
70	0x3e37a5a9	0.17934288
71	0xbb502fef	-0.0031766852
72	0xbe2275ba	-0.15865222
73	0x3e2a20ed	0.16614123
74	0x3d367b74	0.044551328
75	0xbbda44d4	-0.006661037
76	0x3e365ea3	0.17809539
77	0x3cf21a66	0.029553603
78	0xbd94783c	-0.072494954
79	0x3dad4e5f	0.08462214
80	0xbd13f55d	-0.03612267
81	0x3c1927f2	0.009347903
82	0xbd729b4a	-0.059230126
83	0x3b04bdd0	0.0020254739
84	0x3d57f46d	0.052723337
85	0x3d54b3ea	0.051929392
86	0x3d2410ba	0.040055014
87	0x3cf86a70	0.03032419
88	0x3d26f667	0.04076233
89	0xbd7af1fd	-0.061265934
90	0xbd0b0992	-0.033944674
91	0xbdc72d75	-0.09725467
92	0x3dba9a8a	0.09111507
93	0x3cb3a976	0.021931391
94	0xbbb4f482	-0.0055223117
95	0x3d3d7c6a	0.04626123
96	0xbd83001d	-0.06396506
97	0x3d8214db	0.06351634
98	0x3d1706a8	0.036871582
99	0xbe672fb3	-0.2257679
100	0x3d2fa3ba	0.04288075
101	0x3ddb7797	0.10716169
102	0x3c511b8a	0.0127629135
103	0x3d8d878b	0.069106184
104	0x3e5e9ee2	0.21740296
105	0xbe5fa10b	-0.21838777
106	0x3d6ffb76	0.05858942
107	0x3e62f929	0.2216536
108	0xbebd4737	-0.36968395
109	0xbb5a5cc7	-0.003331946
110	0x3dd1cbe9	0.10243971
111	0xbe729f34	-0.23693544
112	0xbd88f50d	-0.06687365
113	0x3df90257	0.121586494
114	0xbe231604	-0.15926367
115	0xbd2d6125	-0.042328972
116	0x3e599818	0.21249425
117	0xbe5dbbb9	-0.21653642
118	0xbc82911d	-0.015938336
119	0xbe01a8e9	-0.1266209
120	0xbd9f7a1f	-0.077869646
121	0x3dc6692c	0.09688029
122	0xbe6767e1	-0.2259822
123	0x3af9f43e	0.0019069982
124	0x3de60c71	0.11232842
125	0xbd193df1	-0.037412588
126	0xbed29776	-0.4113118
127	0x3db5d70a	0.08878906
128	0x3ce85f56	0.028365772
129	0xbd6d9be1	-0.058009986
130	0xbd05a826	-0.032631062
131	0xbd29f232	-0.04149074
132	0xbcd34523	-0.025789803
133	0x3cced6da	0.025248934
134	0xbd133ada	-0.035944797
135	0xbe7716a8	-0.24129736
136	0x3e126a1b	0.14298289
137	0xbde039e3	-0.10948541
138	0xbcd140ab	-0.025543531
139	0xb95a1498	-0.00020797772
140	0x3d61a4f0	0.055088937
141	0xbe2c0a96	-0.16800913
142	0xbe35d2aa	-0.17756143
143	0xbd3f5439	-0.04671118
144	0x3d804ecb	0.062650286
145	0x3dbc6210	0.091983914
146	0xbd765205	-0.060136814
147	0x3d6ac812	0.05731971
148	0x3dc5dab4	0.09660855
149	0x3c71fee9	0.014770248
150	0x3cd68805	0.026187906
151	0xbc35314f	-0.011059119
152	0x3d66a684	0.056311145
153	0xbc90a260	-0.017655551
154	0xbca3e126	-0.02000482
155	0xbd00c0d4	-0.031433895
156	0xbd29495e	-0.041329734
157	0xbd832ac6	-0.06404643
158	0xbd28b746	-0.04119041
159	0x3dac5d5c	0.084162444
160	0xbde4054a	-0.11133821
161	0xbe3cf53c	-0.18452924
162	0x3d237e36	0.039915286
163	0xbde8d1cc	-0.113681406
164	0xbd4901bc	-0.04907392
165	0x3d7ee6f6	0.06223198
166	0xbc2460e3	-0.010032865
167	0xbdc14824	-0.09437588
168	0x3cd2dc51	0.02573982
169	0xbc99e5f8	-0.018786415
170	0x3d678081	0.056519035
171	0xbc613f78	-0.013748042
172	0xbddf65cb	-0.10908087
173	0xbd749203	-0.05970956
174	0x3c085d7a	0.008323068
175	0xbdf053b5	-0.11734716
176	0x3ce33b97	0.027738376
177	0xbd4a0a38	-0.04932615
178	0x3bddfbc7	0.006774399
179	0x3d659e09	0.056058917
180	0x3d245315	0.040118296
181	0x3b18e43b	0.0023329395
182	0xbcd744d8	-0.026277944
183	0x3d9451a7	0.072421364
184	0x3cd1974a	0.025584836
185	0x3dfe6b67	0.12422829
186	0x3d9ed4ec	0.077554554
187	0x3de740a8	0.11291629
188	0x3e4b7445	0.19868572
189	0xbd01d2f9	-0.03169534
190	0xbcd32222	-0.025773112
191	0xbd248ef7	-0.040175404
192	0xbdd2a0bd	-0.10284565
193	0xbdc4e1cf	-0.09613382
194	0x3ce0bb74	0.027433135
195	0xbdda01d2	-0.106448784
196	0xbdc3c816	-0.09559648
197	0x3bf5c81a	0.0075006606
198	0xbcc6d2e7	-0.024270488
199	0x3d5d7441	0.054065946
200	0xbdbf2cc5	-0.09334711
201	0xbda80280	-0.08203602
202	0xbd56fa02	-0.05248452
203	0xbd9ff432	-0.078102484
204	0x3b6dbfd7	0.0036277676
205	0x3d7155e7	0.058919813
206	0x3d545e80	0.051847935
207	0x3cae7f39	0.021300899
208	0x3c051327	0.008122242
209	0x3d916a1e	0.07100318
210	0x3e574005	0.21020515
211	0x3e055270	0.13019729
212	0x3d45bbe6	0.048274897
213	0x3d600402	0.054691322
214	0xbb44b3e4	-0.003001445
215	0x3e1413f1	0.14460732
216	0x3da76a6e	0.08174597
217	0xbb468114	-0.003028934
218	0xbcc17e97	-0.023619933
219	0xbd20d9a5	-0.039270062
220	0x3d8817d6	0.06645171
221	0x3e53542f	0.20637582
222	0xbc87b9e1	-0.016568126
223	0x3c8a7613	0.016902005
224	0x3c2b71f5	0.010464181
225	0x3d977630	0.07395589
226	0xbada0bb6	-0.001663557
227	0xbdd70e66	-0.10500793
228	0x3d4a1c08	0.04934314
229	0x3d24b541	0.04021192
230	0xbd039579	-0.03212497
231	0xbc616fef	-0.013759597
232	0xbd0f41c3	-0.034974825
233	0xbcecca90	-0.028905183
234	0xbd8d4634	-0.06898156
235	0x3d306044	0.043060556
236	0xbcc63317	-0.024194283
237	0x3d28306e	0.04106181
238	0xbc6e4b74	-0.014544357
239	0xbcba752d	-0.022760952
240	0x3e127806	0.14303598
241	0xbb8b9427	-0.0042596045
242	0x3cfe961a	0.031077433
243	0x3d4e6148	0.050385743
244	0x3d2f1064	0.04274024
245	0xbdb4ec09	-0.08834083
246	0xbd6b97a9	-0.05751768
247	0x3bf1d145	0.007379683
248	0x3d56d522	0.052449353
249	0xbd56f5c7	-0.052480485
250	0x3da5a5ab	0.08088239
251	0xbd600f1b	-0.054701906
252	0x3dd54422	0.10413386
253	0x3dfb47b5	0.122695364
254	0x3cc9c068	0.02462788
255	0xbe0c95f6	-0.1372908

backbone_net.visual_net.1.0.bias f4 [32]
0	0x3d64fda4	0.055905953
1	0xbd070a90	-0.032969058
2	0xbd3e9357	-0.046527233
3	0xbd3e0442	-0.04639078
4	0xbdccb1bb	-0.09994837
5	0xbe0506db	-0.12990896
6	0xbd9fde8b	-0.078061186
7	0xbb723432	-0.003695738
8	0xbbc0e6a4	-0.0058868695
9	0x3d9791be	0.07400845
10	0x3cc3251a	0.023821402
11	0xbda89d6a	-0.08233149
12	0x3d241968	0.04006329
13	0xbcac01a0	-0.020996869
14	0xbd117674	-0.035513356
15	0xbd1cf119	-0.038315866
16	0xbd8700f9	-0.065919824
17	0xbd1aeaa9	-0.037821446
18	0xbd91b1b3	-0.071139716
19	0x3c1f81bd	0.009735522
20	0x3d34934c	0.044085786
21	0xbd3ac86e	-0.0456013
22	0x3d6a7fb7	0.057250705
23	0xbdb00023	-0.08593776
24	0xbd63a7f1	-0.055580083
25	0xb9a178ac	-0.0003079822
26	0x3ce0de71	0.027449818
27	0x3cf0f217	0.029412312
28	0xbdd6509e	-0.10464595
29	0xbdaf3d3c	-0.085566014
30	0xbbe4882e	-0.0069742417
31	0xbdad5e25	-0.08465222

backbone_net.visual_net.2.0.weight f4 [64, 32, 3, 3]
0	0x3d023741	0.031790975
1	0xbb906106	-0.0044060973
2	0x3c1a74a4	0.009427223
3	0xbd538f60	-0.051650405
4	0xbb893627	-0.0041873637
5	0xbcc3def5	-0.023910025
6	0xbc550f5c	-0.01300415
7	0x3bbca2ae	0.0057566976
8	0x3d08dfea	0.033416666
9	0x3d01a4ce	0.03165131
10	0xbd144282	-0.03619624
11	0xbd4b1101	-0.049576763
12	0xbac8c92d	-0.0015318744
13	0xbd73d12b	-0.05952565
14	0xbce0bdc3	-0.027434235
15	0xbe0fcc77	-0.14042841
16	0xbd45dff8	-0.048309296
17	0xbdb4df7f	-0.08831691
18	0x3bea4d3b	0.00715032
19	0xbcdef147	-0.02721466
20	0xbdbf8a89	-0.09352595
21	0xbda3f92d	-0.08006511
22	0x3bfb86c5	0.007675978
23	0xbd486f28	-0.04893413
24	0xbd579020	-0.052627683
25	0x3d2e2a58	0.04252085
26	0x3cdfbee4	0.027312703
27	0xbd27c249	-0.04095677
28	0xbdf19f9a	-0.1179802
29	0xbe1b1204	-0.15143591
30	0xbdd29e0d	-0.10284052
31	0xbddc9003	-0.107696556
32	0xbe41827b	-0.1889743
33	0xbc3f7764	-0.01168618
34	0xbddb2785	-0.10700897
35	0xbdccb648	-0.09995705
36	0x3d6f6bbb	0.05845235
37	0x3cd302e8	0.025758222
38	0xbd63c402	-0.05560685
39	0x3d83b070	0.06430137
40	0xbc54e7aa	-0.012994686
41	0xbd5465a0	-0.05185473
42	0x3cc6fd92	0.024290834
43	0x3d8d3180	0.06894207
44	0xbdb25321	-0.08707262
45	0x3da8b0aa	0.08236821
46	0x3cf3c308	0.029756084
47	0xbdd0dc2e	-0.10198246
48	0xbd26b59c	-0.04070054
49	0xbd102dea	-0.035200037
50	0xbe0c00bd	-0.13672157
51	0xbd81b174	-0.063326746
52	0xbc59723b	-0.013271864
53	0xbe42e89a	-0.19034043
54	0x3d49cf1a	0.049269773
55	0x3c954dc5	0.01822556
56	0xbdb48be2	-0.08815743
57	0xbd9a3d47	-0.07531219
58	0x3deb7c16	0.11498277
59	0xbe09eeb5	-0.13469966
60	0xbc793afe	-0.015211819
61	0xbd3d1f53	-0.04617245
62	0x3cc8bf25	0.024505207
63	0xbdfa66fd	-0.12226675
64	0x3cf1ace2	0.029501382
65	0xbbb3712a	-0.0054761367
66	0xbdf0ec0d	-0.11763773
67	0x3da267e6	0.07929973
68	0x3b9e86d2	0.004837849
69	0xbe6a3021	-0.22869922
70	0xbe0a279a	-0.1349167
71	0x3e68fe06	0.22753152
72	0xbe85de58	-0.26146197
73	0x3d437b32	0.04772491
74	0xbd3ac0ee	-0.04559415
75	0xbde09571	-0.10966004
76	0x3d2b020c	0.04175
77	0xbdfd7454	-0.123757035
78	0x3c200844	0.009767596
79	0xbc30f4f9	-0.0108005935
80	0xbdb2ec39	-0.08736462
81	0x3d8192ac	0.063268036
82	0x3d020931	0.031747047
83	0x3d76459a	0.06012497
84	0x3cde1456	0.027109306
85	0x3d458930	0.048226535
86	0x3d2a7ad8	0.04162106
87	0x3c86cd76	0.016455393
88	0x3ceb8f42	0.028754834
89	0x3c6c95ec	0.014440041
90	0xba8839d1	-0.0010393207
91	0x3d6ff4ad	0.05858295
92	0x3d438ccf	0.047741707
93	0xbc480c2c	-0.012209933
94	0x3ce1d92f	0.027569382
95	0x3d6aeba9	0.05735365
96	0x3d6a5ca3	0.05721725
97	0x3c205a89	0.00978721
98	0x3d447c06	0.04796984
99	0x3d8ccb29	0.06874687
100	0x3d17f43b	0.03709815
101	0xbd26f561	-0.040761355
102	0x3c70603c	0.014671382
103	0x3da50e6e	0.08059393
104	0xbd99573b	-0.07487341
105	0xbdf531fe	-0.11972426
106	0xbbdc11ae	-0.006715975
107	0xbe063f75	-0.13110144
108	0xbc04c2b6	-0.008103063
109	0x3b344d8a	0.0027512037
110	0xbc5ea8d7	-0.013590059
111	0xbd405196	-0.046952806
112	0x3c1f351b	0.009717251
113	0xbcfeb2f3	-0.031091189
114	0x3c997e41	0.01873696
115	0xbd389835	-0.04506703
116	0x3d71faf7	0.05907723
117	0x3cbf319c	0.023339085
118	0x3d89e53a	0.067331746
119	0xbd91d09d	-0.07119868
120	0xbd58a040	-0.0528872
121	0xbd31b3a1	-0.043384198
122	0x3d87b3ea	0.06626113
123	0xbd388f57	-0.045058575
124	0x3cd8a00b	0.026443502
125	0x3a49c121	0.000769632
126	0x3bbbddd4	0.005733231
127	0x3d59fa06	0.053216957
128	0xbd5c3776	-0.05376383
129	0xbe0432ad	-0.12909956
130	0x3b75c0f2	0.0037499038
131	0x3d7cdeb8	0.06173584
132	0xbccd41db	-0.025055816
133	0xbd02f33f	-0.03197026
134	0x3b7a4002	0.0038185124
135	0x3de9c595	0.11414639
136	0x3bedc232	0.007255816
137	0xbda34bbc	-0.079734296
138	0xbcfddaa5	-0.030988047
139	0x3c020ee7	0.007938123
140	0xbe059fea	-0.13049284
141	0xbe458ba7	-0.19291554
142	0x3d437fff	0.04772949
143	0x3cb3692b	0.021900734
144	0x3cad063b	0.021121135
145	0xbd2780d8	-0.04089436
146	0xbac383e7	-0.0014916629
147	0xbc7320d6	-0.014839372
148	0x3da87aea	0.08226569
149	0x3da08b48	0.07839066
150	0xbdcd4e26	-0.10024671
151	0xbc02ee44	-0.007991377
152	0x3d84ac4d	0.06478176
153	0x3d5430ca	0.05180434
154	0xbce9d9ec	-0.028546296
155	0xbd450b6c	-0.048106596
156	0xbce78a73	-0.02826426
157	0xbb03798f	-0.0020061468
158	0x3c5da997	0.013529203
159	0xbc900d94	-0.0175846
160	0x3c98e4ce	0.01866379
161	0xbc045031	-0.00807576
162	0xbd892791	-0.06697
163	0x3d0203bc	0.031741843
164	0x3c71f835	0.01476865
165	0x3cad32e9	0.02114244
166	0xbd5b3bf5	-0.053523976
167	0x3c49267a	0.01227724
168	0xbd7b1f23	-0.06130899
169	0x3d154721	0.036444787
170	0x3c8ba306	0.01704551
171	0xbd2da4dd	-0.042393554
172	0x3d57d1cf	0.052690323
173	0x3da97a88	0.08275324
174	0xbc8bf66f	-0.017085282
175	0xbd4276cd	-0.04747658
176	0xbca5fd1d	-0.020262295
177	0xbd51dc3e	-0.05123543
178	0x3ad8b78c	0.0016534193
179	0x3a6843ef	0.00088602206
180	0x3d3acffe	0.045608513
181	0xbc6bbd2e	-0.014388366
182	0xbd02824c	-0.031862542
183	0xbdf336e1	-0.11875702
184	0xbaab5059	-0.001307021
185	0xbe045d1d	-0.12926145
186	0xbda89639	-0.08231778
187	0xbce7a2cf	-0.028275875
188	0xbe6fd324	-0.23420388
189	0x3c4ab76e	0.012372835
190	0x3ce18f1c	0.02753406
191	0x3dc0875a	0.09400816
192	0xbb294bd9	-0.0025832562
193	0x3d0cb7da	0.034355022
194	0xbc3de00c	-0.0115890615
195	0xbe10b87a	-0.14132872
196	0xbdbbf031	-0.09176672
197	0xbd33823a	-0.043825366
198	0x3d4b4d0e	0.049634032
199	0x3d18eea8	0.037336975
200	0xbc5f341b	-0.013623263
201	0xbdf8f6d7	-0.12156456
202	0xbe070740	-0.1318636
203	0x3d1e37a6	0.03862729
204	0x3db47e68	0.088131726
205	0xbe752c0b	-0.23942582
206	0xbdb76e0f	-0.08956539
207	0x3cd467e2	0.025928441
208	0xbc8f01d3	-0.017456925
209	0x3d82187f	0.063523285
210	0x3d00b5d6	0.031423412
211	0x3dc1305b	0.09433051
212	0xbdbacfb7	-0.0912165
213	0xbe1984df	-0.14992093
214	0x3e3974a8	0.18110907
215	0xbdc0ed83	-0.09420302
216	0x3d5c7750	0.053824723
217	0xbdbe91ed	-0.09305177
218	0xbe471aee	-0.19443867
219	0xbcbcc6c3	-0.023043996
220	0xbb76dd15	-0.0037668396
221	0xbcb464f1	-0.022020789
222	0xbe367359	-0.17817439
223	0xbe057e48	-0.13036454
224	0x3e506a3b	0.20353024
225	0x3d0dcdb3	0.03462
226	0xbdb0542f	-0.08609807
227	0x3b1c3570	0.0023835562
228	0xbc7a465f	-0.015275567
229	0x3ce42e59	0.027854132
230	0xbd59f09a	-0.05320797
231	0xbdd4ffc0	-0.10400343
232	0xbcc04560	-0.02347058
233	0xbd77d24e	-0.060503297
234	0xbd8015bf	-0.06254148
235	0xbce89e77	-0.028395874
236	0xbcac9d93	-0.021071231
237	0xbcfb3691	-0.030665668
238	0xbcb21f6c	-0.021743499
239	0xbd5c8465	-0.0538372
240	0x3cb268ca	0.021778483
241	0xbd3c2515	-0.0459338
242	0x3cd0874d	0.025455141
243	0x3e07ac5b	0.13249342
244	0x3d1357fd	0.035972584
245	0xbd8dfb29	-0.069326706
246	0x3d8c9525	0.068643846
247	0xbabac08c	-0.0014248057
248	0xbd949097	-0.07254141
249	0xbdde16a0	-0.10844159
250	0xbd17618d	-0.036958266
251	0xbd9db186	-0.076998755
252	0x3dad8526	0.08472662
253	0x3bc4d1dc	0.0060064625
254	0xbde52491	-0.11188615
255	0x3b7e18e7	0.0038772167

backbone_net.visual_net.2.0.bias f4 [64]
0	0x3cf309ad	0.0296677
1	0x3c2d926b	0.010593991
2	0xbd13c6b6	-0.036078177
3	0x3d569a73	0.052393388
4	0x3b7e905d	0.0038843371
5	0xbd552ef2	-0.052046724
6	0xbb139a94	-0.0022522556
7	0x3dd2d90d	0.102953054
8	0xbc56a0f3	-0.013099897
9	0xbddcf0ff	-0.10788154
10	0xbc4753c0	-0.012165964
11	0xbd3995cb	-0.04530887
12	0x3dbab429	0.09116394
13	0x3cb7bc9d	0.022428805
14	0xbcdd1d37	-0.02699147
15	0xbb400f99	-0.0029306172
16	0x3d4a5673	0.04939885
17	0xbd96c73c	-0.0736222
18	0xbd72396f	-0.059136804
19	0xbca7e0ce	-0.020492937
20	0xbc5d20a5	-0.013496553
21	0x3d9d8ba9	0.07692654
22	0xbd0d88d8	-0.034554332
23	0xbd65b047	-0.056076314
24	0xbcb93928	-0.022610262
25	0xbdb34462	-0.08753277
26	0xbd3dfe95	-0.046385366
27	0xbd93b7df	-0.07212805
28	0xbcd8448a	-0.02639987
29	0xbd67abf6	-0.05656048
30	0xbd8c04c7	-0.06836849
31	0x3d7f1407	0.06227496
32	0xbc1c31eb	-0.009533386
33	0xbb0ba826	-0.002130994
34	0x3c5114b4	0.012761284
35	0xbd861132	-0.065462485
36	0x3daace28	0.083401024
37	0x3d740f1e	0.05958473
38	0x3c98253a	0.018572439
39	0x3b72ce6f	0.0037049314
40	0x3d7031ed	0.058641363
41	0xbd56a62c	-0.052404568
42	0xbc49a7dd	-0.012308088
43	0xbd49d31a	-0.049273588
44	0xbdc9ab24	-0.098470956
45	0x3db87149	0.090059824
46	0x3cd23641	0.025660636
47	0x3dab5df1	0.08367527
48	0x3ceba95b	0.028767278
49	0x3d33ea1f	0.043924447
50	0x3d17a419	0.03702173
51	0x3dc1a90d	0.09456072
52	0xbd1870e7	-0.037217047
53	0x3c25e1ad	0.010124606
54	0x3d0365f4	0.032079652
55	0xbd238152	-0.03991825
56	0x3b75477a	0.0037426637
57	0xbcc748a1	-0.024326624
58	0x3dc751e3	0.097324155
59	0xba9b9d1c	-0.0011872384
60	0xbd51b9e4	-0.05120267
61	0xbd1453c5	-0.0362127
62	0xbcda2229	-0.026627617
63	0xbcd1a2f1	-0.025590392

backbone_net.visual_net.3.0.weight f4 [8, 64, 3, 3]
0	0x3c792e17	0.015208743
1	0x3d130a3b	0.03589843
2	0xbc46af94	-0.012126822
3	0x3d6d7868	0.057976156
4	0x3d1c3ab6	0.03814193
5	0xbcc63dbf	-0.024199365
6	0x3c1c8efe	0.009555576
7	0xbd2e691e	-0.042580716
8	0x3da4f5e4	0.080547124
9	0xbcd12ff6	-0.025535565
10	0xbd447ab6	-0.04796859
11	0x3e01696f	0.12637876
12	0x3d945b42	0.072439685
13	0xbd7eb805	-0.062187213
14	0xbc15525c	-0.009113874
15	0xbb754138	-0.0037422907
16	0x3d80fe83	0.06298544
17	0xbc3dfd64	-0.011596058
18	0xb92f2cd4	-0.00016706
19	0x3c9b355a	0.018946338
20	0xbca680b1	-0.020325037
21	0x3ce64f88	0.028114095
22	0x3ccd87dd	0.025089199
23	0x3d20b484	0.039234653
24	0x3cd8d760	0.026469886
25	0x3ce3f542	0.027826909
26	0x3c8a363f	0.01687157
27	0x3d5e0852	0.054207154
28	0xbdf159e2	-0.11784722
29	0x3d795b69	0.06087819
30	0x3c180b9b	0.009280111
31	0xbd0434e0	-0.032276988
32	0x3d9f48a8	0.0777753
33	0xbd53a96a	-0.051675238
34	0xbc750928	-0.014955796
35	0x3e16c798	0.14724576
36	0x3db8250d	0.08991442
37	0xbcddd65b	-0.027079752
38	0xbc56c40d	-0.013108266
39	0x3da4e480	0.080513954
40	0x3d0f6025	0.0350038
41	0xbc7561d9	-0.014976942
42	0xbc794017	-0.015213034
43	0xbcfa7d5e	-0.030577358
44	0xbcc6ee7d	-0.024283642
45	0x3d80def6	0.062925264
46	0xbd6f27c0	-0.058387518
47	0xbd51401d	-0.051086534
48	0x3ca32291	0.019913943
49	0xbbb808f3	-0.005616301
50	0x3dccb8b9	0.099961706
51	0xbd0a2a63	-0.03373183
52	0xbc3a2093	-0.011360305
53	0xbb79354f	-0.003802616
54	0x3de4e50c	0.111765
55	0xbd182420	-0.037143826
56	0xbc6ccd77	-0.0144532835
57	0x3bdf96da	0.006823403
58	0xbd834f61	-0.06411625
59	0xbcb18079	-0.021667706
60	0x3d3caa31	0.046060745
61	0xbdac4eff	-0.08413505
62	0x3cd9295f	0.026508985
63	0x3e447fb9	0.19189347
64	0x3c69a4e2	0.0142605025
65	0xbd14d09f	-0.03633177
66	0xbd46f3fe	-0.048572533
67	0xbdb551c2	-0.08853485
68	0xbe10d6be	-0.14144418
69	0xbe0462a1	-0.12928249
70	0x3d3ad4fe	0.04561328
71	0xbdabd992	-0.083911076
72	0x3e1e2efa	0.15447608
73	0xbd569fdc	-0.052398548
74	0x3dec5f5f	0.11541628
75	0xbd663666	-0.056204222
76	0x3c9f93a0	0.019479573
77	0x3ce108de	0.027470049
78	0xbe0c6625	-0.1371084
79	0x3ce77233	0.028252697
80	0x3c85e2a4	0.016343422
81	0x3dedda54	0.116139084
82	0xbe12987c	-0.1431598
83	0x3d49a80e	0.049232535
84	0xbc86d0c6	-0.016456973
85	0xbd89c915	-0.067278065
86	0xbd817090	-0.06320298
87	0xbcf4f10f	-0.029900102
88	0xbe07aec2	-0.13250259
89	0xbd73b41c	-0.059497938
90	0x3dbc289e	0.091874346
91	0xbe012956	-0.12613425
92	0x3d8b1bc6	0.06792407
93	0xbd21339e	-0.039355867
94	0xbcbf36d4	-0.023341574
95	0xbbe0a40c	-0.0068554934
96	0x3bc7f454	0.006102124
97	0xbc82f3d3	-0.015985405
98	0xbd82b8cf	-0.06382906
99	0xbe331a67	-0.1749054
100	0xbd206e37	-0.03916761
101	0x3cb82775	0.022479752
102	0xbd9012b6	-0.07034819
103	0xbc0250da	-0.007953847
104	0x3e03a817	0.1285709
105	0xbd8a3c58	-0.06749791
106	0x3d15fe89	0.036619697
107	0x3dbfd43d	0.09366653
108	0x3d37d131	0.044877235
109	0x3d0b946f	0.034077104
110	0x3abff19d	0.001464415
111	0xbcf0b010	-0.029380828
112	0xbd352959	-0.044228885
113	0x3c603090	0.013683453
114	0x3d510f0f	0.05103975
115	0x3d6d28df	0.057900306
116	0x3c290c8f	0.010317936
117	0xbcafcbfe	-0.021459576
118	0x3ce6568f	0.028117446
119	0x3dcc3056	0.09970157
120	0xbd4ed373	-0.050494622
121	0x3da3ba7c	0.079945534
122	0x3deeb7a1	0.11656118
123	0xbcf97ee8	-0.030456021
124	0xbcb50fc1	-0.022102239
125	0x3cb7fbd9	0.022458958
126	0x3b8f05dd	0.0043647126
127	0xbd02bf6e	-0.031920843
128	0xbd12cad4	-0.035837963
129	0x3c44ddd2	0.012015777
130	0xbce3a600	-0.027789116
131	0xbcee4227	-0.029084278
132	0xbaa4e464	-0.0012580273
133	0x3d1cd62a	0.03829018
134	0xba23164f	-0.0006221281
135	0x3d971afa	0.07378192
136	0xbd74d3b2	-0.0597722
137	0x3b507e19	0.0031813441
138	0x3c99b8cb	0.018764874
139	0xbd47526e	-0.048662595
140	0x3d15db0e	0.03658586
141	0xbcc2ff7e	-0.023803469
142	0x3d6db889	0.058037315
143	0xbd1b9ba2	-0.03799022
144	0xbc274b96	-0.010210892
145	0x3d18307d	0.037155617
146	0x3d295da3	0.041349065
147	0xbd0b40e4	-0.03399743
148	0xbd4fb860	-0.050712943
149	0x3d0fc105	0.035096187
150	0x3c1f622f	0.009727999
151	0xbd0c935a	-0.034320213
152	0x3d8b0818	0.06788653
153	0x3ce48959	0.027897524
154	0x3cc35da4	0.023848362
155	0x3d2c1f05	0.04202177
156	0xbd4329bc	-0.047647223
157	0xbb8d65c6	-0.004315111
158	0xbb08e850	-0.0020890422
159	0xbc9102fd	-0.01770162
160	0x3ba753f7	0.005106445
161	0x3caf1b12	0.021375213
162	0xbe20468d	-0.15651913
163	0x3ceff001	0.029289247
164	0x3d2ee19d	0.04269563
165	0x3d823f5d	0.06359742
166	0xbd3cdc32	-0.046108432
167	0xbc4c0390	-0.012452021
168	0xbd99938e	-0.07498847
169	0x3dad1d9e	0.08452915
170	0x3da2b337	0.07944339
171	0x3cd2c17e	0.02572703
172	0x3c9a8ada	0.018865038
173	0x3c353381	0.011059643
174	0xba7d779a	-0.0009669006
175	0xbc45e253	-0.012077886
176	0xbce5b86b	-0.028042039
177	0x3af8c956	0.0018980901
178	0xbca4bf5a	-0.020110775
179	0xbadc4beb	-0.0016807293
180	0xbb5723a5	-0.0032827642
181	0xbe1c917b	-0.15289871
182	0x3b6bbfec	0.0035972549
183	0xbd09e8bf	-0.03366923
184	0xbdaf2245	-0.08551458
185	0x3bf0deb0	0.007350765
186	0xbd8e3a07	-0.069446616
187	0x3d6ce877	0.057838883
188	0x3d92bde5	0.07165126
189	0xba2e2301	-0.0006642789
190	0xbc40319f	-0.011730581
191	0xbd01460a	-0.031560935
192	0x3bd2798c	0.006423181
193	0x3cb3e010	0.021957427
194	0x3c0be263	0.0085378615
195	0x3ba7fee2	0.00512682
196	0xbc6ff12f	-0.014644905
197	0x3d1df745	0.038565893
198	0x3d4be9bc	0.049783453
199	0xbca76067	-0.02043171
200	0x3d04d3b4	0.03242846
201	0x3d42ab81	0.04752684
202	0xbcd97729	-0.026546078
203	0x3ca5bbef	0.020231215
204	0xbd74b9ea	-0.059747614
205	0x3c80d764	0.015727706
206	0x3dd25210	0.102695584
207	0x3db63de5	0.08898524
208	0xbdf3d3ed	-0.11905656
209	0x3cec0cd1	0.028814705
210	0x3d694fbc	0.056960806
211	0xbd797d86	-0.060910724
212	0xbba895c4	-0.0051448066
213	0xbd2599fb	-0.04043005
214	0x3c65208a	0.013984809
215	0x3cb15c7d	0.021650547
216	0x3d13f2c7	0.036120202
217	0x3c722f72	0.01478182
218	0x3c0765eb	0.008264045
219	0xbd6c0a3d	-0.05762695
220	0xbc5d3e91	-0.0135036865
221	0xbd26594a	-0.040612496
222	0x3cd4207f	0.025894402
223	0xbb24a727	-0.0025124045
224	0x3ab6a547	0.0013934755
225	0xbdccc5d1	-0.09998668
226	0xbdea2822	-0.11433436
227	0x3cb7a677	0.022418244
228	0xbe1a51b1	-0.15070225
229	0x3a7c838c	0.0009632639
230	0xbd4cb575	-0.04997774
231	0xbdbf95bc	-0.093547314
232	0xbe215d9e	-0.15758368
233	0x3dc2e6bf	0.095166676
234	0x3dddc9ed	0.1082953
235	0xbca8e253	-0.020615732
236	0xbea8c23f	-0.32960698
237	0x3b7ab6a2	0.003825583
238	0x3dd42dd7	0.10360306
239	0x3d452290	0.048128664
240	0xbb9842ee	-0.0046466505
241	0xbddd830d	-0.108160116
242	0xbd336725	-0.04379954
243	0x3d970bd7	0.07375305
244	0xbd913045	-0.07089285
245	0x3d106545	0.03525283
246	0xbd0c6024	-0.034271374
247	0xbd2700a1	-0.040772084
248	0x3d43b329	0.047778282
249	0xbcbf6499	-0.023363398
250	0x3d57b4af	0.052662548
251	0xbd9bf944	-0.07615903
252	0xbdeb943c	-0.11502883
253	0xbe82f4bd	-0.25577345
254	0x3d0d9e0a	0.034574546
255	0x3c2c05c0	0.010499418

backbone_net.visual_net.3.0.bias f4 [8]
0	0xbbc8d79c	-0.0061292183
1	0x3d2cfbfb	0.042232495
2	0xbd39ff32	-0.04540939
3	0x3c6f06f7	0.014589063
4	0x3c2df40d	0.010617268
5	0x3dffbe4b	0.124874674
6	0x3c2c9fc6	0.01053614
7	0x3d30e8f8	0.043190926

merge_net.0.0.weight f4 [128, 128]
0	0x3cfc2332	0.030778501
1	0xbcb90d44	-0.022589333
2	0xbbeb297f	-0.0071765776
3	0xbc94e4bd	-0.018175477
4	0x3d1588ca	0.036507405
5	0xbcc231c6	-0.023705374
6	0xbd8dd698	-0.06925696
7	0xbdae5439	-0.08512158
8	0x3de0e0fc	0.10980412
9	0xbd1d72fc	-0.038439736
10	0x3dad4f2a	0.08462365
11	0x3c8cb98d	0.017178321
12	0xbc92164d	-0.0178329
13	0xbdfa0dbc	-0.12209651
14	0xbcdb457a	-0.026766527
15	0xbce45141	-0.027870776
16	0x3b224455	0.0024759967
17	0xbd60b271	-0.054857675
18	0x3d914b53	0.07094445
19	0xbd8c34e9	-0.06846029
20	0x3c96cffc	0.018409722
21	0x3db60fa9	0.08889706
22	0x3d79b245	0.060961027
23	0x3d50b119	0.050950143
24	0x3de3605a	0.11102362
25	0x3dded5bc	0.1088061
26	0x3d209a89	0.039209876
27	0x3c2bfd3a	0.010497386
28	0xbcb52fc7	-0.022117509
29	0xbdd927b2	-0.106032744
30	0x3e02ef7b	0.12786667
31	0xbd8defc3	-0.069304965
32	0x3d7f5406	0.06233599
33	0xbc9e7c96	-0.019346517
34	0x3d9b7005	0.075897254
35	0x3d22e127	0.039765503
36	0xbd8d7834	-0.069076926
37	0xbd91a4c0	-0.07111502
38	0xbd48158a	-0.048848666
39	0xbcc2f764	-0.023799606
40	0x3d5f1cea	0.054470934
41	0x3c8ebcac	0.01742395
42	0xbc29726b	-0.010342221
43	0x3d8c9a02	0.06865312
44	0x3c6a8237	0.014313272
45	0xbcfed17c	-0.03110575
46	0x3c5f6ca0	0.013636738
47	0x3c6c500d	0.0144233825
48	0xbc8dfc3b	-0.017332187
49	0x3d1fa50c	0.03897576
50	0x3c6aa4e9	0.014321544
51	0x3b9a2a4b	0.0047047487
52	0x3b97a5d5	0.004627923
53	0x3ce5a34a	0.028031964
54	0xbbfd59dc	-0.0077316593
55	0x3cbd639f	0.023118792
56	0xbd642c31	-0.055706207
57	0x3d40321a	0.04692278
58	0x3ce65d34	0.028120615
59	0xbd8f6e92	-0.070035115
60	0xbc9c0de6	-0.019049596
61	0xbcf7ea41	-0.030263068
62	0x3d96ee4c	0.0736967
63	0xbbb7d1bc	-0.005609719
64	0xbcbccb94	-0.023046292
65	0xbd4a2124	-0.04934801
66	0xbd34d88c	-0.044151828
67	0xbd15eecd	-0.03660469
68	0x3d8a9de2	0.06768395
69	0x3bd37486	0.0064530997
70	0x3cfc0905	0.03076602
71	0xbda83141	-0.082125194
72	0x3ca9937d	0.02070021
73	0x3d96407f	0.073365204
74	0x3b874d21	0.0041290675
75	0xbe79a925	-0.2438093
76	0x3db957b7	0.090499334
77	0x3da30ccf	0.079614274
78	0xbe2e1bba	-0.17002764
79	0xbdcaa5fb	-0.098949395
80	0xbd813a01	-0.063098915
81	0x3c8c252b	0.017107567
82	0x3cbcb949	0.02303757
83	0xbdfcb90f	-0.123399846
84	0x3ccdeb6a	0.025136668
85	0x3cb89ce1	0.022535743
86	0xbd1b29e6	-0.037881754
87	0xbe0de216	-0.13855776
88	0xbe0863ab	-0.1331927
89	0xbdbdfb6d	-0.09276471
90	0x3d7b17f1	0.06130213
91	0xbb94071e	-0.00451745
92	0xbe277204	-0.16352087
93	0x3c69b9f2	0.014265524
94	0x3dc5c418	0.096565425
95	0x3b59d48d	0.0033238262
96	0xbd67d9e0	-0.056604266
97	0x3d6203b2	0.055179305
98	0x3d5058b2	0.050865836
99	0x3d516f8b	0.051131766
100	0x3d5a6bd0	0.053325474
101	0xbd4abd64	-0.049497023
102	0x3adcca11	0.0016844888
103	0xbc36b2f1	-0.011151061
104	0xbd28cec6	-0.04121282
105	0xbbe8ed9f	-0.0071084048
106	0x3b94a87d	0.004536687
107	0xbc685bff	-0.01418209
108	0x3d063261	0.03276289
109	0x3cf19ea0	0.029494584
110	0xbd409c52	-0.04702408
111	0x3c78ac09	0.015177735
112	0xbc50f71a	-0.012754226
113	0xbd83188a	-0.06401165
114	0xbc938908	-0.018009678
115	0x3d31fbe1	0.0434531
116	0x3d8636b9	0.06553406
117	0x3cbc6938	0.022999391
118	0xbd451581	-0.04811621
119	0x3d70d99b	0.058801275
120	0x3ccb5cfe	0.024824616
121	0x3da09c5a	0.07842322
122	0xbe01dcda	-0.12681904
123	0xbbb374a6	-0.005476552
124	0x3d2fab2b	0.042887848
125	0x3d48adb0	0.048993766
126	0xbe2bcbfc	-0.16777033
127	0x3d4a6657	0.049414005
128	0xbcfab778	-0.030605063
129	0xbd3a2522	-0.04544557
130	0xbd276af4	-0.040873483
131	0xbddca724	-0.10774067
132	0x3d0b3560	0.03398645
133	0x3ce1ad97	0.027548594
134	0x3d3a81ec	0.04553406
135	0xbc99f0da	-0.018791605
136	0xbcadbe98	-0.021209046
137	0xbc65cf22	-0.014026435
138	0x3d831fa0	0.06402516
139	0x3d20b882	0.03923846
140	0x3c51809e	0.012787012
141	0xbcd53d3f	-0.026030181
142	0xbd551eaf	-0.052031215
143	0xbd52150b	-0.0512896
144	0xbc20e4a7	-0.00982014
145	0x3c8e6feb	0.017387351
146	0x3c89bae7	0.016812755
147	0xbd4724d3	-0.048619103
148	0xbc281d39	-0.0102608735
149	0x3bdbd388	0.006708566
150	0xbd7b7eaa	-0.061400093
151	0x3cd7d3fc	0.0263462
152	0x3d00033e	0.031253092
153	0xbd1199c2	-0.035547026
154	0xbda44099	-0.080201335
155	0x3da3b021	0.07992578
156	0xbdb7447a	-0.08948608
157	0xbd4da4c9	-0.05020598
158	0xbdddc349	-0.10828263
159	0xbd6f54dc	-0.058430538
160	0x3d922055	0.07135073
161	0x3c0d9bc6	0.008643096
162	0xbd49d91f	-0.04927933
163	0x3d90adbb	0.070643865
164	0x3d9855e6	0.07438259
165	0xbd25b903	-0.040459644
166	0x3d276ba0	0.040874124
167	0xbc64960e	-0.013951791
168	0xbc93aefe	-0.018027779
169	0x3c5fda9f	0.013662963
170	0x3d23d1ef	0.03999513
171	0x3d8c1b4a	0.068411425
172	0xbcb718a6	-0.02235062
173	0xbc7fa7aa	-0.015603939
174	0x3d44d90a	0.048058547
175	0x3c413496	0.011792323
176	0x3b5d8311	0.0033800045
177	0x3d6c3cb7	0.05767509
178	0x3d87d2d2	0.06632008
179	0xbcd14c3f	-0.025549052
180	0xbdc7fcc5	-0.09765009
181	0x3c6be1ff	0.014397143
182	0xbdcc29ee	-0.09968935
183	0x3d1dabf4	0.038494065
184	0x3d6c97c3	0.05776192
185	0xbc3b11f1	-0.011417852
186	0xbda52750	-0.08064139
187	0xbd815e34	-0.06316796
188	0x3cdb8f11	0.026801618
189	0x3b17767d	0.0023111396
190	0xbd09505c	-0.033523902
191	0xbdcf332d	-0.10117183
192	0x3d472cad	0.04862659
193	0xbd3147c4	-0.04328133
194	0xbd572786	-0.052527927
195	0xbda4029d	-0.08008311
196	0xbb5df219	-0.0033866225
197	0xbc2c4ec0	-0.010516822
198	0xbd8d716e	-0.069064006
199	0x3cee4fa4	0.02909071
200	0x3d1e00e2	0.03857506
201	0xbda51c96	-0.08062093
202	0xbda0ac34	-0.07845345
203	0x3d4e8ba7	0.05042615
204	0xbcdd48e2	-0.027012292
205	0xbd86ca25	-0.06581525
206	0xbc296eeb	-0.010341386
207	0xbdc72fe7	-0.097259335
208	0xbd8ede35	-0.069759764
209	0x3d03fa7c	0.032221302
210	0xbd37e700	-0.044898033
211	0xbbc1345d	-0.005896135
212	0x3d5ee89d	0.054421056
213	0x38dcf884	0.00010536707
214	0xbd0ebc0b	-0.0348473
215	0xbd763468	-0.060108572
216	0x3d0af87e	0.033928387
217	0xbd4a4376	-0.049380742
218	0x3c9d8c76	0.019232016
219	0x3d0aef74	0.033919767
220	0xbd246bbf	-0.040141817
221	0x3beb6750	0.0071839467
222	0xbd619edf	-0.055083152
223	0x3c9931e7	0.018700553
224	0x3d254491	0.040348593
225	0xbd7cd525	-0.061726708
226	0xbd18bb5b	-0.03728805
227	0xbb8caafa	-0.004292843
228	0xbd70f198	-0.05882415
229	0x3d8947d2	0.06703152
230	0xbda1eeba	-0.079068616
231	0xbca10b4b	-0.019658705
232	0xbdb1a687	-0.08674341
233	0xbd92e781	-0.07173062
234	0xbd99d719	-0.0751173
235	0xbd1defba	-0.0385587
236	0xbc2e40d6	-0.010635575
237	0xbd44204a	-0.047882356
238	0xbd65bf1e	-0.056090467
239	0x3c83d2ce	0.01609173
240	0xbcc39107	-0.023872865
241	0xbcd1be15	-0.025603333
242	0xbd46682e	-0.048439197
243	0xbc4a8ecb	-0.012363146
244	0xbc909f7c	-0.017654173
245	0xbd830a78	-0.06398481
246	0xbd052f63	-0.032515895
247	0xbce9fc43	-0.02856267
248	0x3c05cd36	0.008166602
249	0xbd96b95a	-0.07359572
250	0x3d165c07	0.036708858
251	0xbcb64f8a	-0.022254724
252	0xbd9280fc	-0.07153508
253	0xbc7f04c0	-0.015565097
254	0x3d0f8c34	0.035045817
255	0xbcec8ce1	-0.02887577

merge_net.0.0.bias f4 [128]
0	0xbdfffd66	-0.12499504
1	0xbc72dbcb	-0.014822911
2	0x3dba6c6d	0.09102712
3	0xbb508061	-0.00318148
4	0xbd8b0d87	-0.067896895
5	0x3d4cbbce	0.049983792
6	0xbd5a53e1	-0.05330265
7	0xbda2fb6a	-0.0795811
8	0xbc976614	-0.018481292
9	0xbbabbecc	-0.0052412506
10	0xbc297c8e	-0.010344638
11	0xbdaf05ea	-0.0854605
12	0xbc208dd1	-0.009799437
13	0xbcd14711	-0.025546582
14	0xbd51888e	-0.05115562
15	0xbd1c8dcd	-0.03822117
16	0x3c88b8bb	0.016689649
17	0xbd4dada5	-0.05021443
18	0x3de99e63	0.11407163
19	0x3c941177	0.018074734
20	0x3dfac52b	0.12244638
21	0xbd457278	-0.04820487
22	0x3df4aab4	0.119466215
23	0x3d6386f0	0.05554861
24	0x3b6d98f6	0.0036254502
25	0x3d21c68a	0.039495982
26	0x3d74aa86	0.059732936
27	0x3c2f28aa	0.010690847
28	0x3cb9c07d	0.022674793
29	0x3c78a218	0.015175365
30	0x3d56b2a0	0.052416444
31	0x3c63f7f9	0.013914102
32	0xbaee3931	-0.0018175003
33	0x3cd533a7	0.026025606
34	0xbcff8be2	-0.031194631
35	0x3d85ce95	0.06533543
36	0x3d58917d	0.052873123
37	0xbd770305	-0.060305614
38	0x3d88c5ce	0.06678353
39	0xbd558274	-0.052126363
40	0x3d2b6284	0.041842
41	0xbd2f8c26	-0.042858265
42	0x3dcda0e5	0.10040454
43	0xbc124740	-0.00892812
44	0xbc203be9	-0.009779909
45	0x3e0359b7	0.12827192
46	0x3dbffa2f	0.093738906
47	0xbd1dc00d	-0.038513232
48	0x3dfe06d9	0.1240365
49	0x3e001832	0.1250923
50	0xbbcb1876	-0.0061979843
51	0x3d05fd8b	0.0327125
52	0xbbd4cfbf	-0.006494492
53	0x3d4773ee	0.048694544
54	0xbdb8b776	-0.090193674
55	0x3b4f872d	0.0031666264
56	0x3cec54d5	0.028849045
57	0x3d21d2bc	0.039507613
58	0xbd8be8c8	-0.06831509
59	0x3c6f539e	0.014607338
60	0x3dbc4acf	0.09193956
61	0xbd79341d	-0.060840715
62	0x3d86f72f	0.06590115
63	0x3d2977f8	0.041374177
64	0x3bbb46f1	0.005715244
65	0xbda723a7	-0.08161097
66	0x3de5d0a0	0.11221433
67	0xbd25ce46	-0.04047992
68	0x3ca3b811	0.01998523
69	0x3dcb256f	0.09919249
70	0x3c28a251	0.0102926055
71	0x3d83e9da	0.06441088
72	0x3c400460	0.011719793
73	0x3c6ac2a0	0.014328629
74	0x3bf5d439	0.0075021056
75	0x3d08a6eb	0.03336231
76	0xbd8623a8	-0.0654977
77	0x3d3b545c	0.04573475
78	0x3cc63a8c	0.02419784
79	0xbdb8434f	-0.08997213
80	0x3e23e938	0.16006935
81	0x3e0e8540	0.13918018
82	0xbd94130c	-0.072301954
83	0xbc090f59	-0.008365476
84	0xbaf95662	-0.0019022936
85	0xbc563d66	-0.013076162
86	0xbc1fd4d0	-0.009755328
87	0x3d538902	0.051644333
88	0xbc51e83f	-0.012811719
89	0x3e00bafe	0.12571332
90	0xbd1bcf9b	-0.038039785
91	0xbd352bba	-0.044231154
92	0x3bca828c	0.006180113
93	0xbdbcab06	-0.09212308
94	0xbd4a860d	-0.049444247
95	0xbc19443b	-0.009354646
96	0xbd44dc35	-0.04806157
97	0xbc86187f	-0.016369103
98	0xbd8617c8	-0.06547505
99	0xbde12dda	-0.109950736
100	0x3e0c56b3	0.13704948
101	0xbd6c1940	-0.057641268
102	0xbbd930a7	-0.0066281143
103	0x3d4115a3	0.047139775
104	0xbc9bd47a	-0.019022215
105	0x3c16d367	0.009205676
106	0xbdac9cdc	-0.08428356
107	0x3d6e7015	0.05821236
108	0x373111c0	1.0554155e-05
109	0xbd930dfc	-0.07180402
110	0xbdbca6a6	-0.09211473
111	0xbbb527c1	-0.0055284207
112	0x3dd08977	0.10182469
113	0xbd905eaa	-0.07049306
114	0xbd3b2677	-0.04569098
115	0x3ce3ad6e	0.027792659
116	0x3d9d1312	0.07669653
117	0x3ca39733	0.019969558
118	0x3c20927e	0.009800551
119	0x3d1a811a	0.037720777
120	0x3cc881ad	0.024475897
121	0xbd1dd4ea	-0.03853313
122	0xbd8f3043	-0.06991627
123	0x3c24f646	0.010068482
124	0xbd9fce4a	-0.078030184
125	0x3d34312d	0.04399221
126	0x3b3ad32e	0.002850722
127	0xbcaa53f7	-0.02079199

merge_net.1.0.weight f4 [2, 128]
0	0xba047a9e	-0.0005053672
1	0xbd5ad0a9	-0.05342165
2	0x3ceae23f	0.028672336
3	0x3ae89c86	0.0017746843
4	0x3c1e6b06	0.009669071
5	0x3d2c8aca	0.042124547
6	0xbc9ee988	-0.019398466
7	0x3c9fc96b	0.019505223
8	0xbd3791e1	-0.044816855
9	0x3d425848	0.047447473
10	0x3d43a748	0.047766954
11	0x3cfd1509	0.03089382
12	0x3d64afdb	0.05583177
13	0xbe29f9d6	-0.16599211
14	0x3bd4ed68	0.0064980276
15	0x3d902d2f	0.07039868
16	0xbdadf538	-0.084940374
17	0x3d10f608	0.035390884
18	0x3d23f86c	0.040031835
19	0x3d4de03b	0.05026267
20	0x3dafcdc3	0.08584168
21	0xbc9096fa	-0.017650116
22	0x3c88dc77	0.016706688
23	0xbdbbe075	-0.09173671
24	0xbe42f887	-0.19040118
25	0xbea56fbe	-0.32311815
26	0x3de14c0e	0.110008344
27	0xbd8e1317	-0.06937235
28	0x3d0c2dd9	0.03422341
29	0xbc5bfe66	-0.0134273525
30	0x3ce3fc8d	0.027830387
31	0x3d05ba26	0.032648228
32	0x3d461e38	0.048368663
33	0x3c37c101	0.011215449
34	0x3cf8c557	0.030367536
35	0x3d3a8f5e	0.04554688
36	0xbda6aa3b	-0.08137938
37	0xbafb148a	-0.0019155901
38	0x3d007fb2	0.03137178
39	0x3d7c6fe6	0.061630152
40	0x3bc66a48	0.00605515
41	0xbbbc7d99	-0.005752277
42	0x3db4437d	0.08801935
43	0x3e599aa8	0.21250403
44	0xbcaef7b6	-0.021358352
45	0xbe46d851	-0.19418456
46	0xbe7ee77a	-0.24892989
47	0x3e973d69	0.2953904
48	0xbd07a4da	-0.0331162
49	0xbd80252e	-0.062570915
50	0x39be2a7d	0.0003627128
51	0x3e241d56	0.16026816
52	0x3cc5b174	0.024132468
53	0xbe2a4f68	-0.16631854
54	0xbde70a38	-0.11281246
55	0xbdc050bb	-0.09390398
56	0xbdab7aa3	-0.083730005
57	0x3d7a6864	0.06113471
58	0xbcdad099	-0.026710795
59	0xbe592f8e	-0.21209547
60	0xbb34bac5	-0.0027577144
61	0xbe76944f	-0.24080013
62	0xbd2244a4	-0.039616242
63	0xbe2d731f	-0.16938446
64	0xbd05034b	-0.032473844
65	0xbdc1fc31	-0.0947193
66	0x3e1f1586	0.15535554
67	0x3d9bc3f1	0.07605732
68	0xbd648812	-0.05579383
69	0x3ca6ce71	0.02036211
70	0xbd92a4c4	-0.07160333
71	0x3d233db8	0.03985378
72	0xbd8c9539	-0.068643995
73	0x3d400b1a	0.046885587
74	0xbbdf52de	-0.0068152985
75	0xbdc28bd7	-0.094993286
76	0xbdc0c7c3	-0.094131015
77	0xbe0c8d70	-0.13725829
78	0xbb25e6ad	-0.0025314495
79	0xbc3a61ae	-0.011375828
80	0xbcda1774	-0.026622511
81	0x3d647108	0.055771858
82	0x3d5fbd81	0.054624084
83	0xbeaad053	-0.33362064
84	0xbbb9f860	-0.0056753606
85	0x3dc2aa00	0.09505081
86	0x3c970001	0.018432619
87	0x3d911b2f	0.07085263
88	0xbdb6868f	-0.08912384
89	0x3e1baf20	0.15203524
90	0xbd86da08	-0.06584555
91	0xba92c1b2	-0.0011196642
92	0x3e91931e	0.28432554
93	0x3dd6a2a4	0.1048024
94	0xbe831e91	-0.25609258
95	0x3d082fa7	0.03324857
96	0x3db75f4c	0.08953723
97	0xbd88f1e9	-0.06686766
98	0x3d4e6bfe	0.050395958
99	0xbddf6120	-0.10907197
100	0x3b73c1f2	0.0037194458
101	0x3e0fb4fd	0.14033885
102	0x3e9c340b	0.30508456
103	0x3d53de46	0.05172565
104	0xbdf3e893	-0.119095944
105	0x3ea94c95	0.3306624
106	0xbe8707d0	-0.26373148
107	0x3d2f8c8b	0.04285864
108	0xbd6748c6	-0.056465887
109	0x3d8cc985	0.06874374
110	0xbd186edd	-0.037215102
111	0xbe1bd579	-0.15218152
112	0x3d9f0c36	0.07766001
113	0x3e3f62b4	0.18689996
114	0x38dd3bae	0.000105492174
115	0x3d65e4fa	0.056126572
116	0xbe811b1d	-0.25215998
117	0x3dad049d	0.084481455
118	0xbb5774d8	-0.003287604
119	0x3e2ee30c	0.17078799
120	0xb93fc5bb	-0.0001828884
121	0x3cc17ad6	0.023618143
122	0x3ce5372f	0.027980415
123	0xbe859820	-0.26092625
124	0xbe60bca1	-0.21946956
125	0xbe1a8698	-0.15090406
126	0x3cecd87f	0.028911827
127	0x3c30f4a6	0.010800516
128	0x3ddf4239	0.10901303
129	0xbd326a5f	-0.043558475
130	0xbd89e982	-0.06733991
131	0x3d7e4eff	0.062087055
132	0xbd5e9f4b	-0.054351132
133	0x3ce1b4c1	0.02755201
134	0xbc71cc56	-0.01475819
135	0x3d7b9bef	0.061428007
136	0xbdb16b03	-0.08662989
137	0xbc165f98	-0.009178065
138	0xbc64ef5c	-0.013973083
139	0xbd7dfdb2	-0.06200952
140	0xbcdf3873	-0.027248597
141	0x3e8569be	0.26057237
142	0xba23eac7	-0.0006252941
143	0x3bd174e7	0.0063921097
144	0xbe200c61	-0.15629722
145	0xbbcc7576	-0.0062395884
146	0xbdb356ac	-0.08756766
147	0x3ba70fc0	0.005098313
148	0xbd3cbe9b	-0.046080213
149	0xbd22cc51	-0.039745633
150	0xbdc16b07	-0.09444242
151	0x3d81e1d6	0.06341903
152	0x3d2c28ed	0.042031217
153	0x3d2aeb63	0.04172839
154	0x3c74c517	0.014939568
155	0x3d53fd08	0.05175498
156	0x3d24faf2	0.040278383
157	0xbc69f88e	-0.014280451
158	0x3cbc83f7	0.023012144
159	0x3d57cedf	0.052687522
160	0xbdbdbcd4	-0.09264532
161	0xbb836abe	-0.0040105274
162	0x3d8d4339	0.06897587
163	0xbe81c93e	-0.25348848
164	0x3d1fdf2c	0.039031193
165	0x3d057726	0.032584332
166	0xbd9c2d93	-0.0762588
167	0xba47c547	-0.0007620644
168	0xbe9a0ebb	-0.30089363
169	0xbba4ffca	-0.0050353752
170	0x3d88f923	0.06688144
171	0x3e4c9aa5	0.19980867
172	0x3d063126	0.032761715
173	0x3af374aa	0.0018574197
174	0xbd815774	-0.063155085
175	0x3e2b65e4	0.16738087
176	0xbd745481	-0.0596509
177	0xbe1de007	-0.15417491
178	0x3c31faf1	0.010863052
179	0xbd9905ad	-0.07471786
180	0xbd485447	-0.0489085
181	0x3cc58a6e	0.02411386
182	0x3dacf5fd	0.08445356
183	0x3c86be05	0.01644803
184	0x3cc4f3d4	0.024042048
185	0x3c07c1ea	0.008285979
186	0x3d873202	0.06601335
187	0x3e48975f	0.19588993
188	0xbea8cb16	-0.32967442
189	0x3d692008	0.056915313
190	0xbc0c15c8	-0.008550115
191	0x3dc09fa7	0.09405451
192	0xbd1c9040	-0.038223505
193	0x3dd1653d	0.10224388
194	0x3d36c9eb	0.044626158
195	0xbd0975eb	-0.03355972
196	0xbd97c367	-0.07410317
197	0xbe057bca	-0.13035503
198	0xbb617356	-0.003440102
199	0xbc3d7a74	-0.01156484
200	0xbe536c26	-0.20646724
201	0xbd7ab5e9	-0.06120864
202	0xbb54c922	-0.0032468517
203	0xbe8e0d7a	-0.27744657
204	0xbd47eac3	-0.04880787
205	0xbda4ff89	-0.08056552
206	0xbab213ec	-0.001358626
207	0xbb8ebe72	-0.004356199
208	0xbe373c3e	-0.17894074
209	0xbdfdd9e7	-0.12395077
210	0x3d6997c9	0.05702952
211	0xbb1179ea	-0.002219791
212	0xbcc1f01e	-0.023674067
213	0x3e28c88b	0.16482751
214	0x3bfa7701	0.007643581
215	0xbd4743ac	-0.04864852
216	0x3e616021	0.22009327
217	0xbd1063c6	-0.0352514
218	0xbd912ceb	-0.070886455
219	0x3c93a33a	0.018022168
220	0x3bb2f187	0.005460921
221	0x3d2d9dcf	0.042386826
222	0x3b7a8403	0.0038225658
223	0xbda3dcba	-0.080010846
224	0x3d84d698	0.06486243
225	0x3d458bda	0.048229076
226	0x3d8920a3	0.06695678
227	0x3c566e3f	0.013087808
228	0xbe2779af	-0.16355012
229	0xbc76f841	-0.015073837
230	0x3de8c71f	0.11366104
231	0xbdf1ec6a	-0.118126705
232	0xbcec74f2	-0.028864358
233	0x3dbde2d9	0.092717834
234	0x3e5a86ff	0.2134056
235	0xbcc10435	-0.023561576
236	0x3d613c14	0.054988936
237	0x3daa5e4c	0.08318767
238	0x3c8b1dd0	0.01698199
239	0xbd33e22c	-0.043916866
240	0x3c6e433e	0.014542399
241	0xbd9f83b9	-0.07788796
242	0xbd42edab	-0.04758994
243	0xbbd1307d	-0.006383954
244	0x3d40be67	0.04705658
245	0xbd8f8960	-0.07008624
246	0x3d66ec12	0.056377478
247	0x3e4adf23	0.19811682
248	0xbc8df97c	-0.017330877
249	0x3ca03d58	0.019560501
250	0xbd56095f	-0.05225503
251	0x3e81f21c	0.25380027
252	0x3d7941a7	0.060853627
253	0x3ce50c7f	0.02796006
254	0xbd904d37	-0.070459776
255	0x3d343e97	0.044005003

merge_net.1.0.bias f4 [2]
0	0x3c27c1ff	0.010239123
1	0xbe47479c	-0.1946091
