rl_weights.pth (torch, 184235 bytes, 12 tensors)

backbone_net.visual_net.0.0.weight f4 [16, 2, 3, 3]
0	0x3c74af88	0.014934428
1	0x3e639f7e	0.2222881
2	0x3e9b73a8	0.30361676
3	0xbdc43ad8	-0.09581536
4	0xbe4e31d5	-0.20136197
5	0x3e82c625	0.25541797
6	0xbe6700c2	-0.22558883
7	0xbe9c893a	-0.30573446
8	0x3eb35ce8	0.3503182
9	0xbc91343f	-0.017725108
10	0xbd9c583f	-0.07634019
11	0x3dde376c	0.10850415
12	0x3c44de01	0.0120158205
13	0xbc27e137	-0.0102465665
14	0xbde8b998	-0.11363524
15	0xbdee1318	-0.116247356
16	0x3e385848	0.18002427
17	0xbd95aa5f	-0.07307886
18	0x3c31bafe	0.010847805
19	0xbefedfc6	-0.497801
20	0xbe24a358	-0.16077936
21	0x3f00c621	0.5030232
22	0x3d0ad2e5	0.03389253
23	0xbe3dad4c	-0.18523139
24	0xbd2c2402	-0.042026527
25	0xbd085b44	-0.033290163
26	0xbd3e710d	-0.046494532
27	0x3dcc3034	0.099701315
28	0xbdf669a5	-0.12031869
29	0x3e7c2b06	0.24625787
30	0x3e2ad67d	0.16683383
31	0xbda1c9e8	-0.07899839
32	0x3d64863c	0.05579208
33	0xbde7ba7f	-0.11314868
34	0x3d7bbc1b	0.06145869
35	0x3d891589	0.06693561
36	0xbd2b5087	-0.041824844
37	0xbdb05122	-0.08609225
38	0xbe96ff01	-0.29491428
39	0xbe6485ae	-0.2231662
40	0x3e9c6c11	0.30551198
41	0xbe560d79	-0.20903577
42	0x3db49353	0.08817162
43	0x3b2c2d8b	0.0026272263
44	0x3e3dddb8	0.1854161
45	0xbe288aa1	-0.16459133
46	0x3e0ffdcd	0.14061661
47	0x3da3d1d9	0.0799901
48	0xbdab0098	-0.083497226
49	0x3c98d1fa	0.018654812
50	0xbe2306b6	-0.15920529
51	0xbd9f9be7	-0.07793408
52	0x3e5a92d5	0.21345074
53	0x3e26d9b0	0.16293979
54	0x3e08d560	0.13362646
55	0x3f0102f4	0.5039513
56	0xbe771e72	-0.24132708
57	0x3e9977aa	0.2997411
58	0xbaf87d2e	-0.0018958205
59	0x3dea3f93	0.11437907
60	0x3ec086fe	0.3760299
61	0xbd6b35a7	-0.057424214
62	0xbe97df67	-0.2966263
63	0xbe65e241	-0.2244959
64	0xbe76b349	-0.2409183
65	0xbd23bbd3	-0.039974045
66	0xbe1316ee	-0.14364216
67	0xbcdbb05a	-0.02681749
68	0xbe0dab03	-0.13834767
69	0x3c946463	0.018114274
70	0x3d132ab8	0.03592941
71	0x3c9a86d0	0.018863112
72	0xbdeb2d37	-0.114832334
73	0x3cfa72bd	0.03057229
74	0x3f0310ed	0.511977
75	0x3e516824	0.20449883
76	0xbea55101	-0.32288364
77	0x3dad133f	0.084509365
78	0xbe63a572	-0.22231081
79	0x3e0ffa85	0.1406041
80	0x3dc21c85	0.09478096
81	0x3d59c5ea	0.05316726
82	0x3dcc7fc1	0.099853046
83	0xbe0445e2	-0.12917283
84	0x3e21d3f5	0.15803511
85	0xbdf9ff54	-0.12206903
86	0xbe306a46	-0.1722804
87	0x3be7c3fe	0.0070729246
88	0x3e0b1a11	0.13584162
89	0xbe344986	-0.17606172
90	0xbdf25698	-0.11832923
91	0xbe853741	-0.26018718
92	0x3f07e7f2	0.53088295
93	0xbdc73355	-0.09726588
94	0x3dba4f85	0.090971984
95	0x3e788554	0.2426961
96	0xbe8a1a65	-0.26973262
97	0x3d8f5fa1	0.07000662
98	0x3e679d70	0.22618651
99	0x3dd2b756	0.10288875
100	0xba46c2a1	-0.00075821026
101	0xbe112f8e	-0.14178297
102	0xbe2a50bf	-0.16632365
103	0x3dbb91a2	0.09158637
104	0x3e1782f1	0.14796044
105	0xbd3f1256	-0.046648346
106	0xbde2edc6	-0.11080508
107	0x3de4716e	0.111544475
108	0xbd56f6e3	-0.052481543
109	0xbdde026d	-0.108403064
110	0x3dd98161	0.1062038
111	0xbe30d826	-0.17269954
112	0xbdee7d76	-0.116450235
113	0xbe857bc1	-0.2607098
114	0x3e42aeeb	0.19012038
115	0x3f0085e6	0.5020431
116	0xbd8f90c8	-0.07010037
117	0xbd5bbb2d	-0.0536453
118	0x3de8a483	0.11359503
119	0xbe5bb437	-0.21455465
120	0x3d31eba8	0.04343763
121	0xbe07521f	-0.1321492
122	0xbd1ae8cb	-0.037819665
123	0x3ca4379d	0.02004605
124	0x3e280870	0.16409469
125	0xbcaf9a97	-0.021436019
126	0x3e1a7ddf	0.15087079
127	0xbe3aaa00	-0.18228912
128	0x3cc06e95	0.02349023
129	0x3ddf96e5	0.10917453
130	0x3ce404c8	0.027834311
131	0xbe0720be	-0.13196084
132	0xbe149fa3	-0.14514022
133	0xbd825ba2	-0.06365134
134	0x3e67e225	0.22644861
135	0xbcacf211	-0.02111152
136	0xbcc88857	-0.024479074
137	0xbca633c0	-0.020288348
138	0xbd912d93	-0.07088771
139	0xbb275e45	-0.0025538367
140	0x3e571336	0.21003422
141	0xbdc72f64	-0.09725836
142	0x3e0b7cda	0.13621846
143	0xbe38bc44	-0.18040568
144	0x3cb5b86b	0.022182664
145	0xbe02b8e9	-0.1276585
146	0xbdd5967d	-0.10429094
147	0x3d38ee10	0.04514891
148	0x3dac29c9	0.084064074
149	0xbe41084e	-0.18850824
150	0xbe1b9af3	-0.15195827
151	0x3d5a51d0	0.05330068
152	0xbe3cbb37	-0.18430792
153	0xbd7bbd40	-0.06145978
154	0xbcced69c	-0.025248818
155	0xbd871bbe	-0.06597088
156	0x3dfa9a78	0.12236494
157	0x3e3538da	0.17697468
158	0xbe2f0ac0	-0.17093945
159	0xbe115212	-0.14191464
160	0x3db8a31a	0.09015484
161	0xbd57b6c7	-0.052664544
162	0xbe86f7c3	-0.26360902
163	0xbd8ee0f6	-0.06976502
164	0x3e6ed0c1	0.23321821
165	0x3d84d925	0.064867295
166	0x3e43a03d	0.19104095
167	0xbe3fed24	-0.18742806
168	0x3e527a89	0.20554556
169	0xbe27dda2	-0.1639314
170	0xbe5c7165	-0.21527632
171	0xbd628664	-0.055303946
172	0x3e31f9d8	0.17380464
173	0xbe4a4809	-0.19754042
174	0xbe0cdff3	-0.13757305
175	0xbe10bb57	-0.14133964
176	0x3e41d803	0.18930058
177	0x3e3f03e7	0.18653832
178	0x3e50cfcd	0.2039177
179	0xbe407850	-0.18795896
180	0x3eddc97c	0.43317783
181	0xbf012014	-0.5043957
182	0xbd92d6f0	-0.07169902
183	0xbe19719f	-0.1498475
184	0x3e703a09	0.23459639
185	0xbd5a4f26	-0.053298138
186	0xbdcc891b	-0.09987088
187	0x3d9728c1	0.0738082
188	0xbe1d4099	-0.15356673
189	0x3e40ae46	0.1881648
190	0xbe2f12fa	-0.17097083
191	0x3b86ce83	0.0041139736
192	0x3da15a7c	0.07878587
193	0x3e06f6af	0.1318004
194	0xbdc4bcc3	-0.09606316
195	0xbe0c3f7e	-0.13696095
196	0x3e06183d	0.13095184
197	0x3de80915	0.11329857
198	0xbc5523d4	-0.01300903
199	0x3e4aa992	0.19791248
200	0x3ef41030	0.476686
201	0x3d97d22c	0.07413134
202	0xbd5c846c	-0.053837225
203	0x3ed33314	0.41249907
204	0xbe70a7ed	-0.23501559
205	0x3e5308e2	0.20608857
206	0x3ea9a71e	0.33135313
207	0x3da18124	0.0788596
208	0x3d99d999	0.075122066
209	0xbcf59819	-0.029979752
210	0xbe5928db	-0.21206991
211	0x3b35d280	0.0027743876
212	0x3ddd4e8a	0.10805996
213	0xbe3a9842	-0.18222144
214	0xbe5b65ea	-0.21425596
215	0xbd34ee6e	-0.044172697
216	0xbe1e0d8c	-0.15434855
217	0x3ed39ebe	0.41332048
218	0xbe7aefe8	-0.2450558
219	0xbe51672a	-0.2044951
220	0x3eb12730	0.3460021
221	0x3e343c04	0.17601019
222	0xbdb56b1c	-0.0885832
223	0x3ef8594c	0.48505628
224	0x3dd3be12	0.103389874
225	0xbe50106a	-0.20318761
226	0x3cf8d27d	0.030373806
227	0xbdeef86a	-0.11668475
228	0xbe7dd0d7	-0.24786697
229	0x3c80f0f3	0.015739894
230	0xbdba6c5b	-0.091026984
231	0x3d8ae49f	0.06781887
232	0xbe54d1c4	-0.20783144
233	0xbdbb12c7	-0.09134441
234	0x3eeed2d5	0.46645227
235	0x3e2ebb24	0.17063576
236	0xbd540fd0	-0.051772892
237	0x3eb3061d	0.34965602
238	0x38a7798d	7.985821e-05
239	0x3d428c9e	0.047497384
240	0xbee4cd8a	-0.44688064
241	0xbddc8d35	-0.107691206
242	0xbe8a60b7	-0.27026913
243	0xbe451467	-0.19246064
244	0x3df5e54d	0.12006626
245	0xbd001979	-0.031274293
246	0xbcb012fc	-0.021493427
247	0x3baa088f	0.0051890085
248	0x3df6f2f9	0.12058062
249	0x3ce2eaae	0.027699795
250	0xbddd0a4d	-0.1079298
251	0x3c81dcf7	0.015852435
252	0x3e2c7a45	0.16843517
253	0x3da43fb8	0.08019966
254	0x3cfbdb2f	0.030744163
255	0xbe326123	-0.17419867

backbone_net.visual_net.0.0.bias f4 [16]
0	0x3d42b204	0.04753305
1	0xbdb65505	-0.08902935
2	0xbe36638a	-0.17811409
3	0xbdb19a27	-0.0867198
4	0x3e417751	0.18893172
5	0xbd81b431	-0.06333197
6	0xbdda9c2c	-0.10674319
7	0xbd56bb70	-0.052424848
8	0x3e020f1e	0.12701079
9	0xbe412ab2	-0.18863943
10	0xbe1361b2	-0.14392737
11	0x3cb75113	0.022377526
12	0xbe1217c4	-0.14266878
13	0x3cd589ae	0.026066627
14	0x3e1f012f	0.15527795
15	0x3e2a42be	0.16627023

backbone_net.visual_net.1.0.weight f4 [32, 16, 3, 3]
0	0x3e048d82	0.12944606
1	0xbd52ba8c	-0.051447436
2	0x3d9e1f6f	0.07720839
3	0xbe05188b	-0.12997644
4	0xbc7a6809	-0.015283593
5	0x3e00837c	0.12550157
6	0xbe6df03f	-0.23236178
7	0xbc275733	-0.010213661
8	0xbe01ae91	-0.12664248
9	0x3df06674	0.117382914
10	0xbdca7d45	-0.098871745
11	0xbdb0cb77	-0.08632558
12	0xbe792431	-0.24330212
13	0x3ec9346a	0.392978
14	0x3c64bc1c	0.013960864
15	0xbf0188fc	-0.50599647
16	0xbe19a5fc	-0.15004724
17	0x3e832d84	0.25620663
18	0xbd550cbb	-0.052014094
19	0xbe46084a	-0.193391
20	0x3e38f570	0.18062377
21	0x3d46164b	0.048361104
22	0x3e25a646	0.1617671
23	0x3e57dec7	0.21081077
24	0xbdc93071	-0.098236926
25	0x3d4c604f	0.049896535
26	0x3ccdfd82	0.025145296
27	0xbe169726	-0.14706096
28	0x3d62a1f1	0.05533022
29	0x3da96bd2	0.08272518
30	0xbdeac72a	-0.11463769
31	0xbdea5cd3	-0.11443486
32	0x3e1e1522	0.15437749
33	0xbe825310	-0.25453997
34	0x3d8ccbc4	0.06874803
35	0x3de8b8f8	0.11363405
36	0x3d335de8	0.043790728
37	0x3d6cada5	0.057782788
38	0x3d634975	0.055489976
39	0x3abbdd41	0.0014332907
40	0x3e4022cc	0.18763274
41	0x3e1fa7ce	0.15591356
42	0xbe0331e5	-0.12812002
43	0x3d035475	0.032062966
44	0xbe355f3b	-0.17712109
45	0x3d43ca71	0.047800485
46	0x3d0c80b2	0.03430242
47	0x3e43a0e4	0.19104344
48	0xbd1e55bb	-0.038655978
49	0xbdf462de	-0.1193292
50	0x3d1bb524	0.038014546
51	0x3badd7e8	0.005305279
52	0xbd08b9b6	-0.033380233
53	0xbeb2b77f	-0.3490562
54	0xbd2e172e	-0.042502575
55	0x3e075f34	0.13219911
56	0xbcc258eb	-0.02372404
57	0x3e080241	0.1328211
58	0x3e5e0fb3	0.21685676
59	0x3e4bd064	0.19903713
60	0x3e0d9562	0.13826516
61	0xbae979f7	-0.0017812838
62	0x3eaa32f8	0.3324201
63	0x3e0d28b1	0.13785054
64	0xbdfbc974	-0.122942835
65	0xbbaff60e	-0.005369908
66	0xbdd91304	-0.1059933
67	0x3e69d10d	0.22833653
68	0xbd3a8000	-0.045532227
69	0xbd7a4764	-0.06110324
70	0xbdcd6c0f	-0.10030376
71	0x3c818155	0.01580874
72	0xbd2a31e5	-0.04155149
73	0x3db66b8b	0.08907231
74	0x3c1f2db4	0.009715486
75	0xbb03f018	-0.002013212
76	0x3d832622	0.06403758
77	0x3d2801c9	0.041017327
78	0xbd6244da	-0.055241443
79	0xbe22e4c0	-0.15907574
80	0xbc9a734d	-0.018853808
81	0xbd8d2faf	-0.068938605
82	0x3dcec73d	0.100965954
83	0x3e1da176	0.15393624
84	0x3d8afd78	0.067866266
85	0xbd256691	-0.040381018
86	0x3e94bd8a	0.29050857
87	0x3d93606b	0.07196125
88	0xbdeee0ef	-0.116639964
89	0x3e1096a0	0.14119959
90	0x3dacbac5	0.08434061
91	0x3dcad4a2	0.09903838
92	0xbd8002d8	-0.062505424
93	0xbe866722	-0.2625056
94	0x3e21abf0	0.15788245
95	0xbe26e8f3	-0.162998
96	0x3e2106ce	0.15725252
97	0xbe2c153d	-0.16804977
98	0x3de1b867	0.110215
99	0xbdeaf60a	-0.114727095
100	0xbdb43676	-0.0879945
101	0x3e23e222	0.16004232
102	0xbe4fa42d	-0.20277472
103	0xbda4cd6a	-0.08046992
104	0x3e06fe00	0.13182831
105	0xbe541d6a	-0.20714346
106	0xbc6d0354	-0.0144661255
107	0xbea4d387	-0.32192633
108	0xbe01538c	-0.12629527
109	0xbd28dade	-0.041224353
110	0x3e297a9d	0.1655068
111	0xbe330afa	-0.17484656
112	0xbc41bf5c	-0.011825409
113	0x3e310501	0.17287065
114	0x3cce3705	0.02517272
115	0x3c313473	0.0108157275
116	0xbe15cd37	-0.14629065
117	0x3dc5a040	0.09649706
118	0x3d06a619	0.032873247
119	0xbd9fddc4	-0.0780597
120	0xbe500144	-0.20312983
121	0x3e7d8237	0.24756704
122	0xbd355a16	-0.044275366
123	0xbe85f9bc	-0.26167095
124	0x3e00a96f	0.12564634
125	0x3d96c351	0.073614724
126	0xbd3439ba	-0.044000365
127	0xbc7efbe2	-0.015562983
128	0x3dcd7099	0.10031242
129	0xbd981b77	-0.074271135
130	0x3dcfc2a9	0.1014455
131	0x3dbc741d	0.09201834
132	0xbd47ceaf	-0.048781093
133	0xbdcbd269	-0.09952242
134	0xbe1403a2	-0.14454511
135	0x3dbb6edf	0.09152006
136	0x3e1a75f4	0.15084058
137	0x3e247f33	0.16064148
138	0xbd705108	-0.058671027
139	0x3cdcfb6a	0.026975352
140	0x3e0e6aa4	0.13907868
141	0xbe7b9b78	-0.24571025
142	0xbdeb12ae	-0.11478172
143	0x3e0956bc	0.13411993
144	0xbe9461ef	-0.28980967
145	0x3e238872	0.15970019
146	0x3cc68871	0.024234982
147	0xbe326627	-0.1742178
148	0x3db5af51	0.088713296
149	0xbc885860	-0.016643703
150	0xbd773e9f	-0.060362455
151	0x3d431acd	0.04763298
152	0xbdcf1a08	-0.10112387
153	0x3e0adf92	0.13561848
154	0x3de7653a	0.11298604
155	0x3d179869	0.037010584
156	0xbdb58b84	-0.08864501
157	0x3a6184da	0.0008602865
158	0x3d986a66	0.07442169
159	0xbd9962f4	-0.07489577
160	0xbdc3f210	-0.09567654
161	0x3cbc0f02	0.022956375
162	0x3ea1afab	0.31579337
163	0x3e5dba70	0.21653152
164	0x3e0fe425	0.14051874
165	0xbd9fefcf	-0.07809412
166	0x3dc6a90a	0.097002104
167	0x396444c7	0.00021769396
168	0xbe4cd80e	-0.20004293
169	0x3c9476b7	0.018123014
170	0x3d1aa47d	0.037754524
171	0xbc8f7d7a	-0.017515887
172	0xbe4e6228	-0.20154631
173	0x3c0da414	0.008645076
174	0x3e7842c5	0.2424422
175	0x3ccc29d6	0.024922293
176	0x3db6fec2	0.0893531
177	0xbdd1abbe	-0.10237835
178	0x3cf9fc09	0.030515688
179	0x3c6f56c7	0.014608092
180	0xbded867a	-0.11597915
181	0x3ddba44b	0.10724696
182	0x3da64152	0.081179276
183	0xbd275242	-0.04084993
184	0x3e33bda0	0.17552805
185	0xbd17b1b0	-0.03703469
186	0xbc262945	-0.010141675
187	0x3d0b5d99	0.03402481
188	0x3d2f4932	0.042794414
189	0xbe35ce8c	-0.17754573
190	0x3d8912ba	0.06693025
191	0x3d1be874	0.03806348
192	0xbbb1ddf3	-0.0054280697
193	0x3e2543f4	0.16139203
194	0x3dbb46df	0.09144377
195	0x3d094bd1	0.03351957
196	0x3e1cbb33	0.15305786
197	0x3d11c4a5	0.035587925
198	0x3e412ff5	0.1886595
199	0x3df7a141	0.120913036
200	0x3cab6e83	0.02092672
201	0x3d65c718	0.056098074
202	0x3db05b67	0.086111836
203	0x3c6da35a	0.014504278
204	0xbd8dd484	-0.069253
205	0xbd138d97	-0.036023702
206	0xbd021fcd	-0.03176861
207	0xbd27022c	-0.040773556
208	0x3cc323a0	0.023820698
209	0xbd9c51dc	-0.07632801
210	0xbd957c0f	-0.07299053
211	0xbd8a174c	-0.06742725
212	0x3c7992f7	0.015232793
213	0xbb854a9b	-0.0040677316
214	0xbd26edb4	-0.040754035
215	0xbdc9bd8f	-0.098506086
216	0x3bfc6430	0.007702373
217	0xbda7a11c	-0.08185026
218	0x3cbd72df	0.023126064
219	0xbd9a45d0	-0.07532847
220	0xbd1f4ae6	-0.038889788
221	0xbdb11fb2	-0.086486235
222	0x3d16e955	0.036843617
223	0xbdddd33c	-0.108313054
224	0xbcd8af3b	-0.026450744
225	0x3d14a498	0.03628978
226	0x3d610893	0.054939818
227	0x3deee257	0.11664265
228	0xbd91b70c	-0.071149915
229	0xbdba0d3f	-0.09084558
230	0xbd9969ba	-0.07490869
231	0xbe5b07d2	-0.21389702
232	0xbd5c460e	-0.053777747
233	0x3c961c0d	0.018323923
234	0x3eaf442d	0.34231701
235	0x3bdd8d65	0.0067612403
236	0xbcb4bd49	-0.022062914
237	0xbd534fec	-0.05158989
238	0x3e3feda8	0.18743002
239	0x3e19828d	0.14991207
240	0x3d9a57dd	0.0753629
241	0xbdebbc16	-0.11510484
242	0x3d0c245a	0.034214355
243	0xbdcf988c	-0.10136518
244	0x3d560ce7	0.0522584
245	0x3d6a7219	0.05723772
246	0xbcb15cac	-0.021650635
247	0x3e6f8d7b	0.23393814
248	0x3b199bfb	0.002343892
249	0xbce08af8	-0.027410015
250	0x3e747f7b	0.23876755
251	0xbd3292cc	-0.043597028
252	0xbbe6ca70	-0.0070431754
253	0x3db8120e	0.08987819
254	0x3d4fa80c	0.05069737
255	0x3da2513f	0.07925653

backbone_net.visual_net.1.0.bias f4 [32]
0	0x3d621255	0.055193264
1	0xbd504605	-0.050848026
2	0xbda9043b	-0.0825276
3	0xbd089515	-0.0333453
4	0x3d04c92b	0.03241841
5	0x3ae8fd80	0.0017775744
6	0x3cf7a76e	0.030231204
7	0x3d708045	0.058716077
8	0xbbd75227	-0.0065710726
9	0x3c5b7a86	0.013395911
10	0xbccf2d56	-0.025290173
11	0x3c26f741	0.010190786
12	0xbd3625a3	-0.044469487
13	0x3d8a3867	0.06749039
14	0xbc82428b	-0.01590087
15	0x3b17aa64	0.0023142332
16	0x3aef9857	0.0018279654
17	0xbd526182	-0.051362522
18	0xbcfe776f	-0.03106281
19	0xbd0361c3	-0.032075655
20	0xbcaf7cb7	-0.021421773
21	0x3c3289e3	0.010897133
22	0xbd5f702b	-0.05455033
23	0xbb536bdc	-0.0032260334
24	0x3dc99dbc	0.098445386
25	0x3c597d7d	0.013274548
26	0x3d007dfc	0.031370148
27	0x3d5436b5	0.051809985
28	0xbc10e617	-0.00884392
29	0xbd38f172	-0.045152135
30	0x3cf2ea3a	0.029652704
31	0x3c3afb7b	0.011412497

backbone_net.visual_net.2.0.weight f4 [64, 32, 3, 3]
0	0x3cc71445	0.024301657
1	0x3db004e1	0.085946806
2	0xbd6d6a90	-0.057962954
3	0xbdf2b9a9	-0.11851818
4	0x3c35a146	0.011085814
5	0x3c3286ff	0.010896443
6	0xbe2380cd	-0.15967102
7	0x3d829046	0.06375174
8	0x3bfd493b	0.007729677
9	0xbd996d02	-0.07491495
10	0x3c0f119f	0.008732229
11	0xbcf50669	-0.029910283
12	0xbd7eedab	-0.062238377
13	0x3d9e6346	0.07733779
14	0x3db61367	0.088904195
15	0x3c07f9ab	0.008299272
16	0x3dcb6bd1	0.09932674
17	0x3d6f5a59	0.05843577
18	0xbd65c37e	-0.05609464
19	0xbd1ebd43	-0.038754713
20	0x3d29060e	0.04126554
21	0xbd4e6ff7	-0.050399747
22	0x3cc71192	0.02430037
23	0xbdc5c3e2	-0.09656502
24	0xba6b83fd	-0.00089842064
25	0xbccb5d94	-0.024824895
26	0xbe129418	-0.14314306
27	0xbb8088e2	-0.0039225677
28	0x3c6e64e6	0.014550423
29	0x3d92246f	0.071358554
30	0xbd91d9c9	-0.07121617
31	0xbda7b670	-0.08189094
32	0x3dc20cea	0.094751194
33	0x3c849a0f	0.016186742
34	0xbdc970d3	-0.09835973
35	0xbe2bc5c3	-0.16774659
36	0xbdc7e68e	-0.09760772
37	0x3c80b82f	0.015712826
38	0xbd774270	-0.060366094
39	0xbc80dd26	-0.015730452
40	0xbd88195e	-0.066454634
41	0x3d028687	0.031866577
42	0xbd72a96d	-0.05924361
43	0xbdcfd626	-0.101482674
44	0xbd8c586e	-0.06852804
45	0xbd631af2	-0.05544562
46	0xbc23748d	-0.009976518
47	0x3d9f40e9	0.077760525
48	0xbddbe575	-0.10737125
49	0x3bb95dac	0.0056569185
50	0x3df64b04	0.12026027
51	0x3c8cfd9b	0.017210772
52	0x3cdc837c	0.026918165
53	0x3e1825c6	0.1485816
54	0x3d615ef9	0.055022214
55	0xbc60019c	-0.013672259
56	0x3e58e0dc	0.21179527
57	0x3dfd641f	0.12372612
58	0x3d9b78f3	0.075914286
59	0x3de15f2d	0.110044815
60	0x3d65adfa	0.05607412
61	0xbb25ec69	-0.0025317913
62	0xbda614cd	-0.08109436
63	0x3c974bed	0.018468821
64	0xbd676e3b	-0.05650161
65	0x3d0dc1c8	0.034608632
66	0xbd66a123	-0.056306016
67	0xbd6eb911	-0.05828196
68	0xbd120d14	-0.035657004
69	0xbc934414	-0.017976798
70	0xbd9cd912	-0.076585904
71	0xbdb525d3	-0.08845105
72	0xbe0c2d68	-0.13689196
73	0x3da963d8	0.08270997
74	0x3df147aa	0.11781247
75	0xbcb8d213	-0.022561109
76	0x3d9cae57	0.0765044
77	0x3d328446	0.043583177
78	0xbde31e35	-0.11089746
79	0x3c0c5a7d	0.008566496
80	0x3c76dd23	0.015067372
81	0xbcdc0d56	-0.026861828
82	0xbdd77612	-0.10520567
83	0x3df6a73f	0.120436184
84	0xbe32fe3f	-0.174798
85	0x3ced3a8d	0.028958583
86	0xbcc11904	-0.023571499
87	0xbd1a779f	-0.037711736
88	0xbe0afda1	-0.13573314
89	0x3e8b1e29	0.27171448
90	0x3baa1e18	0.0051915757
91	0x3d67edd7	0.056623306
92	0x3c344046	0.011001652
93	0xbccdf661	-0.025141897
94	0xbc8ccbd2	-0.017187033
95	0xbc754e5d	-0.014972297
96	0x3d5b102e	0.053482227
97	0xbcb5c056	-0.02218644
98	0xbe0662ab	-0.13123576
99	0x3d5d7514	0.054066733
100	0x3ce288be	0.027653094
101	0x3db01ff9	0.08599848
102	0xbd46f90b	-0.04857735
103	0x3d32ad98	0.043622583
104	0x3e0ea1f8	0.13928974
105	0xbd983993	-0.074328564
106	0x3da3514e	0.07974492
107	0x3da42bc0	0.08016157
108	0xbd2b4c89	-0.041821036
109	0xbd55a2ec	-0.052157328
110	0x3d7da86d	0.0619282
111	0xbb371a9b	-0.0027939442
112	0xbd5f66e1	-0.054541472
113	0x3d864f72	0.06558122
114	0xbdf6268f	-0.12019073
115	0x3d6cafe4	0.05778493
116	0x3e2acb1c	0.16679043
117	0xbc583d2f	-0.013198181
118	0xbdcdd205	-0.10049824
119	0xbda6a898	-0.081376255
120	0xbc89ed7d	-0.016836876
121	0xbd587da2	-0.052854188
122	0xbc8a633e	-0.016893025
123	0xbccf1a90	-0.02528122
124	0x3d1aadc4	0.037763372
125	0xbdd96d3e	-0.106165394
126	0x3d093cc8	0.03350523
127	0xbce0d086	-0.027443182
128	0x3d0ccc96	0.034374796
129	0x3d44dec6	0.048064016
130	0x3d137a76	0.03600546
131	0xbd5401a6	-0.051759385
132	0xbd0ca8ef	-0.034340795
133	0xbc29c793	-0.010362524
134	0x3d547df7	0.051877942
135	0xbbdcc2b6	-0.0067370785
136	0x3e0d6005	0.1380616
137	0x3cb25ce6	0.021772813
138	0xbddb03d7	-0.10694092
139	0x3d85cd04	0.06533244
140	0x3d425d7f	0.047452446
141	0x3c6a038e	0.014283074
142	0x3e197f1a	0.14989892
143	0x3d4232bd	0.04741167
144	0xbcae9cb5	-0.021314958
145	0xbd694d78	-0.056958646
146	0x3c93fdda	0.018065382
147	0x3c8e22ca	0.017350573
148	0xbd89890d	-0.067155935
149	0x3d6b1f79	0.05740306
150	0xbd1cc4c3	-0.038273584
151	0xbcd23153	-0.025658285
152	0x3cc6aedf	0.024253307
153	0xbca07900	-0.019588947
154	0xbd238083	-0.03991748
155	0x3ddb7f77	0.10717671
156	0xbd3af14b	-0.04564027
157	0x3d591810	0.053001463
158	0x3c7ae3d1	0.015313105
159	0x3b1528be	0.002275988
160	0xbd3616ed	-0.044455457
161	0xbc09f1b4	-0.008419443
162	0x3dc96964	0.09834555
163	0x3d4fef15	0.050765116
164	0xbd021180	-0.03175497
165	0xbdf774d6	-0.120828316
166	0xbdac05b1	-0.08399523
167	0xbd9990f7	-0.07498353
168	0xbd6a3d1e	-0.057187192
169	0xbd140b1e	-0.036143415
170	0x3caa105e	0.020759758
171	0xbc02f98d	-0.007994068
172	0xbc03ca27	-0.008043802
173	0x3bc3ef28	0.0059794374
174	0xbd3caa51	-0.046060864
175	0x3c55b213	0.0130429445
176	0x3c0bcbc4	0.008532468
177	0xbc7d8566	-0.015473699
178	0xbc06ac99	-0.008219861
179	0x3c9a6238	0.018845662
180	0xbe535e25	-0.20641382
181	0x3d5db5a5	0.054128308
182	0x3c6686d0	0.014070228
183	0x3d132aee	0.035929613
184	0x3dc804ac	0.09766516
185	0xbdd425f5	-0.10358802
186	0x3d672359	0.056430195
187	0xbd49afea	-0.04924003
188	0xbd316ac4	-0.04331471
189	0x3c78e33e	0.0151908975
190	0x3d44e061	0.048065547
191	0xbd499f67	-0.049224284
192	0xbd11ae5f	-0.035566684
193	0x3d4c3be1	0.049861792
194	0xbc88ceb1	-0.01670012
195	0x3ca812b2	0.020516727
196	0xbc34ad13	-0.011027592
197	0xbca741f3	-0.02041719
198	0xbda84e09	-0.08218009
199	0x3e13cca3	0.14433531
200	0xbc7c84be	-0.015412508
201	0xbb5524f0	-0.0032523237
202	0x3d004b54	0.03132184
203	0x3c87863a	0.016543496
204	0x3b8f072e	0.0043648696
205	0x3dad0a69	0.08449251
206	0x3c8c5517	0.017130418
207	0xbd986621	-0.074413545
208	0xbc1e0e06	-0.009646898
209	0x3d4af9b2	0.049554534
210	0xbdf8921c	-0.12137243
211	0xbd830dfc	-0.06399152
212	0xbcb78327	-0.022401405
213	0x3cf0e9ea	0.029408414
214	0x3df4fc5c	0.11962196
215	0x3e0257d9	0.12728824
216	0xbdfb5094	-0.122712284
217	0xbd38d2a8	-0.045122772
218	0xbda5da7b	-0.080983125
219	0xbded5c62	-0.11589886
220	0xbdbba9db	-0.09163257
221	0xbe04490e	-0.12918493
222	0xbd2a4025	-0.04156508
223	0xbe7b5e4d	-0.24547692
224	0x3df2e3fb	0.1185989
225	0xbd3817c1	-0.04494453
226	0x3d089609	0.03334621
227	0xbd00fdd1	-0.03149206
228	0x3b032bb3	0.002001506
229	0x3d7399c6	0.05947282
230	0x3d8385c8	0.06422001
231	0x3d309d60	0.043118834
232	0x3cee6746	0.029101979
233	0x3d0acfce	0.033889584
234	0xbdbf0d8f	-0.09328758
235	0x3dc3cc61	0.095604666
236	0x3d459288	0.048235446
237	0xbd44c41b	-0.048038583
238	0x3d066af9	0.03281686
239	0x3d1a6536	0.03769418
240	0xbdbadfb5	-0.091247
241	0xbcb5a1ab	-0.022171816
242	0x3df32e6d	0.118740894
243	0xbd39fecb	-0.045409005
244	0xbd7bb232	-0.061449237
245	0xbd7489a2	-0.05970157
246	0xbc0234e1	-0.007947178
247	0xbd8bd7b3	-0.06828251
248	0xbce7906d	-0.02826711
249	0x3c836026	0.016037058
250	0xbd91cd9e	-0.071192965
251	0x3bcbb9ad	0.0062172026
252	0x3d2e52e9	0.042559538
253	0xbc840813	-0.016117131
254	0xbd855d08	-0.06511885
255	0xbd34bdbe	-0.044126265

backbone_net.visual_net.2.0.bias f4 [64]
0	0xbd82e16b	-0.06390651
1	0xbd94f2c5	-0.07272867
2	0x3d95453b	0.07288595
3	0x3ccdb98c	0.02511289
4	0x3c81d3a8	0.015847996
5	0x3c46ce7b	0.01213419
6	0x3bbbad55	0.00572745
7	0x3c897c81	0.016783
8	0x3c43f897	0.011961124
9	0xbbdf4022	-0.006813065
10	0x3da950c5	0.08267359
11	0xbc829c45	-0.015943656
12	0xbc8f86b9	-0.017520295
13	0x3d5ad784	0.053428188
14	0xbcd30d69	-0.02576323
15	0x3d1dc97d	0.038522232
16	0xbca3c1a2	-0.019989792
17	0xbcddcd4f	-0.027075438
18	0xbd483e10	-0.048887312
19	0x3b9f5181	0.004862011
20	0xbd84fc89	-0.0649348
21	0xbd21a498	-0.03946361
22	0x3d84df58	0.06487912
23	0xbd32e7e8	-0.043678194
24	0xbd8019ff	-0.06254958
25	0xbadb67f7	-0.0016739358
26	0x3cea9678	0.028636202
27	0x3d72925e	0.059221618
28	0xbd2ce03b	-0.04220603
29	0x3daaa4ff	0.08332252
30	0xbdd3bdd0	-0.10338938
31	0xbd485367	-0.048907664
32	0x3cf583d5	0.029970089
33	0x3d76eb8e	0.060283236
34	0xbd7f5f00	-0.06234646
35	0xbd723f08	-0.059142143
36	0xbd8c5156	-0.06851451
37	0xbc8d0b64	-0.017217346
38	0xbbeac386	-0.0071644215
39	0x3cdde658	0.027087376
40	0x3d8ce551	0.06879676
41	0xbd636565	-0.05551662
42	0xbccc0c0d	-0.02490809
43	0x397755a6	0.00023587662
44	0xbccd99a5	-0.025097677
45	0xbd1a7f2e	-0.037718944
46	0xbc89865c	-0.0167877
47	0x3cba9d7a	0.022780169
48	0xbd200e94	-0.039076403
49	0x3d341b1b	0.043971162
50	0xba979b4a	-0.0011566665
51	0x3cea32d4	0.02858869
52	0xbd2fabff	-0.042888638
53	0xbc8be80e	-0.017078426
54	0xbd7d73da	-0.061878063
55	0xbc8c7e8a	-0.017150182
56	0xbd1c906d	-0.038223673
57	0x3cc7afc3	0.024375802
58	0xbcadbf7b	-0.021209469
59	0xba7c37fd	-0.000962138
60	0xbd65b2a2	-0.05607856
61	0xbd312a93	-0.043253493
62	0x3c3db99b	0.011579896
63	0x3b6d387d	0.0036197

backbone_net.visual_net.3.0.weight f4 [8, 64, 3, 3]
0	0xbd450f53	-0.048110317
1	0x3bee9521	0.007280961
2	0xbcfda390	-0.030961782
3	0xbd2829ad	-0.04105537
4	0xbde006e5	-0.10938815
5	0xbd4fe2c3	-0.050753366
6	0x3d311e8b	0.04324202
7	0xbda0cf54	-0.07852045
8	0xbd335482	-0.043781765
9	0xbb0ce710	-0.0021500029
10	0x3c99210c	0.018692516
11	0x3a6c4edf	0.0009014438
12	0x3c5b6fd6	0.013393363
13	0xbcc5f18a	-0.024163026
14	0xbd216ac1	-0.03940845
15	0x3d25601a	0.040374853
16	0xba842d09	-0.0010084222
17	0xbb8dd516	-0.0043283803
18	0x3c348da3	0.011020097
19	0x3db1c155	0.08679453
20	0x3d70170c	0.05861573
21	0x3b9470da	0.0045300545
22	0xba91cd34	-0.0011123777
23	0xbcf592af	-0.02997717
24	0x3d953844	0.072861224
25	0x3d4e22d6	0.05032619
26	0x3d1bf659	0.038076732
27	0xbb77a914	-0.0037789987
28	0x3d2216dd	0.039572585
29	0xbd6fb809	-0.05852512
30	0xbce76960	-0.028248489
31	0x3cfb3c31	0.03066835
32	0xbd1e9d9b	-0.038724523
33	0xbbcd09c0	-0.006257266
34	0x3c987e3f	0.018614886
35	0xbd2dda3d	-0.042444456
36	0x3d2246ec	0.039618418
37	0x3dba8d1d	0.091089465
38	0xbdb0346a	-0.08603747
39	0x3d016411	0.03158957
40	0xbd4b3f5c	-0.04962097
41	0xbd701b26	-0.05861964
42	0xbe9b7900	-0.30365753
43	0x3e56c3d0	0.20973134
44	0xbc670e1f	-0.014102488
45	0xbcf6641d	-0.030077035
46	0x3b8efd23	0.0043636723
47	0xbb77d1fe	-0.0037814374
48	0x37d46d0b	2.5323146e-05
49	0x3c88cc90	0.016699106
50	0x3bbb2cb5	0.0057121166
51	0xb8ca5e42	-9.6496675e-05
52	0xbc325091	-0.010883466
53	0xbcc0a172	-0.023514483
54	0xbdfd9654	-0.123821884
55	0xbd307c5b	-0.043087345
56	0x3c6b536a	0.014363149
57	0x3dde1251	0.10843337
58	0xbd759b93	-0.05996282
59	0xbcb8708d	-0.022514606
60	0x3d3485db	0.044072967
61	0xbd57380b	-0.05254368
62	0xbcaf79ae	-0.021420326
63	0xbc6f0a2c	-0.0145898275
64	0x3ad317f0	0.0016105156
65	0x3c06fdf8	0.008239262
66	0x3d578ec0	0.05262637
67	0x3acdac2b	0.0015691569
68	0xbb7e4a26	-0.003880152
69	0x3cb8fff0	0.022582978
70	0xbca88ce8	-0.020575002
71	0xbcc5f6e8	-0.024165586
72	0x3d473c3f	0.04864144
73	0xbd83a1e1	-0.0642736
74	0x3c482ca8	0.012217678
75	0xbd619946	-0.055077814
76	0xbd3cf4bd	-0.046131838
77	0xbd218129	-0.039429817
78	0x3d4e1154	0.050309494
79	0xbd6c87ce	-0.0577467
80	0xbd5a8469	-0.053348932
81	0xbc94733a	-0.01812135
82	0xbd352226	-0.04422202
83	0x3db9e744	0.090773135
84	0xbcb7b3c1	-0.02242458
85	0xbd911587	-0.07084184
86	0x3c103096	0.008800646
87	0x3d87d615	0.0663263
88	0x3dc4e25e	0.096134886
89	0xbce908c9	-0.028446572
90	0x3d013f40	0.03155446
91	0x3e019c2f	0.12657236
92	0x3a990baa	0.001167645
93	0x3b81384b	0.003943478
94	0xbd7fb096	-0.062424265
95	0xbddc4aff	-0.10756492
96	0xbd21e7a9	-0.03952757
97	0xbe0899a7	-0.13339864
98	0x3dc82a9c	0.09773752
99	0xbdef279d	-0.116774775
100	0xbc1060af	-0.008812114
101	0x3d04f014	0.03245552
102	0x3e8912d8	0.2677219
103	0xbe09117e	-0.13385579
104	0x3c048ad4	0.00808974
105	0x3e0da728	0.13833296
106	0x3e5ea0da	0.21741048
107	0x3ba9df4b	0.0051840893
108	0xbb5d2141	-0.0033741745
109	0xbd651259	-0.0559257
110	0x3d8339f5	0.06407539
111	0x3ce5bab8	0.028043136
112	0xbcf2e14d	-0.029648447
113	0xbe090fcb	-0.13384931
114	0xbb9285e3	-0.004471527
115	0x3d6fa153	0.05850346
116	0xbd874f0e	-0.06606875
117	0x3daa4144	0.0831323
118	0xbc839cac	-0.016065918
119	0x3c3c6e96	0.011500975
120	0xbd27140e	-0.04079061
121	0xbda49ba5	-0.08037499
122	0x3bf60875	0.0075083324
123	0x3d5beb4a	0.053691186
124	0xbd888a76	-0.06667034
125	0xbc07fb8b	-0.008299719
126	0xbd44938e	-0.04799228
127	0xbd0ef1d3	-0.03489859
128	0xbe27a0ef	-0.16369985
129	0xbdb70e9e	-0.08938335
130	0xbd801caa	-0.06255467
131	0xbd2e1867	-0.04250374
132	0xbd1d8047	-0.038452413
133	0xbd11f42d	-0.035633255
134	0xbe1ca453	-0.1529706
135	0xbcf43811	-0.02981189
136	0x3dc6e2b6	0.097112104
137	0x3dd38598	0.10328215
138	0xbdb392d7	-0.08768242
139	0xbc09c1a9	-0.008407989
140	0xbd1d09dc	-0.03833948
141	0xbe41d6b0	-0.18929553
142	0x3cbf26d8	0.023333952
143	0x3c35bbd1	0.011092142
144	0xbbd93670	-0.006628804
145	0x3ccbaed1	0.024863632
146	0xbafca7ff	-0.0019276141
147	0xbc47fda0	-0.012206465
148	0xbe25d2b6	-0.16193661
149	0x3c5959db	0.013266052
150	0xbd645dc9	-0.055753503
151	0xbe63ec4c	-0.22258109
152	0xbd1df483	-0.038563263
153	0xbc9c3b29	-0.019071179
154	0x3c61d5ce	0.013783885
155	0xbaac09ef	-0.0013125519
156	0xbdbe2e19	-0.09286136
157	0xbd56f02c	-0.05247514
158	0xbda77d7d	-0.08178232
159	0xbd8f90e6	-0.07010059
160	0x3bbd3b6e	0.005774907
161	0xbdf21d98	-0.11822051
162	0xbc9e916e	-0.019356456
163	0x3c95f4c4	0.01830519
164	0xbc900f1f	-0.017585335
165	0xbc4f33a3	-0.0126465885
166	0xbc9d9516	-0.019236129
167	0x3d0c4dd6	0.034253918
168	0x3c5f3f00	0.01362586
169	0x3c25c833	0.010118532
170	0x3c9904bc	0.018679015
171	0xbb2e57f7	-0.0026602724
172	0x3c931a76	0.017956953
173	0xbc13d83d	-0.009023723
174	0xbdb83906	-0.08995251
175	0xbd4637f5	-0.04839321
176	0xbde417b8	-0.111373365
177	0xbe727040	-0.23675632
178	0xbe07120c	-0.13190478
179	0xbd9e7b3d	-0.077383496
180	0xbda4a24d	-0.08038769
181	0xbda2772e	-0.07932888
182	0xbd41e4e9	-0.047337446
183	0x3d83c071	0.0643319
184	0x3bdb6207	0.0066950354
185	0xbdd7a81c	-0.10530111
186	0x3e339d82	0.17540553
187	0xba9bc743	-0.0011884946
188	0x3dce4a70	0.100727916
189	0xbdb21357	-0.08695095
190	0xbc789f04	-0.015174631
191	0xbd983bf5	-0.07433311
192	0x3d1b3ea9	0.037901554
193	0xbcac973b	-0.021068206
194	0xbd1aa7d8	-0.037757725
195	0xbda7c317	-0.08191507
196	0x3e36b714	0.17843276
197	0xba84946b	-0.0010115033
198	0xbd59e5bc	-0.053197607
199	0xbcf2d852	-0.029644165
200	0xbd0330fe	-0.032029144
201	0xbd553954	-0.052056625
202	0x3c845998	0.016156003
203	0xbd03244c	-0.032017037
204	0x3dcd1def	0.10015475
205	0x3d3b3723	0.04570688
206	0x3d6df685	0.058096427
207	0xbc18e30b	-0.009331475
208	0x3db94855	0.09046999
209	0xbd3ee868	-0.04660836
210	0xbbe32771	-0.006932192
211	0xbc9881ef	-0.018616645
212	0xbccda04c	-0.02510085
213	0xbddad062	-0.10684277
214	0xbcb3f0cf	-0.021965412
215	0xbe02d3c4	-0.12776095
216	0xbc59e260	-0.013298601
217	0x3c39e6cc	0.01134653
218	0xbbfe83a6	-0.0077671586
219	0x3c7184f3	0.01474117
220	0x3c6e11f5	0.0145306485
221	0x3c14eab1	0.009089158
222	0x3c2e6a9f	0.010645538
223	0xbd6eed34	-0.058331683
224	0xbd15dd19	-0.03658781
225	0xbdd54245	-0.104130305
226	0x3ce28206	0.02764989
227	0xbda3ae39	-0.07992215
228	0x3d087a33	0.033319663
229	0xbdb4df99	-0.0883171
230	0x3d9e17a8	0.07719356
231	0xbcc1ad62	-0.023642246
232	0xbf0d7a3b	-0.55264634
233	0x3e3b8db0	0.18315768
234	0x3d5bef55	0.05369504
235	0xbc8b648c	-0.017015718
236	0x3d49f190	0.049302638
237	0x3c99018f	0.018677501
238	0xbd0b3455	-0.033985455
239	0x3add8c6d	0.0016902812
240	0xbd3efd78	-0.046628445
241	0xbd7f44fe	-0.062321655
242	0x3c7f800b	0.015594493
243	0x3d051116	0.032486998
244	0x3ba65284	0.0050757546
245	0xbb77555b	-0.0037740085
246	0xbbd51fe5	-0.0065040463
247	0xbc03857a	-0.008027429
248	0x3c5631ef	0.0130734285
249	0x3d52bf76	0.051452123
250	0x3ca04743	0.01956523
251	0x3d3b2ca2	0.045696862
252	0x3d805c56	0.06267612
253	0x3cb5add9	0.022177624
254	0x3d3094bb	0.04311059
255	0xbd1d7fd7	-0.038451996

backbone_net.visual_net.3.0.bias f4 [8]
0	0x3d18f29b	0.03734074
1	0x3d2596db	0.04042707
2	0x3dd65453	0.10465302
3	0x3cb7cd96	0.022436898
4	0x3cf0ed0e	0.029409911
5	0x3dd6a12b	0.10479959
6	0xbd45bffa	-0.048278786
7	0x3dd0d654	0.1019713

merge_net.0.0.weight f4 [128, 128]
0	0xbdac8532	-0.084238425
1	0xbdcf8e5d	-0.101345755
2	0x3cbc7b2b	0.02300795
3	0xbab45626	-0.0013758584
4	0xbdba92a1	-0.091099985
5	0xbc0cc5a0	-0.008592039
6	0xbb454e66	-0.0030106544
7	0xbdb4d0d7	-0.088288955
8	0xbd85f3d7	-0.065406494
9	0x3c0c831b	0.00857618
10	0xbd3095a7	-0.04311147
11	0xbc605f0a	-0.013694534
12	0x3c800589	0.01562764
13	0xbc01b489	-0.007916578
14	0xbdb0c59e	-0.086314425
15	0x3ca0e314	0.01963953
16	0x3c964a32	0.018345926
17	0x3c12af11	0.008952872
18	0xbd6974aa	-0.056996025
19	0x3d7d22ec	0.061800882
20	0x3b561bcc	0.0032670377
21	0x3cb541d5	0.022126118
22	0xbdb2c11f	-0.08728241
23	0xbd1a2eb6	-0.037642203
24	0xbd8cc158	-0.06872815
25	0xbcfdb982	-0.030972246
26	0x3d0edea4	0.034880295
27	0x3d344731	0.044013206
28	0x3b426f0b	0.0029668238
29	0xbd6e6857	-0.058204975
30	0x3d57c94f	0.052682217
31	0xbca5c040	-0.020233274
32	0xbc5343fb	-0.012894626
33	0xbddb54ad	-0.1070951
34	0xbd9d2857	-0.0767371
35	0xbddf6bf4	-0.10909262
36	0xbdfb2285	-0.122624435
37	0xbc48a4e1	-0.012246341
38	0xbdee34db	-0.11631175
39	0x3c85c6c2	0.016330127
40	0xbc4de13d	-0.012565908
41	0x3c98540e	0.018594768
42	0xbd6ba3a0	-0.05752909
43	0xbdac3a36	-0.0840954
44	0xbd6c25b8	-0.05765316
45	0xbc929c54	-0.017896809
46	0xbdc6eb17	-0.097128086
47	0xbd419b3b	-0.04726718
48	0x3d39a36f	0.045321878
49	0x3c1d401e	0.009597806
50	0x3d0521bf	0.032502886
51	0xbdad1b98	-0.08452529
52	0xbd49b065	-0.04924049
53	0x3d39aa07	0.045328166
54	0x3d20bf4d	0.03924494
55	0x3d82b964	0.06383017
56	0x3d67865f	0.05652463
57	0xbdaea3f3	-0.085273646
58	0x3ab2e09d	0.0013647262
59	0xbd5c8ffd	-0.053848255
60	0x3ca0b3c9	0.019616978
61	0x3d0f81d2	0.035035916
62	0xbd76c921	-0.060250405
63	0xbd317db9	-0.04333279
64	0x3d98f130	0.07467878
65	0xbd9ba602	-0.07600023
66	0xbc8e0e42	-0.017340783
67	0xbda07e42	-0.07836582
68	0x3d859864	0.06523207
69	0xbdb4fe51	-0.088375695
70	0xbcddabe5	-0.027059505
71	0xbd2e8355	-0.042605717
72	0x3d8446ce	0.064588174
73	0xbdb0ac7c	-0.08626649
74	0x3d1565ff	0.036474224
75	0xbca1fd34	-0.019774057
76	0xbb3c99a9	-0.0028778112
77	0x3cdcc8ad	0.026951158
78	0xbc05e67c	-0.008172628
79	0x3ce98f7b	0.0285108
80	0xbca752c0	-0.0204252
81	0xbde1e038	-0.110290945
82	0x3ccca364	0.024980254
83	0x3a6d3c06	0.00090497767
84	0xbdcdd029	-0.10049469
85	0xbda70b39	-0.081564374
86	0xbd435b50	-0.047694504
87	0x3cd8866f	0.02643129
88	0xbb096778	-0.0020966213
89	0xbcf0970f	-0.029368905
90	0xbd68bfb6	-0.056823455
91	0xbd844069	-0.06457598
92	0xbc115daf	-0.008872434
93	0xbcb53373	-0.02211926
94	0x3d3d44b7	0.04620811
95	0xbcb953a9	-0.0226229
96	0xbd238533	-0.03992195
97	0xbd3eedba	-0.046613432
98	0xbbad0a29	-0.005280752
99	0xbd1d9f55	-0.03848203
100	0xbd064452	-0.03278
101	0x3d93ccdc	0.07216808
102	0xbb65b621	-0.0035051184
103	0xbb16ff2d	-0.002304028
104	0xbdcb1511	-0.099161275
105	0xbd40983d	-0.047020186
106	0x3d835e04	0.064144164
107	0x3c763075	0.0150262015
108	0xbccc3ed8	-0.02493231
109	0xbbaf8902	-0.005356909
110	0xbd04e825	-0.032447953
111	0xbd2bb00d	-0.041915942
112	0x3cf2a3e0	0.029619157
113	0xbca390a3	-0.01996643
114	0xb83aed80	-4.4567045e-05
115	0xbd6fed3d	-0.058575857
116	0xbdc038e3	-0.0938585
117	0xbc3baba9	-0.011454501
118	0x3d045bbf	0.03231406
119	0xbd9a9fa8	-0.07549983
120	0x3d7155c0	0.05891967
121	0xbd5707b7	-0.05249759
122	0xbcee86b1	-0.02911696
123	0x3d875208	0.06607443
124	0xbd930a10	-0.07179654
125	0x3cfd126c	0.030892573
126	0xbdca8b12	-0.09889807
127	0xb8c38af0	-9.324204e-05
128	0xbcc68005	-0.024230966
129	0x3c11a76e	0.008890016
130	0xbdd1694e	-0.102251634
131	0xbb038008	-0.0020065326
132	0xbc1e4981	-0.009661079
133	0xbc7c83f7	-0.015412322
134	0xbba2dfed	-0.0049705417
135	0xbe024179	-0.12720288
136	0x3d2a3346	0.041552804
137	0x3ec37a42	0.38179213
138	0x3d690203	0.056886684
139	0xbd97ea3a	-0.07417722
140	0x3d1fbde5	0.038999457
141	0x3e094d09	0.13408293
142	0x3dcb5557	0.09928387
143	0x3ca7e676	0.020495635
144	0x3d35e7c5	0.044410486
145	0xbd9b60b1	-0.07586802
146	0xbda082ff	-0.078374855
147	0xbd849ef7	-0.06475633
148	0x3c766666	0.015039062
149	0x3ccf0b33	0.025273895
150	0xbc49063a	-0.012269551
151	0x3dbd239c	0.092353076
152	0xb9d224f8	-0.00040081865
153	0x3c8e85fa	0.01739787
154	0xbdd39b69	-0.103323765
155	0xbddb620a	-0.10712059
156	0xbdb386e8	-0.08765966
157	0xbd94ae9c	-0.072598666
158	0x3d842592	0.064524785
159	0xbdc5e1ba	-0.096621946
160	0xbd8dcdc1	-0.0692401
161	0xbd8fead9	-0.070272155
162	0xbdcecf88	-0.10098177
163	0xbdcd0c37	-0.100120954
164	0xbd20c111	-0.039246622
165	0xbe0500a9	-0.12988533
166	0xbdc7ee89	-0.09762294
167	0x3c7a7dd8	0.015288793
168	0xbd4be6f1	-0.04978079
169	0x3ccb9f81	0.02485633
170	0x3d986a39	0.07442135
171	0xbd529d32	-0.051419444
172	0x3d1d9deb	0.03848068
173	0x3da7671d	0.08173964
174	0xbdbbfc95	-0.091790356
175	0x3c769ad1	0.01505156
176	0xbd8a1574	-0.06742373
177	0xbd79069e	-0.060797326
178	0xbcbe1db0	-0.023207515
179	0xbe3b9cce	-0.18321535
180	0xbc754333	-0.014969635
181	0xbe3b5994	-0.1829589
182	0x3e6ea3c3	0.23304658
183	0x3d13e630	0.036108196
184	0x3c93d6df	0.018046794
185	0xbda88b73	-0.08229723
186	0x3d89f798	0.06736678
187	0x3c5b33bd	0.013379035
188	0x3e6e7eed	0.23290606
189	0x3d049cef	0.032376226
190	0x3c7a4fd8	0.015277825
191	0xbc7990ec	-0.015232306
192	0x3d829cdc	0.06377575
193	0x3d11e4f9	0.035618756
194	0x3d4b0ba7	0.04957166
195	0xbb4eddf3	-0.0031565398
196	0x3b42f5e6	0.0029748618
197	0xbd30dfc4	-0.04318215
198	0xbd5a3b9c	-0.053279504
199	0x3e2f3130	0.17108607
200	0x3e19a72e	0.1500518
201	0xbd8bd8dd	-0.06828473
202	0xbde6b59d	-0.11265109
203	0x3e069117	0.13141285
204	0x3d1274e6	0.035756014
205	0xbcabebea	-0.020986516
206	0xbdd28428	-0.10279113
207	0xbdc3e208	-0.095645964
208	0x3d7f0e66	0.06226959
209	0xbd1de76c	-0.03855078
210	0x3d0176b9	0.031607363
211	0xbd878c31	-0.06618536
212	0xbccd778f	-0.025081424
213	0x3d5461ce	0.051851086
214	0xbd05d365	-0.032672305
215	0xbd44268f	-0.047888335
216	0x3c6b9a0e	0.014379991
217	0x3eaae7a9	0.33379868
218	0xba3075e6	-0.00067314354
219	0xbde19a77	-0.1101579
220	0xbd6a94b5	-0.057270724
221	0x3dbb37ad	0.09141479
222	0x3d86f233	0.065891646
223	0xbd4989a5	-0.049203534
224	0xbc64cfd6	-0.013965568
225	0x3dd617a1	0.104537256
226	0xbdd69097	-0.10476797
227	0xbd14cabf	-0.036326166
228	0xbcb8c7fe	-0.022556301
229	0x3b265dff	0.0025385616
230	0x3bb539f2	0.0055305893
231	0xbd83d5f0	-0.0643729
232	0x3d56b2a0	0.052416444
233	0x3d12e4d0	0.035862744
234	0xbdaeadf0	-0.0852927
235	0x3df8065e	0.121105894
236	0x3d3f033c	0.046633944
237	0xbe80c1e0	-0.25147915
238	0xbdd27606	-0.102764174
239	0x3d2d38b5	0.04229041
240	0xbe096e68	-0.13421023
241	0xbde0781e	-0.109604105
242	0xbc2b6f41	-0.010463537
243	0xbd07d9e5	-0.033166785
244	0xbcdeed77	-0.027212841
245	0xbde9daa1	-0.11418653
246	0x3e3bec47	0.18351851
247	0xbe46644c	-0.19374198
248	0xbd306a16	-0.04306992
249	0x3dbe0d33	0.09279861
250	0xbe0265fa	-0.12734213
251	0x3e278d3b	0.16362469
252	0x3d0e1029	0.03468338
253	0x3d857cbd	0.065179326
254	0xbe3e3ffe	-0.18579099
255	0x3d00a310	0.03140551

merge_net.0.0.bias f4 [128]
0	0x3a96fe09	0.00115198
1	0xbd85a32d	-0.06525264
2	0x3d7b191b	0.06130324
3	0xbe0b2849	-0.13589586
4	0x3db9e19f	0.09076237
5	0x3bcd3faf	0.006263695
6	0x3cee0e8c	0.02905967
7	0xbcb9006b	-0.022583207
8	0xbd5a64ae	-0.053318672
9	0x3cb43b04	0.022000797
10	0xbce5302e	-0.027977075
11	0x3cdbddcd	0.026839161
12	0xbc54d09b	-0.012989189
13	0xbd720a9e	-0.059092157
14	0x3de0e0da	0.10980387
15	0x3dd983bf	0.10620832
16	0x3daaa5ed	0.08332429
17	0xbb849d1c	-0.004047049
18	0xbd6248bc	-0.055245146
19	0xbd93e5a2	-0.07221533
20	0xbd9f1194	-0.07767025
21	0x3dbd256f	0.092356555
22	0xbd8dd793	-0.06925883
23	0xbdc5f907	-0.09666639
24	0xbc2f18bb	-0.010687049
25	0xbdaf687e	-0.08564852
26	0x3ce61ee2	0.028090898
27	0xbdcae3ba	-0.09906717
28	0x3d55d545	0.052205343
29	0x3e7b025e	0.24512622
30	0x3d3c6dc4	0.04600312
31	0xbcb26f97	-0.021781726
32	0xbd4d48ff	-0.050118443
33	0xbdbd38ce	-0.0923935
34	0x3d0bf112	0.03416545
35	0x3d320836	0.04346486
36	0xbd574c81	-0.052563194
37	0x3d18ae18	0.037275404
38	0xbd47fd2e	-0.048825435
39	0xbdad5c98	-0.084649265
40	0xbcc0e6c5	-0.02354754
41	0x3d5e0a43	0.054209005
42	0xbd0e5483	-0.034748565
43	0x3e31ee07	0.17375956
44	0xbc208bcd	-0.009798956
45	0xbb88e21e	-0.004177346
46	0xbd3cc5e4	-0.04608716
47	0x3d0ed750	0.034873307
48	0x3d70c78b	0.05878405
49	0x3cf8fd55	0.030394236
50	0xbe15005a	-0.14550915
51	0x3d1d7719	0.03844366
52	0x3b243119	0.0025053679
53	0x3d448962	0.04798258
54	0x3d724042	0.059143312
55	0xbdaa067f	-0.0830202
56	0xbdacb4f4	-0.084329516
57	0xbd137e53	-0.036009144
58	0xba9b51f4	-0.0011849985
59	0xbd361009	-0.044448886
60	0x3c679395	0.014134307
61	0x3d84c450	0.06482756
62	0xbd827c45	-0.06371359
63	0x3d78fa48	0.06078556
64	0xbdb7984f	-0.089645974
65	0x3dd4ee62	0.103970304
66	0xbc9f5d5f	-0.019453702
67	0xbd3db0ac	-0.046311066
68	0x3ce9e73d	0.028552646
69	0x3dfdefd3	0.123992585
70	0xbd715b88	-0.05892518
71	0x3cc1c18c	0.02365186
72	0xbd3d0b99	-0.04615364
73	0x3c29faf7	0.010374776
74	0x3d4d26d4	0.050085858
75	0xbd7ebb13	-0.062190127
76	0xbda1de9f	-0.0790379
77	0x3b3d537e	0.0028888877
78	0x3c3c422f	0.011490389
79	0x3c4d4e6d	0.012530905
80	0x3ceb5306	0.028726112
81	0x3d2fc5a9	0.042913113
82	0x3d329b77	0.043605294
83	0x3e19d96a	0.15024343
84	0xbca8b200	-0.02059269
85	0xbcb4b68d	-0.022059703
86	0x3d1cb477	0.038258042
87	0xbd0a5a1f	-0.033777352
88	0xbd921c1a	-0.07134266
89	0x3d53d05b	0.051712375
90	0x3d580d80	0.05274725
91	0x3d9e2d69	0.07723505
92	0x3d8e86fe	0.069593415
93	0x3d31cec6	0.043410085
94	0x3d67ac75	0.056560952
95	0x3b9e1088	0.004823748
96	0x3dd68730	0.10475004
97	0xbc047b3f	-0.008086025
98	0x3b65a57f	0.003504127
99	0xbd31618e	-0.043305926
100	0xbd62edaa	-0.055402435
101	0x3d30f157	0.04319891
102	0x3e146b58	0.14494073
103	0xbd7bee76	-0.06150671
104	0x3c5f34df	0.013623445
105	0x3dfd83e2	0.1237867
106	0xbd1a3ce9	-0.037655745
107	0xbdb436fb	-0.08799549
108	0xbd8fa510	-0.07013905
109	0xbb078dfd	-0.0020683997
110	0xbbd47823	-0.006484048
111	0x3bc3fe63	0.005981253
112	0xbda16f98	-0.07882613
113	0x3d508e36	0.050916873
114	0x3cda3a86	0.026639234
115	0xbd9726e7	-0.07380467
116	0x3d0c08e7	0.034188177
117	0xbae8e4d4	-0.0017768391
118	0xbc4fb440	-0.012677252
119	0x3ca2c3e6	0.019868802
120	0x3cfe88a7	0.03107102
121	0x3cf4fde1	0.029906215
122	0xbd9decb0	-0.0771116
123	0xbd6f123b	-0.058366995
124	0xbd7c6099	-0.06161556
125	0x3d55fa44	0.052240625
126	0x3c332ed3	0.010936457
127	0x3ce007c6	0.027347457

merge_net.1.0.weight f4 [2, 128]
0	0x3b520a3b	0.0032049555
1	0xbe8bd460	-0.27310467
2	0x3e31b37a	0.17353621
3	0xbeaa34b8	-0.33243346
4	0x3e031f04	0.128048
5	0x3bec187b	0.0072050667
6	0x3d5680ab	0.0523688
7	0x3c8675b3	0.016413545
8	0xbe78fc1a	-0.24314919
9	0xbdc4ad5a	-0.09603377
10	0xbbc505d3	-0.006012657
11	0x3d5281ec	0.051393434
12	0x3df6427f	0.12024402
13	0x3d8cb124	0.068697244
14	0x3cd8feec	0.026488744
15	0x3d763ada	0.06011472
16	0x3d961bb4	0.07329503
17	0xbd49bc55	-0.049251873
18	0xbea437a6	-0.32073706
19	0x3c815d23	0.015791481
20	0xbcee8422	-0.02911574
21	0x3df80a45	0.12111334
22	0x3d4b75b7	0.04967281
23	0x38f0e9e4	0.00011487657
24	0x3d48caf5	0.04902168
25	0x3dd5cba7	0.10439234
26	0x3d6febd7	0.058574524
27	0xbded5d10	-0.11590016
28	0xbe480742	-0.19534019
29	0x3c430537	0.011903099
30	0x3e567dd9	0.20946445
31	0xbb2e0ab8	-0.0026556682
32	0xbe589c7a	-0.21153441
33	0x3d2b586c	0.041832373
34	0x3ae1567b	0.0017191911
35	0x3d37a33d	0.04483341
36	0xbc8b1621	-0.016978325
37	0x3cd696bc	0.026194923
38	0x3c65204f	0.013984754
39	0x3d191d16	0.037381254
40	0xbdfbb928	-0.12291175
41	0xbd0353e2	-0.03206242
42	0xbd126b34	-0.035746768
43	0x3dd16ed4	0.10226217
44	0xbc6b7d48	-0.014373131
45	0x3d975b49	0.07390458
46	0xbbb392ed	-0.0054801614
47	0x3d7da378	0.061923474
48	0xbba847fe	-0.0051355353
49	0xbd046662	-0.032324202
50	0x3db63c67	0.088982396
51	0xbe07bc24	-0.13255364
52	0x3d6044e4	0.0547532
53	0xbb59ba39	-0.003322257
54	0x3e49a16d	0.19690485
55	0xbe02a086	-0.12756547
56	0x3d26e5c0	0.04074645
57	0x3e2b26e2	0.16714051
58	0xbc7b73bc	-0.015347417
59	0xbd4e624f	-0.050386723
60	0xbea67b0e	-0.32515758
61	0x3e067736	0.13131413
62	0xbde65ed4	-0.11248556
63	0x3e77c846	0.24197492
64	0xbcb612e8	-0.022225812
65	0x3ecdb97e	0.40180582
66	0xbe9501bc	-0.29102886
67	0xbd7ac7db	-0.061225753
68	0xbe3bd845	-0.18344219
69	0xbe931200	-0.2872467
70	0x3d2ef90c	0.04271798
71	0x3d92a3ad	0.07160125
72	0x3d1c5310	0.038165152
73	0x3e604528	0.21901381
74	0xbd69554e	-0.05696612
75	0xbb8b4c72	-0.0042510564
76	0xbcc954f4	-0.024576642
77	0xbd8ac451	-0.06775726
78	0x3e0394f7	0.12849794
79	0x3cfe1591	0.031016143
80	0x3d85e30c	0.065374464
81	0x3e1d2c85	0.15349014
82	0xbd84e418	-0.06488818
83	0x3ca4e71b	0.02012973
84	0xbb347fe0	-0.002754204
85	0x3a96b608	0.0011498341
86	0x3baff7c4	0.005370112
87	0x3d438b55	0.0477403
88	0x3cc243d7	0.02371399
89	0x3d6fb6a2	0.05852378
90	0x3c6cb908	0.014448412
91	0x3e777683	0.24166302
92	0xbd296add	-0.04136168
93	0xbe36078e	-0.1777632
94	0x3ddf6e4a	0.10909708
95	0xbd761e7a	-0.06008766
96	0x3d84aca5	0.06478242
97	0xbd62567f	-0.05525827
98	0xbac06829	-0.001467948
99	0x3d8dc8ca	0.06923063
100	0xbc5daf05	-0.013530497
101	0x3b522631	0.003206622
102	0x3b8dc33d	0.0043262527
103	0xbca422dc	-0.020036153
104	0x3d296ca6	0.04136338
105	0x3de4da74	0.11174479
106	0xbd0ed4a7	-0.03487077
107	0x3c42d642	0.011891903
108	0x3d37f048	0.044906884
109	0xbc156eb1	-0.009120629
110	0xbc6ba8b0	-0.01438348
111	0x3cf1db18	0.029523417
112	0xbbc73cdd	-0.0060802535
113	0xbcf029ec	-0.029316865
114	0xbd3ac038	-0.04559347
115	0xbecbf68b	-0.39836535
116	0x3e70b0d3	0.23504953
117	0x3bff583e	0.0077925017
118	0xbc2b30d3	-0.010448652
119	0xbdd6b913	-0.10484519
120	0xbc390b51	-0.011294202
121	0x3d7974c8	0.060902387
122	0xbd1601a5	-0.036622662
123	0xbe057f53	-0.13036852
124	0x3c542d53	0.012950259
125	0x3d37238e	0.044711642
126	0x3e433cab	0.19066112
127	0x3e3cccef	0.18437551
128	0x3d831d2d	0.06402049
129	0xbc78ce79	-0.015185946
130	0x3b3b1a8b	0.0028549756
131	0x3d204bed	0.03913491
132	0x3e5c1368	0.21491778
133	0x3d45f369	0.048327837
134	0xbbc9204c	-0.0061378833
135	0xbc986735	-0.0186039
136	0x3c4890c2	0.012241544
137	0x3e151c3d	0.14561553
138	0xbd82b63f	-0.06382417
139	0x3d3200ff	0.04345798
140	0xbd06585e	-0.032799117
141	0x3e63fcc2	0.22264388
142	0xbd1f2edb	-0.038863044
143	0xbd8f9984	-0.07011703
144	0xbd2803e0	-0.04101932
145	0x3cb1d497	0.021707816
146	0x3e492e44	0.19646555
147	0xbd10a0fd	-0.03530978
148	0xbca90126	-0.02063043
149	0x3e290b55	0.16508229
150	0xbd70e17a	-0.05880878
151	0x3bb3c02e	0.005485556
152	0x3dac4c08	0.08412939
153	0x3d114df1	0.03547472
154	0x3c328449	0.010895797
155	0x3eb23e77	0.34813282
156	0x3d5632da	0.05229459
157	0xbea45fe9	-0.32104424
158	0x3d6adc2d	0.057338882
159	0x3d538a3b	0.0516455
160	0x3e40bf6b	0.1882302
161	0x3d21c8c3	0.039498102
162	0xbc598183	-0.013275507
163	0x3d154f7f	0.036452767
164	0xbd11877c	-0.0355296
165	0x3c85c694	0.016330041
166	0x3ca419f9	0.020031916
167	0xbc7c0b3f	-0.015383541
168	0xbc5d4a05	-0.013506417
169	0x3d392f96	0.045211397
170	0xbc128207	-0.008942134
171	0x3d81a8b7	0.06331008
172	0xbce537c8	-0.0279807
173	0x3d4f922a	0.050676502
174	0x3d9bad81	0.076014526
175	0x3cda5aec	0.026654683
176	0xbe1d8cb1	-0.15385701
177	0xbe1ee9c6	-0.15518865
178	0xbe0a62a0	-0.13514185
179	0x3e32de82	0.17467692
180	0x3d0252b5	0.031817157
181	0xbd0b9ad9	-0.03408322
182	0x3e050824	0.12991387
183	0x3e96ded2	0.29466873
184	0xbd170356	-0.036868416
185	0x3de2a372	0.11066331
186	0xbd66a73a	-0.056311823
187	0x3d02d968	0.031945616
188	0x3e22570f	0.15853523
189	0xbccd503d	-0.025062675
190	0xbd52aaa5	-0.05143227
191	0xbda26c2f	-0.07930791
192	0x3d6808eb	0.05664913
193	0x3db65146	0.089022204
194	0xbe19b648	-0.15010941
195	0xbe1960e0	-0.14978361
196	0xbea9215f	-0.33033273
197	0x3a954388	0.0011387924
198	0xbcadfa97	-0.021237655
199	0x3db6dbed	0.08928666
200	0x3d3435bc	0.043996558
201	0xbc0c5618	-0.008565448
202	0xbd858b3e	-0.06520699
203	0xbd62789c	-0.055290803
204	0x3dd1f3d9	0.102515884
205	0xbdac05af	-0.083995216
206	0xbe28bcef	-0.16478322
207	0x3ce32a23	0.027730053
208	0x3a747a52	0.00093260885
209	0x3d0e0a3f	0.03467774
210	0x3c809eaf	0.015700666
211	0xbde5b017	-0.11215227
212	0xbd5f1a57	-0.05446848
213	0x3aa19c04	0.0012329821
214	0xbd246929	-0.04013935
215	0xbc968cec	-0.018377744
216	0xbd0eec0c	-0.03489308
217	0x3d3cc5d8	0.046087116
218	0xbd7935f6	-0.060842477
219	0xbc149376	-0.009068361
220	0xbdcb4853	-0.09925904
221	0x3e8c16b4	0.2736107
222	0x3dea15d5	0.114299454
223	0xbc1af0f6	-0.009456864
224	0xbda9efab	-0.08297666
225	0xbd8fe5f7	-0.07026284
226	0x3e1b2388	0.15150273
227	0x3d459379	0.048236344
228	0xbcfc68b8	-0.030811653
229	0xbe0bac1d	-0.13639875
230	0xbe26500c	-0.16241473
231	0xbd3bbc02	-0.045833595
232	0xbd5190a9	-0.05116335
233	0x3cb64780	0.02225089
234	0xbd1a8b4c	-0.0377305
235	0x3d508b97	0.050914373
236	0xbc5b9d84	-0.013404254
237	0x3d066725	0.03281321
238	0xbe828de8	-0.2549889
239	0x3c4cc610	0.012498394
240	0x3d490ee1	0.049086455
241	0xbb49be09	-0.0030783436
242	0x3d604a96	0.05475863
243	0xbcf34adf	-0.029698787
244	0x3e276485	0.16346939
245	0xbcaa29b0	-0.020771831
246	0x3d59cc9e	0.053173654
247	0x3d83b2c0	0.06430578
248	0x3b529aad	0.003213565
249	0x3d8a7f21	0.06762529
250	0xbcd63650	-0.026148945
251	0x3dda3a18	0.10655612
252	0xbc65bfba	-0.014022762
253	0xbd8aedc1	-0.06783629
254	0xbc1bf737	-0.00951939
255	0x3bfe1f3e	0.007755189

merge_net.1.0.bias f4 [2]
0	0x3d536399	0.051608656
1	0xbe1e0b78	-0.15434062
