rl_weights.pth (torch, 184235 bytes, 12 tensors)

backbone_net.visual_net.0.0.weight f4 [16, 2, 3, 3]
0	0x3e7c8b4e	0.24662516
1	0x3d7d6fae	0.061874084
2	0xbda73bfd	-0.08165739
3	0x3dcfb0a9	0.10141117
4	0x3d9be84d	0.07612667
5	0xbdc527b5	-0.09626714
6	0x3e06d9b9	0.13168992
7	0xbe6a6c2d	-0.22892828
8	0x3e51107c	0.20416445
9	0x3d4295fd	0.04750632
10	0x3e7137b2	0.23556402
11	0xbe38ac8c	-0.18034571
12	0xbd691b58	-0.056910843
13	0xbe12a1d3	-0.14319544
14	0xbd104523	-0.035222184
15	0xbdd0c0a0	-0.1019299
16	0x3e48a052	0.19592407
17	0x3c11e954	0.008905727
18	0x3e267687	0.16256152
19	0xbe4996de	-0.19686458
20	0x3e22cd52	0.15898636
21	0x3e7fc12e	0.24976036
22	0x3dd4f5f4	0.10398474
23	0x3e291615	0.1651233
24	0xbcd493ab	-0.02594932
25	0x3e5c12b3	0.21491508
26	0x3dc01d21	0.09380556
27	0xbd555bb2	-0.0520894
28	0xbe1cecc9	-0.15324701
29	0xbdeb50bb	-0.114900075
30	0x3d741ebb	0.05959962
31	0x3e152503	0.145649
32	0x3d52a530	0.051427066
33	0xbddac150	-0.10681403
34	0xbe2a20dd	-0.16614099
35	0xbe313049	-0.17303576
36	0xbdd00c73	-0.101586245
37	0xbd2a52ab	-0.041582745
38	0xbcab7fe0	-0.020934999
39	0x3e8098ce	0.2511658
40	0xbddde629	-0.10834915
41	0x3e6a3b43	0.22874169
42	0x3e115389	0.14192022
43	0xbe493f07	-0.1965295
44	0xbe6178f5	-0.22018798
45	0x3d0a97da	0.033836223
46	0xbde887c9	-0.11354024
47	0x3da26ee5	0.07931308
48	0x3e22abb5	0.15885814
49	0xbdc47141	-0.09591914
50	0xbd21da7a	-0.039514996
51	0xbe41c0b2	-0.18921164
52	0xbcbc1609	-0.022959726
53	0x3e1e4e40	0.15459538
54	0x3eabdadc	0.33565414
55	0x3e0b2884	0.13589674
56	0x3caae0b7	0.020859106
57	0xbe08b8ef	-0.13351797
58	0xbe5fefaf	-0.21868776
59	0xbd4b48c0	-0.049629927
60	0xbe131ad9	-0.1436571
61	0xbe602fc2	-0.21893218
62	0xbd4493a3	-0.04799236
63	0xbe234600	-0.15944672
64	0xbde9798b	-0.114001356
65	0x3dccf1d0	0.100070596
66	0x3dc3c404	0.095588714
67	0xbe48738f	-0.19575332
68	0x3e2a5496	0.1663383
69	0x3dd76b28	0.10518485
70	0x3e31a883	0.17349438
71	0x3dcc5570	0.099772334
72	0xbe486a66	-0.19571838
73	0x3c193248	0.009350367
74	0xbd75c91d	-0.06000625
75	0x3e71307d	0.23553653
76	0x3dacf95a	0.084459975
77	0xbe44a5d8	-0.1920389
78	0xbdf75572	-0.12076844
79	0xbd245656	-0.0401214
80	0xbe3bd4ca	-0.18342891
81	0xbdf76f2d	-0.12081752
82	0x3e2d66b2	0.16933706
83	0x3e187ef7	0.14892183
84	0x3d90c37f	0.07068538
85	0xbd7dc1a0	-0.061952233
86	0xbe1a1460	-0.15046835
87	0x3df7e29f	0.121037714
88	0x3d50735e	0.050891273
89	0x3d3d76bd	0.046255816
90	0xbe4a44bd	-0.19752784
91	0xbdd3b668	-0.103375256
92	0xbda1a0d5	-0.078920044
93	0x3db1359d	0.08652804
94	0x3e802e24	0.25035203
95	0xbe4fcdfb	-0.20293419
96	0x3df2da83	0.11858084
97	0x3e1fab02	0.15592578
98	0xbd9227b4	-0.07136479
99	0xbe400a68	-0.1875397
100	0x3d79ae79	0.060957406
101	0x3dea238f	0.114325635
102	0xbd5e56cd	-0.054282
103	0xbd3d75bc	-0.04625486
104	0x3df36ca0	0.11885953
105	0x3daa0df7	0.08303445
106	0xbe254458	-0.16139352
107	0x3bdbeaec	0.0067113545
108	0xbda14482	-0.07874395
109	0xbe2d7bf1	-0.16941811
110	0x3e7eddc6	0.24889287
111	0x3e4088ad	0.18802138
112	0xbe16e62b	-0.1473624
113	0xbe3ea08d	-0.18615933
114	0xbe260d6c	-0.16216058
115	0x3e90a6ec	0.2825235
116	0x3e6b9ec1	0.23009779
117	0x3e136fd6	0.14398131
118	0x3de14ea7	0.1100133
119	0xbe268699	-0.16262282
120	0xbb05ac29	-0.0020396805
121	0x3c5ce9ef	0.0134835085
122	0xbc0eb969	-0.008711197
123	0xbe4d156b	-0.20027702
124	0xbcd0cf60	-0.02548951
125	0xbccf57aa	-0.025310356
126	0x3d45bf02	0.048277862
127	0xbc0d5905	-0.008627181
128	0xbdc672f7	-0.096898966
129	0xbda85853	-0.082199715
130	0xbdf5c3c1	-0.12000228
131	0xbe4828dd	-0.19546838
132	0xbdfb1788	-0.122603476
133	0x3e25e5f6	0.16201004
134	0xbddf9690	-0.109173894
135	0x3d7ab16f	0.06120437
136	0x3dc87079	0.097870775
137	0x3d8bdaa8	0.06828815
138	0xbdcbe1ab	-0.09955152
139	0xbbba1ce8	-0.0056797154
140	0x3c2dcaad	0.010607404
141	0xbd64b4aa	-0.055836357
142	0xbe25f5f7	-0.1620711
143	0xbe01b4d1	-0.12666632
144	0x3ed0418b	0.40675005
145	0x3c28ba13	0.01029827
146	0xbcce163d	-0.025157088
147	0xbd061a5c	-0.032739982
148	0xbe3247d9	-0.1741022
149	0xbe395b25	-0.18101175
150	0x3c3e638e	0.011620415
151	0x3bd569cd	0.0065128566
152	0xbd1f8934	-0.038949206
153	0xba1f5376	-0.00060778053
154	0x3d53e8aa	0.051735558
155	0xbd979d25	-0.0740302
156	0xbdc6b3b6	-0.09702246
157	0xbc806bf1	-0.01567647
158	0xbcb964df	-0.022631107
159	0x3e1d4cc2	0.15361312
160	0xbe677bbc	-0.22605795
161	0x3dece91c	0.115678996
162	0xbe8cda4b	-0.27510294
163	0x3e8dfcab	0.27731833
164	0x3e794ede	0.24346492
165	0xbe81309f	-0.25232407
166	0x3ceaaff7	0.02864836
167	0x3e954146	0.29151362
168	0xbe8f30bf	-0.27966878
169	0xbd97b25a	-0.07407065
170	0x3e5c609d	0.2152123
171	0xbe62c545	-0.22145565
172	0xbe428ec3	-0.18999772
173	0xbd1d7029	-0.038437042
174	0x3d04199b	0.03225098
175	0x3dee18db	0.116258346
176	0x3c325a56	0.010885796
177	0x3df0013d	0.11718986
178	0xbe5dba4c	-0.21653098
179	0x3ddec38c	0.10877141
180	0xbe2453a7	-0.16047536
181	0x3e97f2a9	0.29677323
182	0x3e62254b	0.22084539
183	0xbc00fe41	-0.007873119
184	0x3e6e15fb	0.23250572
185	0xbe16b340	-0.14716816
186	0xbe173469	-0.14766087
187	0x3dc840de	0.097779974
188	0xbdd85143	-0.105623744
189	0x3e229e34	0.15880662
190	0x3d5b1384	0.05348541
191	0xbe0c4c2c	-0.13700932
192	0xbdb164b1	-0.086617835
193	0x3d91c552	0.07117714
194	0xbbd67eed	-0.0065458925
195	0x3d21c95a	0.039498664
196	0xbde9472b	-0.11390527
197	0xbe0771f4	-0.13227063
198	0x3df7a970	0.120928645
199	0xbe213989	-0.15744604
200	0x3e1c2863	0.15249781
201	0x3e7a5bcd	0.24449082
202	0xbc21c8d2	-0.009874539
203	0x3aa70c2c	0.0012744716
204	0x3c74aec5	0.014934246
205	0xbe71b379	-0.2360362
206	0xbdf6f2a6	-0.12058
207	0xbd4179ca	-0.047235288
208	0x3e4554ca	0.19270626
209	0x3db59127	0.08865576
210	0xbe144369	-0.1447884
211	0x3dee8920	0.11647248
212	0xbdfb3d19	-0.12267513
213	0x3e0b5956	0.13608298
214	0xbd93f2b9	-0.0722403
215	0x3dae2258	0.08502644
216	0x3cec6955	0.02885882
217	0xbd1aec8c	-0.037823245
218	0x3e4d7ea2	0.20067838
219	0x3d99e204	0.07513812
220	0xbdb0438d	-0.08606634
221	0xbc9ad58c	-0.018900655
222	0xbe158f7b	-0.14605515
223	0x3e29dddf	0.16588543
224	0xbd827053	-0.063690804
225	0xbca00ffa	-0.019538868
226	0x3e34bd1b	0.17650263
227	0xbdce00d8	-0.10058755
228	0x3e4687f5	0.19387801
229	0xbcbe683f	-0.023243068
230	0xbd450753	-0.048102688
231	0x3e1dbd00	0.15404129
232	0x3db73624	0.089458734
233	0x3e51295d	0.20425935
234	0x3a73af13	0.00092958024
235	0xbdab3fc1	-0.083617695
236	0xbe07ff95	-0.1328109
237	0x3e52e6f9	0.20595922
238	0x3e45fd58	0.19334924
239	0x3e20b098	0.15692365
240	0x3d2e324b	0.04252843
241	0xbe4bcf5f	-0.19903325
242	0x3e49f62f	0.19722818
243	0xbe35e6ea	-0.17763868
244	0x3e316662	0.17324212
245	0xbde5560f	-0.11198055
246	0x3c0de3b8	0.008660249
247	0xbd9e7643	-0.077374004
248	0xbca8cb4f	-0.020604758
249	0xbd498d09	-0.049206767
250	0xbd4ed812	-0.05049903
251	0xbd1efc47	-0.03881481
252	0x3e3fd4fa	0.18733588
253	0x3e5f8a92	0.21830204
254	0xbe4ca300	-0.19984055
255	0x3d2b83a9	0.041873608

backbone_net.visual_net.0.0.bias f4 [16]
0	0x3e3fe11d	0.18738218
1	0xbd09ffac	-0.033691093
2	0xbd87508e	-0.066071615
3	0xbe0bb336	-0.13642582
4	0xbe6cd867	-0.23129426
5	0xbdd4a3ff	-0.10382842
6	0x3c18343b	0.009289796
7	0xbd727d7c	-0.059201702
8	0xbe41af16	-0.18914446
9	0xbe4762e2	-0.19471315
10	0x3de233d4	0.11045042
11	0x3e12892e	0.14310142
12	0xbe6ab7b3	-0.22921638
13	0x3bed9e73	0.0072515546
14	0xbdf72dd1	-0.12069286
15	0xbe3b7fac	-0.18310422

backbone_net.visual_net.1.0.weight f4 [32, 16, 3, 3]
0	0x3c82fc00	0.015989304
1	0xbc6df620	-0.014524013
2	0xbd088d94	-0.033338144
3	0x3d0ec99a	0.03486023
4	0x3dc1b932	0.09459151
5	0x3d91f775	0.07127277
6	0x3dc2d681	0.095135696
7	0x3d01c64f	0.031683262
8	0xbcf3a623	-0.029742306
9	0x3dc52764	0.09626654
10	0x3db3ed13	0.08785453
11	0xbd933913	-0.071886204
12	0x3dfa7917	0.12230127
13	0x39f205af	0.00046162072
14	0xbd12f015	-0.03587349
15	0x3dcd1843	0.10014393
16	0x3c4f8fc2	0.012668552
17	0xbd2586a9	-0.040411625
18	0x3d830096	0.06396596
19	0x3d896241	0.067081936
20	0x3c8b836b	0.017030438
21	0x3e00017c	0.12500566
22	0xbd0d2d6e	-0.034467153
23	0x3da72bbb	0.08162638
24	0xbd96b941	-0.07359553
25	0x3d89fc97	0.06737631
26	0x3dea8d50	0.114527345
27	0x3d729e14	0.059232786
28	0xbca2bf4b	-0.019866606
29	0x3d217b27	0.039424088
30	0x3b0bb367	0.002131665
31	0xbd02050e	-0.0317431
32	0xbb8a6446	-0.0042233793
33	0x3dd8afde	0.10580419
34	0x3e148401	0.1450348
35	0x3db1e0eb	0.08685478
36	0x3d54d4ef	0.05196088
37	0x3cdeef25	0.027213642
38	0xbd24d5e2	-0.040243037
39	0xbbe991c0	-0.0071279705
40	0x3d23c635	0.039983947
41	0x3c78b157	0.015179
42	0xbd68209d	-0.056671727
43	0xbdb080bb	-0.086183034
44	0xbc80ad80	-0.015707731
45	0xbbb2da25	-0.0054581338
46	0xbd39b6d2	-0.045340367
47	0xbd0b700f	-0.034042414
48	0x3b1ceef2	0.0023946133
49	0x3d95349e	0.072854266
50	0x3d06aed1	0.03288156
51	0xbb2df812	-0.0026545567
52	0xbc06b969	-0.008222916
53	0xbd3a4d07	-0.045483615
54	0x3d96b87b	0.073594056
55	0x3d6a3d51	0.057187382
56	0x3d8bbca9	0.068230934
57	0xbbda23ca	-0.0066570984
58	0x3d7188e5	0.058968443
59	0x3d85ff77	0.06542867
60	0xbd1dd674	-0.038534597
61	0xbd69f63f	-0.057119604
62	0xbdf39125	-0.118929185
63	0xbe092baf	-0.1339557
64	0xbd36c0f6	-0.044617616
65	0xbd853429	-0.065040894
66	0xbd7106b7	-0.058844294
67	0xbda94e76	-0.08266918
68	0xbdfc3abf	-0.123158924
69	0xbd8a1cc7	-0.0674377
70	0xbd11e442	-0.035618074
71	0x3c813e8a	0.015776891
72	0x3e07b09d	0.13250966
73	0x3def0d93	0.11672511
74	0x3dd0c2df	0.10193419
75	0x3d8264ac	0.06366858
76	0x3d9d9aca	0.07695539
77	0x3e330a36	0.17484364
78	0x3e460ee0	0.19341612
79	0x3d5881c0	0.052858114
80	0x3d4db865	0.05022468
81	0x3d20ae9a	0.039229013
82	0x3d808395	0.06275097
83	0xbd976e60	-0.07394099
84	0x3d0456f8	0.032309502
85	0x3ddf1cc1	0.10894156
86	0x3be90e96	0.0071123345
87	0x3de18b3a	0.110128835
88	0x3dec8f50	0.11550772
89	0x3d553789	0.052054916
90	0x3d44fe6b	0.048094194
91	0x3c1aaaa0	0.009440094
92	0xbde41e46	-0.11138587
93	0x3ce5d1c8	0.028054133
94	0x3dd0c92e	0.10194622
95	0xbc8a369d	-0.016871745
96	0x3c96f5cd	0.018427754
97	0x3c4ab78f	0.012372865
98	0xbd8cb7c7	-0.0687099
99	0x3bc75694	0.006083319
100	0x3de3d515	0.111246265
101	0x3ddeb6dc	0.108747214
102	0x3df7d84b	0.121018015
103	0x3ce82dcb	0.028342148
104	0x3cffbe35	0.031218627
105	0x3de813f5	0.113319315
106	0x3dd00d85	0.10158829
107	0x3e388c56	0.18022284
108	0xbc99bb12	-0.01876596
109	0xbd3c0fa5	-0.045913357
110	0x3cc2cf50	0.023780495
111	0xbc3ffafa	-0.011717552
112	0xbda97d21	-0.082758196
113	0xbd82f028	-0.063934624
114	0x3bb7accc	0.005605316
115	0x3be2c5da	0.0069205584
116	0xbcc5fda8	-0.024168804
117	0x3a3248e1	0.0006801021
118	0xbd485e9b	-0.048918348
119	0x3cccaf42	0.024985913
120	0xbc943fbc	-0.018096797
121	0x3d3137a0	0.04326594
122	0x3dad1073	0.08450403
123	0xbd3a99ff	-0.04555702
124	0xbd875e03	-0.06609728
125	0x3cae2c95	0.021261493
126	0x3d521ba2	0.051295884
127	0x3d9f8ad9	0.07790155
128	0x3c464003	0.0121002225
129	0x3dd82b61	0.10555149
130	0x3d7e8ce7	0.062146094
131	0xbd2d72d8	-0.04234585
132	0x3ddbb3e1	0.107276686
133	0x3de5dba8	0.11223537
134	0x3d73b959	0.059502933
135	0x3db1fb14	0.086904675
136	0xb91361f5	-0.00014055504
137	0x3d3f3c69	0.04668847
138	0x3c82faa6	0.01598866
139	0x3d4ea11a	0.050446607
140	0x3bc10683	0.005890669
141	0x3d392a8c	0.04520659
142	0x3c871ba0	0.016492665
143	0x3caaa7b7	0.020831926
144	0x3d95f131	0.07321394
145	0xbd9981fc	-0.07495496
146	0x3d46fc46	0.04858043
147	0x3c861df3	0.016371703
148	0xbcc45093	-0.023964202
149	0x3d9f1f83	0.07769682
150	0x3d5cf836	0.05394765
151	0x3cb3b60a	0.021937389
152	0x3d0289fa	0.031869866
153	0xbcb2b870	-0.021816462
154	0xbd66bd90	-0.056333125
155	0x3d109a1b	0.035303216
156	0x3c0ef782	0.008726003
157	0xbdd1af5a	-0.10238524
158	0xbaf33ecc	-0.0018558144
159	0xbd6fd727	-0.058554795
160	0x3c46dc36	0.012137463
161	0xbcc18f65	-0.023627946
162	0x3a808aae	0.0009806955
163	0xbdb05ecc	-0.08611831
164	0x3d332ada	0.04374204
165	0xbd9f083c	-0.077652425
166	0xbd813dde	-0.06310628
167	0xbd147b61	-0.036250476
168	0xbd6b65f0	-0.057470262
169	0xbd5121a9	-0.05105749
170	0xbdc8507c	-0.09780976
171	0x3d481b89	0.048854385
172	0x3df62424	0.12018612
173	0x3d10e442	0.035373934
174	0xbdc28873	-0.09498682
175	0x3c904440	0.01761067
176	0x3cc845d2	0.024447355
177	0xbe4d2b1b	-0.20035975
178	0xbcdb2c77	-0.0267546
179	0x3d6c73cd	0.057727624
180	0x3b48d0dd	0.003064207
181	0x3d6138cd	0.05498581
182	0xbd69c129	-0.057068978
183	0xbb0475fd	-0.0020211928
184	0x3d7e37ed	0.062065054
185	0x3d6598df	0.056053992
186	0x3c360035	0.011108448
187	0xbccbb02d	-0.02486428
188	0xbd255c38	-0.04037115
189	0xbcc63d4f	-0.024199156
190	0xbd908b9d	-0.07057879
191	0x3db9268d	0.09040556
192	0xbdfcb872	-0.12339868
193	0x3d469c9f	0.04848921
194	0x3defaf36	0.11703341
195	0xbc751ff8	-0.014961235
196	0xbc8a3c35	-0.016874412
197	0xbd0b45d8	-0.034002155
198	0x3c3e9c35	0.011633922
199	0x3c0559f4	0.008139122
200	0xbdb5f9db	-0.08885547
201	0xbd0f87dd	-0.03504168
202	0x3b3be2ba	0.0028669075
203	0xbd453d77	-0.04815432
204	0xbda49916	-0.08037011
205	0xbdd244ff	-0.10267066
206	0x3b9481e9	0.004532088
207	0x3c0f2f9c	0.008739378
208	0x3d9592a8	0.07303363
209	0xbb8999cc	-0.004199242
210	0x3c3a2d7a	0.0113633815
211	0x3c02b344	0.007977311
212	0x3cee9a89	0.029126422
213	0x3d10fa09	0.035394702
214	0x3c2d537f	0.010578989
215	0x3cfffc17	0.031248135
216	0x3d662659	0.056188915
217	0x3d2793bb	0.04091237
218	0x3dadb37a	0.08481498
219	0xbd3f26b9	-0.04666779
220	0xbd0348a8	-0.032051712
221	0x3d7888a8	0.0606772
222	0xbe34da23	-0.17661338
223	0xbe0bf929	-0.13669266
224	0x3c232f4c	0.009960007
225	0xbdd92b78	-0.10603994
226	0xbd8b2c21	-0.06795526
227	0xbac67c60	-0.0015143268
228	0x3d0c4908	0.034249336
229	0xbbd8b599	-0.006613445
230	0xbd64c023	-0.0558473
231	0xbe268130	-0.16260219
232	0xbc86d041	-0.016456725
233	0x3dad9d01	0.08477212
234	0x3d6aeb75	0.057353456
235	0x3d280390	0.041019022
236	0x3b3c2499	0.0028708337
237	0xbd07b59b	-0.033132177
238	0x3cc6abdd	0.024251873
239	0xbc948834	-0.018131353
240	0x3cc316c7	0.023814572
241	0xbb1a04ec	-0.0023501469
242	0xbcf41b14	-0.029798068
243	0xbdd8301f	-0.10556053
244	0xbd8c9a20	-0.068653345
245	0x3d45678e	0.04819446
246	0x3c00d3e8	0.007863022
247	0xbcb60bde	-0.022222456
248	0xbd07c2a3	-0.033144604
249	0x3d6c7a81	0.057734016
250	0xbc714905	-0.014726882
251	0xbdab9274	-0.08377543
252	0xbd81d452	-0.06339325
253	0x3cfce3e1	0.03087038
254	0xbd12b12a	-0.035813488
255	0xbd9bf8d1	-0.07615817

backbone_net.visual_net.1.0.bias f4 [32]
0	0xbe16d729	-0.14730515
1	0x3ceb6f19	0.028739499
2	0xbcd42357	-0.025895758
3	0xbda19172	-0.078890696
4	0xbd368992	-0.04456479
5	0xbdb72541	-0.089426525
6	0xbd850885	-0.064957656
7	0xbd95c6c2	-0.07313301
8	0xbd95f1aa	-0.073214844
9	0x3cb4156b	0.02198287
10	0xbd91a733	-0.07111969
11	0xbdeb17c0	-0.11479139
12	0xbb030592	-0.0019992334
13	0xbb236347	-0.0024931
14	0xbe0bd1ac	-0.13654202
15	0xbd9c4d9b	-0.076319896
16	0xbdf33018	-0.118744075
17	0xbb39dfc8	-0.0028362144
18	0x3d8a5d66	0.067560956
19	0x3d824102	0.063600555
20	0xbd9241c2	-0.071414486
21	0xbcb72387	-0.022355808
22	0x3d1d89af	0.038461383
23	0x3dab2629	0.08356888
24	0xbdbe1372	-0.09281053
25	0x3cb47e53	0.022032892
26	0xbd73d88a	-0.05953268
27	0x3cc37391	0.023858817
28	0xbc5fd6f0	-0.013662085
29	0x3d1f78e1	0.03893364
30	0xbdb13b79	-0.08653922
31	0xbb9dfa2f	-0.004821084

backbone_net.visual_net.2.0.weight f4 [64, 32, 3, 3]
0	0xbbc6eee3	-0.006070958
1	0xbd7ba3fd	-0.06143569
2	0xbddb5a4f	-0.10710584
3	0x3d01bbc5	0.03167321
4	0x3d66d69a	0.056357004
5	0xbd98c163	-0.074587606
6	0x3c07181d	0.008245495
7	0x3bc93ef6	0.0061415387
8	0xbc997bed	-0.01873585
9	0xbd770c80	-0.060314655
10	0xbc50c909	-0.012743243
11	0xbcd2eae8	-0.025746778
12	0xbe24974a	-0.16073337
13	0xbd32b0d5	-0.04362567
14	0xbd2acc6d	-0.041698862
15	0xbddb1abb	-0.10698458
16	0xbe3e6377	-0.1859263
17	0xbdd3c305	-0.103399314
18	0x3c123d39	0.008925729
19	0xbe412c71	-0.1886461
20	0xbe193d92	-0.14964893
21	0x3c9dfa36	0.019284349
22	0x3ca13177	0.019676907
23	0xbd32b1fc	-0.04362677
24	0x3c2a4df5	0.010394563
25	0x3d1b6641	0.037939314
26	0x3d92b764	0.07163885
27	0x3d5058a2	0.050865777
28	0x3cec1b7a	0.028821696
29	0xbcf55efc	-0.029952519
30	0xbd59a01c	-0.053131208
31	0x3c648a1a	0.013948942
32	0x3d1f6600	0.038915634
33	0xbd059562	-0.032613166
34	0xbd733322	-0.059374936
35	0xbba64078	-0.0050736032
36	0x3c04d2a2	0.008106859
37	0xbd0383df	-0.032108184
38	0xbe477fcf	-0.19482349
39	0x3c9f8c0b	0.019475957
40	0xb9ec4313	-0.00045063402
41	0xbd6ddd3a	-0.058072306
42	0x3c6952c7	0.014240927
43	0x3dab3f4f	0.083616845
44	0xbd4d6f43	-0.050154936
45	0xbcf9abe1	-0.030477466
46	0xbda8ea13	-0.08247771
47	0xbe728bd1	-0.23686148
48	0x3df602fb	0.12012287
49	0xbc65c23e	-0.014023362
50	0xbd9801df	-0.07422232
51	0x3d6d48e7	0.057930853
52	0x3d84fef0	0.06493938
53	0x3d5a9b15	0.053370554
54	0x3e364d60	0.17802954
55	0x3ddced0c	0.107874006
56	0xbda7344b	-0.08164271
57	0xbe5c8802	-0.21536258
58	0x3d245599	0.040120695
59	0x3e51ef9f	0.20501564
60	0xbe01dd2e	-0.1268203
61	0xbc8af8d6	-0.016964357
62	0x3e6a4ac8	0.2288009
63	0xbd2a15a0	-0.04152453
64	0xbe08512c	-0.13312215
65	0xbe879527	-0.26480982
66	0x3d7b6bf3	0.061382245
67	0x3d1f1fae	0.03884857
68	0xbdc54545	-0.09632353
69	0xbd508c2e	-0.050914936
70	0x3c93c0ba	0.018036235
71	0x3dd1e2f4	0.10248366
72	0x3e4ebe91	0.20189883
73	0xbc134b15	-0.008990069
74	0xbd836ef0	-0.06417644
75	0xbe91449d	-0.2837266
76	0x3dc0609b	0.09393426
77	0x3e21c081	0.1579609
78	0xbbe8e98e	-0.00710792
79	0x3d8cc6a6	0.06873827
80	0x3df9ffce	0.12206994
81	0xbd2ae288	-0.041719943
82	0xbd2e7381	-0.04259062
83	0xbd68b2b9	-0.05681107
84	0x3d1757f2	0.036949106
85	0xbc5a0b0f	-0.013308301
86	0x3c8523d8	0.016252443
87	0xbcb0fc06	-0.02160455
88	0xbd13bb63	-0.036067378
89	0xbcf3fa9c	-0.029782586
90	0x3d13af46	0.036055826
91	0xbdb72d6d	-0.08944211
92	0xbdd9ccd9	-0.10634775
93	0xbd067f39	-0.032836173
94	0x3d84f240	0.06491518
95	0x3df27f08	0.118406355
96	0xbea5bd85	-0.32371154
97	0xbdb1b19b	-0.08676454
98	0x3da976ac	0.08274588
99	0x3d0311be	0.031999342
100	0x3da4cab4	0.08046475
101	0xbb9af624	-0.0047290493
102	0x3e83b419	0.2572334
103	0x3e0c865a	0.13723126
104	0x3e2f629b	0.17127459
105	0xbd5b19d6	-0.053491436
106	0x3d63dec6	0.055632375
107	0x3d85078a	0.064955786
108	0x3d42b2ad	0.04753368
109	0xbdee8c8b	-0.116479
110	0x3c70a3c6	0.014687484
111	0xbc446fa5	-0.011989509
112	0x3cbb1226	0.022835802
113	0x3d67b01f	0.056564447
114	0xbd5c9a1a	-0.0538579
115	0xbdd21134	-0.102571875
116	0x3de799f1	0.11308659
117	0xbdcea17f	-0.10089397
118	0x3d17b1a7	0.037034657
119	0xbe515e04	-0.2044602
120	0xbd9a4977	-0.075335436
121	0xbc24d574	-0.010060657
122	0xbe68d9d6	-0.22739348
123	0x3dcca350	0.09992087
124	0x3d8f7668	0.07005006
125	0xbe057668	-0.1303345
126	0xbc8c1e53	-0.017104303
127	0xbe72c22a	-0.2370688
128	0xbe132de8	-0.1437298
129	0x3e52a414	0.20570403
130	0xbd275a26	-0.040857457
131	0x3bf5904d	0.0074940086
132	0xbca31013	-0.019905126
133	0x3d17c72d	0.037055183
134	0x3ca17d9e	0.01971322
135	0x3cfb1f79	0.030654656
136	0xbe1b462a	-0.15163484
137	0xbe046d6e	-0.12932369
138	0xbc16e9f4	-0.009211052
139	0x3baf36bb	0.0053471006
140	0xbd5efbe7	-0.05443945
141	0x3bc131ce	0.0058958298
142	0x3ce233cb	0.027612587
143	0x3cfc82d8	0.03082411
144	0x3de9dc65	0.1141899
145	0xbe3a8ef7	-0.182186
146	0xbdc45596	-0.09586637
147	0x3d5bacd5	0.053631622
148	0x3dc48bf5	0.09597007
149	0x3e069fa6	0.13146839
150	0x3dceb12f	0.10092389
151	0x3d9b9d32	0.07598342
152	0x3dbee897	0.09321707
153	0x3e26afc6	0.1627799
154	0xbe1bd093	-0.15216284
155	0xbe67aa09	-0.22623457
156	0xbe0f3703	-0.13985829
157	0x3b507c76	0.0031812466
158	0x3d484f91	0.048904005
159	0xbe1bf96b	-0.15231864
160	0xbd18dfd1	-0.037322823
161	0x3c6529d0	0.01398702
162	0xbd30e89a	-0.043190576
163	0x3c9ecc27	0.019384457
164	0x3c8d2c76	0.017233115
165	0xbcf7e1e2	-0.030259077
166	0x3c152f3b	0.009105499
167	0x3b3242e7	0.0027200521
168	0xbdf9bf27	-0.121946625
169	0xbdd82e56	-0.10555713
170	0xbe04df3f	-0.12975787
171	0xbd6b3bf0	-0.057430208
172	0x3d4a833a	0.049441554
173	0xbe19ccbc	-0.15019506
174	0xbde098b9	-0.109666295
175	0xbafc40e0	-0.0019245408
176	0xbe724f38	-0.23663032
177	0x3c507d0a	0.012725124
178	0xbe09bd8a	-0.1345121
179	0xbdbabe0e	-0.09118281
180	0xbdb6edf6	-0.08932106
181	0xbe0ffe6b	-0.14061897
182	0xbd900b3a	-0.07033391
183	0x3dcf48e4	0.10121325
184	0xbdb38103	-0.087648414
185	0xbd1f28f2	-0.038857408
186	0xbd9187ea	-0.07106002
187	0xbcf61280	-0.030038118
188	0x3c32d611	0.010915295
189	0x3d9d839b	0.076911174
190	0xbdccd894	-0.100022465
191	0x3dbf8f15	0.093534626
192	0x3d940657	0.07227772
193	0x3e22cb10	0.15897775
194	0x3e57f2ec	0.21088761
195	0xbe1b9e6e	-0.15197155
196	0xbdab4a91	-0.08363832
197	0x3d6ed2e9	0.05830661
198	0xbd52dd5a	-0.05148063
199	0xbddf9aec	-0.10918221
200	0x3c072372	0.008248197
201	0xbd21b437	-0.039478507
202	0xbd2df70a	-0.042471923
203	0x3b5bc998	0.0033536907
204	0xbc9b2857	-0.018940134
205	0x3ce90408	0.028444305
206	0xbd2067a0	-0.039161325
207	0xbd0dd882	-0.034630306
208	0xbe4b72d2	-0.19868019
209	0xbdfd9124	-0.12381199
210	0x3cb03984	0.0215118
211	0x3e244253	0.16040926
212	0xbce09b1c	-0.027417712
213	0xbd0aef71	-0.033919755
214	0xbdac3759	-0.08408994
215	0xbe04a299	-0.12952651
216	0x3ad06649	0.0015899624
217	0xbd275c41	-0.040859465
218	0x3e01701d	0.12640424
219	0x3d4f553e	0.050618403
220	0xbca461f0	-0.020066231
221	0x3e2265de	0.15859172
222	0x3cba3002	0.02272797
223	0xbddfb011	-0.10922254
224	0x3de84ac0	0.113423824
225	0x3da67031	0.081268676
226	0xbdc3748d	-0.09543715
227	0x3da28f3b	0.07937475
228	0x3ddccb5a	0.10780974
229	0x3da89eb7	0.082333975
230	0x3d82bb59	0.0638339
231	0xbdf48a28	-0.11940414
232	0x3dedc140	0.11609125
233	0x3db567ef	0.088577144
234	0xbd1a02f1	-0.03760046
235	0xbb2e2607	-0.002657296
236	0xbdb168d7	-0.08662575
237	0x3d812f49	0.06307847
238	0xbe2df5ee	-0.16988346
239	0x3bd30c1e	0.0064406535
240	0x3e08776b	0.13326804
241	0xbe0a9b85	-0.13535888
242	0xbdc6aab0	-0.09700525
243	0xbde3ff00	-0.11132622
244	0x3df1db85	0.11809448
245	0xbe6e54f9	-0.23274602
246	0xbdc49e97	-0.09600561
247	0xbe12c57b	-0.14333145
248	0xbe076983	-0.13223843
249	0x3cb7e6ce	0.022448923
250	0xbdac88d2	-0.08424534
251	0xbd4e9006	-0.05043032
252	0x3d3f264f	0.046667393
253	0x3da5a2b1	0.080876715
254	0x3cc0acdc	0.023519926
255	0x3d898b23	0.06715991

backbone_net.visual_net.2.0.bias f4 [64]
0	0xbd9ee05c	-0.07757637
1	0x3da8cb1e	0.082418665
2	0x3dbd4c22	0.09243037
3	0xbb212312	-0.0024587554
4	0xbd6ec841	-0.058296446
5	0xbe15657d	-0.14589496
6	0x3d53b9ce	0.05169087
7	0xbda070cc	-0.07834014
8	0xbd9a2b85	-0.07527832
9	0xbcd44c75	-0.025915364
10	0xbd8f47a2	-0.06996085
11	0xbd41cfc6	-0.04731729
12	0x3d8e507d	0.06948946
13	0x3c51c562	0.012803407
14	0xbd7548be	-0.059883825
15	0xbd2a654e	-0.041600518
16	0xbc8a8280	-0.01690793
17	0xbc9bf4b7	-0.019037588
18	0xbd052e40	-0.03251481
19	0x3d558d43	0.05213667
20	0x3a10ec58	0.0005528382
21	0x3ca0a732	0.019610975
22	0x3d1ced6a	0.038312353
23	0x3d63d1cb	0.055619996
24	0xbd371cf1	-0.044705335
25	0x3d7096ea	0.058737673
26	0x3b89d037	0.0042057293
27	0x3dad9fa9	0.084777184
28	0xbd6324ae	-0.055454902
29	0x3d9baa37	0.07600825
30	0x3d802bca	0.06258352
31	0xbc945f68	-0.0181119
32	0x3bc57d8b	0.006026929
33	0x3d6a855b	0.057256084
34	0xbda4e1b4	-0.08050862
35	0x3dbecbb2	0.093161955
36	0xbcd538af	-0.026028005
37	0xbb89ab4f	-0.00420133
38	0x3d6803db	0.0566443
39	0xbdcbd7a6	-0.09953241
40	0x3cc49b45	0.02399982
41	0xbc9616ce	-0.018321421
42	0xbd69d22d	-0.057085205
43	0xbd8a121d	-0.06741736
44	0x3d1753ea	0.03694526
45	0x3a4a1a07	0.0007709567
46	0x3d9ef1dd	0.077609755
47	0xbd6b8ec1	-0.057509188
48	0xbdcb52c7	-0.09927898
49	0x3d6e0935	0.05811425
50	0xbdf47734	-0.11936799
51	0x3d39e574	0.04538484
52	0x3da0a0e9	0.07843191
53	0xbd049158	-0.032365173
54	0xbcc3a1c1	-0.023880841
55	0x3daa9680	0.08329487
56	0x3de096c0	0.10966253
57	0x3d3dfa2f	0.04638117
58	0xbd65e82a	-0.056129612
59	0x3dbc1f32	0.091856375
60	0x3dbf10ed	0.093294
61	0xbd82ec8d	-0.06392775
62	0x3d8df056	0.06930606
63	0x3c2d0c20	0.010561973

backbone_net.visual_net.3.0.weight f4 [8, 64, 3, 3]
0	0x3d729cee	0.05923169
1	0x3b93741a	0.0044999244
2	0x3d85eaac	0.06538901
3	0x3d7039d8	0.058648914
4	0xbc31eaef	-0.010859235
5	0xbdf90b0b	-0.121603094
6	0xba54059e	-0.0008087995
7	0xbc70a334	-0.014687348
8	0xbcabba92	-0.020962987
9	0xbcb57d73	-0.022154545
10	0x3d2af4dd	0.041737426
11	0x3bc9a195	0.0061532953
12	0x3c3235d3	0.0108770905
13	0xbc3198de	-0.010839669
14	0x3c60b79f	0.013715654
15	0x3d4e5107	0.050370242
16	0xbd08d766	-0.033408545
17	0x3c8ea818	0.017414138
18	0x3c61240a	0.013741503
19	0x3d5c2a41	0.053751234
20	0x3cc31437	0.02381335
21	0x3d27968b	0.040915053
22	0x3d6b2aa5	0.057413716
23	0x3d303622	0.043020375
24	0x3d561f7d	0.052276123
25	0x3d708681	0.058722023
26	0x3d81eeb4	0.06344357
27	0x3da778ad	0.08177314
28	0xbc35dfb1	-0.0111006955
29	0xbc3164e5	-0.010827278
30	0xbd73cd88	-0.05952218
31	0xbd318f1a	-0.043349363
32	0x3ad98675	0.0016595857
33	0xbd2f56bd	-0.04280733
34	0x3da5b6fb	0.080915414
35	0x3d447cb0	0.047970474
36	0x3d8a142a	0.06742127
37	0x3d6b2d75	0.057416398
38	0x3d0f7f97	0.03503379
39	0xbd48fe67	-0.049070742
40	0x3a84c8b2	0.0010130613
41	0xbe11c831	-0.14236523
42	0xbd47233e	-0.048617594
43	0x3d97aebc	0.07406375
44	0xbda107e7	-0.078628354
45	0x3d61b10b	0.055100482
46	0xbd1f111b	-0.038834672
47	0x3d46931b	0.048480134
48	0xbc7dc175	-0.015488018
49	0xbc7faa6e	-0.015604598
50	0xbddf6946	-0.10908751
51	0xbd0380a6	-0.03210511
52	0x3d28df98	0.04122886
53	0xbdb29693	-0.08720126
54	0xbc49c40e	-0.0123148095
55	0xbce79b9e	-0.028272446
56	0xbc8e3f85	-0.017364273
57	0xbd24985f	-0.040184375
58	0x3cce3aaa	0.025174458
59	0xbbd43025	-0.006475466
60	0x3cce543c	0.02518665
61	0x3d4979b4	0.04918833
62	0x3ce43126	0.027855467
63	0x3cc44d09	0.023962514
64	0xbc6c30c5	-0.014415924
65	0xbc95af12	-0.018271957
66	0xbc8a1d69	-0.016859727
67	0x3bafc1e8	0.0053636916
68	0xbc87574d	-0.01652112
69	0xbd27ba09	-0.0409489
70	0x3cc40785	0.023929367
71	0x3ba96b88	0.0051702894
72	0xbd0cb6d1	-0.034354035
73	0xbd364c5c	-0.044506416
74	0x3d06e77a	0.032935597
75	0x3d26f017	0.04075631
76	0xbc27cd70	-0.010241851
77	0xbd28b88d	-0.041191626
78	0xbcaef503	-0.021357065
79	0x3cf55c46	0.029951226
80	0xbcade93d	-0.02122938
81	0xbd325983	-0.043542396
82	0xbc8cd965	-0.017193506
83	0x3bce7362	0.006300376
84	0xbc27e31b	-0.010247017
85	0xbce7892f	-0.028263656
86	0xbceb4bb1	-0.028722616
87	0xbd021d37	-0.031766143
88	0xba0e198a	-0.0005420676
89	0x3c98c963	0.018650716
90	0xbd23e9fa	-0.04001806
91	0x3ba0af1a	0.0049036862
92	0x3b863d82	0.004096688
93	0xbc22c97d	-0.009935734
94	0xbb5f2a0a	-0.0034052157
95	0xb8d0856a	-9.943063e-05
96	0x3be04466	0.006844091
97	0x3c4d3deb	0.012526969
98	0x3b06787f	0.0020518599
99	0x3b6b3ee6	0.0035895645
100	0x3cc2cf5d	0.02378052
101	0xbb22f615	-0.0024865915
102	0xbb23442d	-0.0024912462
103	0xbc8bf1dd	-0.017083103
104	0xbd20a130	-0.03921622
105	0x3d1ea30b	0.03872971
106	0x3d2236fd	0.039603222
107	0xbc9db10f	-0.019249467
108	0xbc108288	-0.008820184
109	0xba4635d8	-0.0007561124
110	0x3d7d82b8	0.06189224
111	0xbcc7fed1	-0.024413498
112	0x3c27907b	0.010227318
113	0x3db46bec	0.08809647
114	0x3d0d2909	0.034462962
115	0x3d5a0d06	0.053235076
116	0x3c2c301c	0.010509517
117	0x3cae1a71	0.021252843
118	0x3a3637f6	0.0006951088
119	0x3d209f9f	0.039214727
120	0xbcba218b	-0.022721073
121	0xbd29bacb	-0.041437905
122	0xbd911887	-0.07084756
123	0x3dd7c3cc	0.10535392
124	0xbc960c92	-0.01831654
125	0xbbf28c22	-0.007401959
126	0xbcea1a12	-0.028576884
127	0x3d2bc663	0.041937243
128	0xbd297ab8	-0.0413768
129	0x3c8d3851	0.017238768
130	0xb9a13780	-0.00030749664
131	0xbe089b64	-0.13340527
132	0x3d967c00	0.0734787
133	0x3c9cd679	0.019145237
134	0xbdacb817	-0.0843355
135	0xbc97edb3	-0.018545961
136	0xbd10948b	-0.03529791
137	0x3cfa7b25	0.030576298
138	0xbdb54fcc	-0.08853111
139	0xbc648bb5	-0.013949324
140	0xbd554b33	-0.05207367
141	0x3cc73aa9	0.024319964
142	0xbc086ac2	-0.008326234
143	0x3cad7925	0.02117593
144	0x3da5570a	0.08073242
145	0xbbc0d6b7	-0.005884971
146	0xbd70a855	-0.058754284
147	0xbd6309cf	-0.055429276
148	0x3d3e8713	0.046515536
149	0x3bc3e0de	0.005977734
150	0xbd43b96c	-0.047784254
151	0x3d07dbc0	0.033168554
152	0x3c833875	0.016018132
153	0x3c375541	0.01118976
154	0x3d21f757	0.039542522
155	0xbd200b43	-0.03907324
156	0x3d557098	0.05210933
157	0xbd6132eb	-0.0549802
158	0xbb96fbd1	-0.0046076556
159	0x3da513be	0.08060406
160	0x3c7e405b	0.015518273
161	0xbd9027a9	-0.070388146
162	0x3c66ad21	0.014079363
163	0xbd2286d0	-0.03967935
164	0x3c2ff904	0.010740522
165	0xbc21dd71	-0.009879456
166	0x3a36a3c0	0.00069671497
167	0xbcbaa569	-0.022783952
168	0xbc495342	-0.012287917
169	0xbca945fe	-0.020663258
170	0xbc2e43be	-0.010636268
171	0x3d6c92fe	0.05775737
172	0xbc341d0c	-0.010993253
173	0x3d5820a1	0.052765492
174	0xbd637be9	-0.05553809
175	0xbd3125d6	-0.043248974
176	0xbc216113	-0.009849804
177	0x3d1c86a1	0.03821433
178	0xbcb88eb8	-0.022528991
179	0x3c3ab155	0.011394818
180	0xbc689824	-0.014196429
181	0xbb56e1fb	-0.0032788503
182	0xbcd67137	-0.026177032
183	0x3bbe17a4	0.005801158
184	0xbbe6ba3c	-0.007041244
185	0xbca6b8f5	-0.020351866
186	0xbbf3d5f3	-0.007441276
187	0x3c441a34	0.011969138
188	0xbd2c9bdb	-0.042140823
189	0xbc75d1bd	-0.015003619
190	0x3e236705	0.15957268
191	0x3d2b8179	0.04187152
192	0xbdf5c82c	-0.120010704
193	0x3dc5529c	0.09634897
194	0xbd4041a0	-0.046937585
195	0xbd70dbc1	-0.058803324
196	0x3d569a2c	0.052393124
197	0x3d9ea0d0	0.07745516
198	0x3d323438	0.04350683
199	0x3c61fec5	0.013793652
200	0x3d33ca28	0.043893963
201	0x3b9a99a7	0.004718024
202	0x3cec135a	0.028817821
203	0x3d7dc5eb	0.061956327
204	0xbce5bc9c	-0.028044038
205	0x3c9f7ec8	0.019469634
206	0xbd3d8de0	-0.04627788
207	0x3bc2b51d	0.0059420005
208	0x3c59a715	0.013284464
209	0x3d6554c4	0.055989042
210	0x39827546	0.00024882908
211	0x3e12c6a7	0.14333592
212	0x3d959545	0.073038615
213	0x3cc97236	0.024590593
214	0xbda3d146	-0.079989
215	0xbbdfaf5c	-0.0068263244
216	0x3e03a11e	0.1285443
217	0xbd9975c5	-0.07493166
218	0xbd9f0e1f	-0.07766365
219	0x3d9f0a09	0.07765586
220	0xbdde9d12	-0.108698025
221	0xbca9e0c0	-0.020737052
222	0x3d2f80cd	0.042847443
223	0xba9836db	-0.0011613028
224	0x3cbea6f2	0.023272965
225	0x3d0bd164	0.034135237
226	0x3d62689f	0.055275556
227	0x3d38c27b	0.045107346
228	0x3d58d060	0.052933097
229	0xbd02b6af	-0.031912502
230	0x3b45eb52	0.0030200076
231	0x3d360896	0.044441782
232	0xbc16e438	-0.009209685
233	0xbb6fdc39	-0.0036599769
234	0xbc9579d3	-0.018246567
235	0xbd0c6947	-0.034280088
236	0x3d37d137	0.044877257
237	0xbd135edd	-0.03597914
238	0xbbced6ec	-0.006312242
239	0x3c61b216	0.013775369
240	0x3cb9ff06	0.022704612
241	0xbd09c1ec	-0.033632204
242	0x3b6852a3	0.0035449646
243	0x3d4a0135	0.049317557
244	0x3b059b48	0.0020386744
245	0x3aff1cce	0.001946354
246	0x3dedc635	0.116100706
247	0x3d3a3f4b	0.045470517
248	0xbd7fc9f6	-0.062448464
249	0xbdbc8d14	-0.09206596
250	0x3d77a003	0.060455333
251	0x3c7b6ed5	0.015346249
252	0xbc9d7133	-0.019219017
253	0x3d1b744a	0.0379527
254	0xbcdc2a12	-0.02687553
255	0xbc79c90f	-0.01524569

backbone_net.visual_net.3.0.bias f4 [8]
0	0x3dd0543c	0.101723164
1	0x3dcb0d6d	0.0991467
2	0x3cb71b39	0.022351848
3	0x3d49c25b	0.049257617
4	0x3d812f5f	0.063078634
5	0xbc9e042c	-0.019289099
6	0xbd9e9346	-0.07742934
7	0x3d964d61	0.073389776

merge_net.0.0.weight f4 [128, 128]
0	0x3d32c457	0.043644276
1	0xbd716f66	-0.05894413
2	0x3d5b24c4	0.05350186
3	0x3ca9479d	0.02066403
4	0xbd9770aa	-0.07394536
5	0x3cf2b819	0.0296288
6	0xbd6cd1a9	-0.057817135
7	0x3cb07b2d	0.02154311
8	0x3d09c1f1	0.033632223
9	0xbdb26982	-0.0871153
10	0xbb89da6c	-0.004206946
11	0x3d15c8a1	0.036568288
12	0x3cbe29e8	0.023213342
13	0xbccdb129	-0.02510889
14	0xbcd26290	-0.025681764
15	0x3d1d8c7d	0.03846406
16	0xbc810678	-0.015750155
17	0x3cddc01a	0.02706914
18	0xbd5afbcc	-0.05346279
19	0xbd5bc43b	-0.053653937
20	0xbda1bfc6	-0.07897906
21	0x3d40e9e2	0.047098048
22	0xbdc15ed7	-0.094419174
23	0xbdafcd15	-0.08584038
24	0x3ceae234	0.028672315
25	0x3b8b5a99	0.0042527434
26	0xbdab809e	-0.08374141
27	0x3bef1106	0.0072957305
28	0xbd06ad15	-0.032879908
29	0xbdc6f5c9	-0.097148485
30	0xbd5c83ce	-0.053836636
31	0xbdaad712	-0.08341803
32	0xbd03144f	-0.03200179
33	0xbd1ab217	-0.037767496
34	0xbcc3306a	-0.023826797
35	0xbdb1096b	-0.086443745
36	0x3d12a020	0.03579724
37	0xbd37902c	-0.044815227
38	0xbdb47751	-0.0881182
39	0xbdb5239b	-0.08844682
40	0xbd9d0341	-0.07666636
41	0xbc99db64	-0.018781371
42	0x3d0f3d27	0.03497043
43	0xbcc802b9	-0.02441536
44	0xbc55d592	-0.013051407
45	0xbd4f89c6	-0.0506685
46	0xbd7b1fdf	-0.06130969
47	0x3c4ebd05	0.012618308
48	0xbda2afed	-0.079437114
49	0xbd6f7093	-0.05845697
50	0xbbcacd22	-0.0061890045
51	0x390f9117	0.00013691593
52	0xbb0ce5fb	-0.0021499384
53	0xb9a219e4	-0.00030918338
54	0x3d80f214	0.06296173
55	0xbcc1f539	-0.023676502
56	0xbda49207	-0.08035665
57	0xbda7abe6	-0.08187084
58	0x3d3f8183	0.04675437
59	0xbb958e69	-0.0045640958
60	0xbca62cb8	-0.020284995
61	0x3d9072b5	0.07053129
62	0xbd4a6b49	-0.04941872
63	0xbd2f6dd1	-0.04282934
64	0x3d01aeab	0.031660717
65	0xbd42396d	-0.047418047
66	0x3d92402e	0.071411476
67	0xbc58f1ea	-0.013241271
68	0xbd9ef7d4	-0.07762113
69	0xbd13630c	-0.03598313
70	0xbbc3d0f2	-0.005975836
71	0x3d826b57	0.0636813
72	0xbd26307c	-0.040573582
73	0xbb4761d1	-0.0030423293
74	0xbbc95c96	-0.0061450703
75	0xbd763456	-0.060108505
76	0xbdb8bef3	-0.09020796
77	0xbc5dc6bc	-0.0135361515
78	0xbda2f8d3	-0.07957616
79	0x3d0933ec	0.033496782
80	0x3d97e3aa	0.0741647
81	0x3ca30102	0.019897941
82	0xbd5969f2	-0.053079553
83	0xbda5e77f	-0.08100795
84	0x3d0060ce	0.03134232
85	0xbd8f179b	-0.06986924
86	0xbd0bf3ba	-0.034167983
87	0x3cba87e9	0.022769885
88	0xbd99609f	-0.07489132
89	0xbda91ab9	-0.0825705
90	0xbd9a6df8	-0.07540506
91	0xbc9f92f2	-0.019479249
92	0xbd165a23	-0.036707055
93	0x3d2ab987	0.04168084
94	0xbd91079c	-0.070815295
95	0x3c362e31	0.011119411
96	0xbcb3421f	-0.021882115
97	0x3c17026f	0.009216889
98	0xbc763854	-0.015028078
99	0x3d40f127	0.04710498
100	0x3c5b8542	0.01339847
101	0xbd7246c0	-0.059149504
102	0xbd5fd3ec	-0.054645464
103	0x3d9bed57	0.07613628
104	0xbd101135	-0.03517266
105	0xbd3a4173	-0.045472573
106	0x3d571d38	0.0525181
107	0xbdb55792	-0.08854593
108	0x3d51c304	0.051211372
109	0x3d9a8cfa	0.075464204
110	0xbd16cf60	-0.036818862
111	0x3d34a613	0.044103693
112	0x3c3bc518	0.011460565
113	0xbc6475eb	-0.013944129
114	0xbc90d604	-0.017680176
115	0xbb90f00f	-0.0044231485
116	0x3b52d7d1	0.0032172094
117	0x3d307eb7	0.043089595
118	0x3d8eba0f	0.069690816
119	0xbd83086b	-0.0639809
120	0xbccc8ede	-0.024970468
121	0xbdb94f95	-0.09048382
122	0x3c884db4	0.016638614
123	0xbd415b67	-0.04720631
124	0xbb377f97	-0.0027999633
125	0xbd9c0445	-0.07618002
126	0xbd290d95	-0.04127272
127	0xbd861ee5	-0.065488614
128	0x3d979af7	0.07402604
129	0x3d67bea4	0.056578293
130	0xbcee596e	-0.029095378
131	0xbd9ae9ea	-0.07564147
132	0xbc15a656	-0.009133896
133	0x3c8b2999	0.016987609
134	0x3d514018	0.051086515
135	0xbb30f9e5	-0.0027004417
136	0xbdb13d76	-0.08654301
137	0x3dd296c9	0.10282666
138	0x3c33f399	0.010983371
139	0xbd8d6090	-0.069031835
140	0x3da94b56	0.08266322
141	0x3d1e3041	0.038620237
142	0x3e0cd539	0.13753213
143	0x3be2726d	0.0069106133
144	0xbd667cff	-0.05627155
145	0x3d8d2f41	0.068937786
146	0x3dbfc32a	0.093633965
147	0x3da9e641	0.082958706
148	0xbd98a67d	-0.0745363
149	0x3db81a41	0.089893825
150	0x3d6fbdf8	0.058530778
151	0x3d8de14f	0.0692774
152	0x3d77d9b3	0.06051035
153	0x3dbde479	0.09272093
154	0x3d0db93c	0.03460048
155	0x3d136bdc	0.035991535
156	0xbd2e1191	-0.04249722
157	0x3dca2e33	0.09872093
158	0x3d9bf975	0.076159395
159	0x3da915ec	0.082561344
160	0x3d481453	0.048847508
161	0x3d1418c8	0.036156446
162	0xbd080179	-0.03320453
163	0xbd066ce2	-0.032818682
164	0x3ccb92f6	0.02485035
165	0x3b3f6055	0.0029201705
166	0x3d1bd163	0.038041484
167	0x3cfbfc5b	0.03075998
168	0x3cc56e78	0.024100527
169	0x3c80e646	0.015734803
170	0x3d466ad9	0.04844174
171	0x3d56211e	0.052277677
172	0x3d3f9aa4	0.046778336
173	0xbdc6a7e0	-0.09699988
174	0x3c8ca790	0.017169744
175	0x3d5e0d05	0.054211635
176	0xbccba31b	-0.024858048
177	0xbc5ab05c	-0.013347711
178	0x3ad5a5bc	0.0016300003
179	0xbd9f3efb	-0.077756844
180	0x3dabdf73	0.08392229
181	0x3e56af39	0.2096528
182	0xbe270eca	-0.16314235
183	0x3c866063	0.016403383
184	0x3c16794b	0.009184192
185	0x3dc6087c	0.09669587
186	0xbcac78a9	-0.021053629
187	0xbcd2cd1e	-0.025732573
188	0xbd6f516a	-0.058427252
189	0xbc3c14f3	-0.011479604
190	0xbc230f7f	-0.009952425
191	0xbd3ce87e	-0.04612016
192	0x3c836184	0.01603771
193	0x3d28a04c	0.041168496
194	0x3dab7e3e	0.08373688
195	0x3d24e471	0.04025692
196	0x3da2f225	0.07956342
197	0xbcafe8a9	-0.021473246
198	0x3da14be8	0.07875806
199	0xbc3f5e58	-0.011680208
200	0x3d9d1fcb	0.0767208
201	0xbda847a3	-0.082167886
202	0xbd847472	-0.06467523
203	0xbd3593f2	-0.044330545
204	0xbaaec902	-0.0013335051
205	0xbda96ff7	-0.08273309
206	0x3d9f895d	0.07789872
207	0x3cf6f2f5	0.030145148
208	0xbc947309	-0.01812126
209	0xbd9ff4fd	-0.078104
210	0xbd6baebd	-0.05753969
211	0xbd271ef5	-0.040801007
212	0xbd83d184	-0.06436446
213	0xbae8a07d	-0.0017748025
214	0xbd730302	-0.05932904
215	0x3b8df98e	0.0043327278
216	0x3d241120	0.040055394
217	0xbd30a629	-0.043127213
218	0x3c48697d	0.012232182
219	0xbd5b33ae	-0.053516082
220	0x3d94eb86	0.07271485
221	0xbd8c9651	-0.06864608
222	0xbd8953a8	-0.06705409
223	0x3c38446c	0.011246782
224	0xbc1892cc	-0.009312343
225	0x3d3eff0d	0.046629954
226	0x3c92eb2b	0.017934402
227	0x3dad7c96	0.084710285
228	0xbda7f072	-0.08200158
229	0x3d11477d	0.035468567
230	0x3dc625c3	0.09675171
231	0x3da565ab	0.08076032
232	0xbd842952	-0.06453194
233	0x3de07a44	0.1096082
234	0xbd86bc0b	-0.06578835
235	0x3def8e15	0.11697022
236	0x3d33943b	0.043842535
237	0xbd4975d2	-0.049184628
238	0x3dc540f8	0.096315324
239	0xbd4c4f76	-0.049880467
240	0x3d9f21f4	0.07770148
241	0xbd354bf4	-0.044261888
242	0xbd384c54	-0.044994667
243	0x3d326a04	0.043558136
244	0x3d620aee	0.055186205
245	0x3d0269dd	0.03183924
246	0xbdb3e09e	-0.08783077
247	0x3d1f9f62	0.03897036
248	0x3a9461cf	0.0011320653
249	0x3d052b2d	0.03251188
250	0x3d72131f	0.059100267
251	0x3db4dfcc	0.08831748
252	0x3d24dd97	0.040250387
253	0x39da28c6	0.0004161058
254	0xbc8b4609	-0.017001169
255	0xbd1bed95	-0.038068373

merge_net.0.0.bias f4 [128]
0	0x3d18c5f9	0.037298176
1	0x3d648bb8	0.05579731
2	0xbd73378e	-0.059379153
3	0x3c986e1f	0.018607197
4	0x3d751ef7	0.059843984
5	0x3db154b8	0.08658737
6	0xbc8cbbc1	-0.017179372
7	0xbc97b6f1	-0.01851985
8	0x3d71e072	0.05905194
9	0x3d16a3cd	0.036777306
10	0x3dcdb3ca	0.10044058
11	0xbd0c10b7	-0.034195628
12	0x3e1af258	0.1513151
13	0xbdd544e3	-0.1041353
14	0x3d666ba6	0.056255005
15	0x3cb2c6a9	0.021823244
16	0x3ce04460	0.027376354
17	0x3d3d8b26	0.04627528
18	0xbd8e399f	-0.06944584
19	0x3c76da39	0.015066677
20	0x3d792ec2	0.060835607
21	0xbd7e1c0d	-0.06203847
22	0xbd87ad34	-0.06624833
23	0xbc91f33b	-0.017816177
24	0x3db52d57	0.088465385
25	0xbdaa1265	-0.0830429
26	0xbd18221b	-0.0371419
27	0xbb7fa0a9	-0.0039005673
28	0xbdb1d982	-0.086840644
29	0x3c9a1c4d	0.018812323
30	0xbc91993e	-0.017773267
31	0x3c48ff3e	0.012267886
32	0xbd613828	-0.054985195
33	0x3dc68b33	0.09694519
34	0xbd915b95	-0.07097546
35	0x3d5326c8	0.051550657
36	0xbd673b7c	-0.056453213
37	0x3c8eb814	0.01742176
38	0xbd5021c1	-0.05081344
39	0xbd94f51c	-0.072733134
40	0x3e210b68	0.15727007
41	0x3bf61bf6	0.0075106574
42	0x3db4690a	0.08809097
43	0x3cf5b72a	0.029994566
44	0xbdb6f83b	-0.08934065
45	0xbd0d31a0	-0.034471154
46	0x3dbef53e	0.0932412
47	0xbda8cd65	-0.08242301
48	0xbcfc9667	-0.030833436
49	0x3bc80c84	0.0061050076
50	0x3c9640af	0.01834139
51	0x3e08c493	0.13356237
52	0x3cb1d5fb	0.02170848
53	0xbbf6f744	-0.0075368006
54	0x3ce525bb	0.027972093
55	0xbdad6239	-0.08466
56	0xbd80bd48	-0.062861025
57	0xbda941c5	-0.08264498
58	0xbd781219	-0.060564134
59	0x3da3cd50	0.079981446
60	0x3d37ed62	0.04490412
61	0x3be16473	0.0068784296
62	0x3d618b13	0.055064272
63	0xbdba5b75	-0.09099475
64	0xbd210cc1	-0.039318804
65	0x3c96db9b	0.018415263
66	0x3c8ca2db	0.0171675
67	0xbdaddba8	-0.08489162
68	0x3dfbdb9d	0.12297747
69	0xbd05abce	-0.03263455
70	0x3c850021	0.016235413
71	0xbd6cb42c	-0.057789013
72	0x3d5168d4	0.051125363
73	0xbb5c0d91	-0.0033577422
74	0xbd93ecce	-0.07222901
75	0x3df9215b	0.12164565
76	0x3dab8786	0.083754584
77	0x3d8c10a4	0.068391114
78	0x3ca4e5d9	0.020129131
79	0x3cac1d63	0.021010106
80	0xbd693a94	-0.05694063
81	0xbd39f6ba	-0.045401312
82	0x3d43d117	0.047806825
83	0xbd9c6b0f	-0.07637607
84	0xbdd04f65	-0.10171393
85	0xbd7eec7f	-0.06223726
86	0xbd1e58fa	-0.038659073
87	0x3c8eea43	0.017445689
88	0xbcda3877	-0.026638253
89	0xbd78a7d7	-0.06070694
90	0xbdd88a46	-0.105732486
91	0xbd5b3338	-0.053515643
92	0xbd8e9917	-0.06962793
93	0x3d343375	0.043994386
94	0x3ca6090e	0.02026799
95	0xbd07dd7c	-0.03317021
96	0xbd9419b0	-0.07231462
97	0x3c7a5e4c	0.015281271
98	0x3db70f3f	0.08938455
99	0x3dcb1309	0.0991574
100	0xbd51fa8e	-0.05126434
101	0xbca29ba7	-0.019849611
102	0x3c6159c9	0.013754317
103	0xbd717436	-0.058948718
104	0xbda363ab	-0.079779945
105	0x3dab1c8b	0.083550535
106	0xbc0b166a	-0.008489231
107	0x3ccbb35d	0.0248658
108	0xbc1b4a60	-0.009478182
109	0xbdb06e07	-0.08614736
110	0x3e0f8678	0.1401614
111	0x3c4b2dd8	0.012401067
112	0xbd6ee775	-0.058326203
113	0x3c19415c	0.009353962
114	0xbd38e15f	-0.045136806
115	0xbc4ec855	-0.012621005
116	0xbd9d0536	-0.076670095
117	0x3d2c846d	0.04211848
118	0x3e0753de	0.13215587
119	0x3e09ba67	0.13450013
120	0x3d1c0542	0.03809095
121	0xbc951927	-0.01820047
122	0xbd3d5556	-0.04622396
123	0xbd07a3e1	-0.03311527
124	0xbd84843e	-0.06470536
125	0x3e149d20	0.14513063
126	0x3cea9fd8	0.028640673
127	0xbde2daca	-0.11076887

merge_net.1.0.weight f4 [2, 128]
0	0x3c62b4af	0.013837024
1	0x3c5a2c2b	0.0133161945
2	0x3c9eacf4	0.01936958
3	0x3ccb971c	0.024852328
4	0x3db5aa9d	0.088704325
5	0x3dc2aedf	0.0950601
6	0xbd384756	-0.044989906
7	0xbd834017	-0.064087085
8	0x3de2ea4d	0.110798456
9	0x3dfecc12	0.12441267
10	0x3cb31c14	0.021863975
11	0x3dd82ec8	0.10555798
12	0x3ddae998	0.10689086
13	0xbd9f77cc	-0.07786521
14	0xbc914f3d	-0.01773798
15	0xbceff63f	-0.029292224
16	0xbe01e060	-0.12683249
17	0xbd886cce	-0.06661378
18	0xbd810522	-0.06299807
19	0xbd14d4f8	-0.036335915
20	0x3d447824	0.047966138
21	0xbd4fa6a3	-0.050696027
22	0xbd5b083b	-0.053474646
23	0xbe12a9e9	-0.14322628
24	0x3e10556b	0.14095084
25	0x3c96b923	0.018398827
26	0xbcad467e	-0.021151777
27	0xbd504375	-0.050845582
28	0x3e5ccadd	0.21561761
29	0xbd4d485d	-0.05011784
30	0xbd2ee9ea	-0.042703547
31	0xbe8147a9	-0.25249985
32	0x3ce49c7f	0.027906654
33	0x3d695f13	0.056975435
34	0xbdd696c8	-0.10477978
35	0xbb59cadf	-0.0033232493
36	0xbc1d2131	-0.009590433
37	0xbdf670a9	-0.12033207
38	0xbda361a3	-0.07977607
39	0xbdb30ca5	-0.08742646
40	0x3c8b14e5	0.016977737
41	0x3d2964a5	0.041355748
42	0xbe331279	-0.17487516
43	0x3e070fd3	0.1318963
44	0xbd77a2eb	-0.060458105
45	0x3dbdd282	0.09268667
46	0x3dfe0cfa	0.12404819
47	0xbbf806c5	-0.0075691664
48	0xbdc94eb1	-0.09829462
49	0x39802c12	0.00024446897
50	0x3debdb50	0.1151644
51	0x3bf3f312	0.0074447477
52	0xbc96450f	-0.018343477
53	0xbdbd7a2d	-0.09251819
54	0xbd4dab58	-0.050212234
55	0x3c706a5c	0.014673796
56	0x3d7a57ae	0.061118774
57	0x3d6a829d	0.05725347
58	0x3db8b945	0.09019712
59	0x3c29f437	0.010373167
60	0xbd6ebcde	-0.058285587
61	0x3c98696a	0.018604953
62	0xbd85368a	-0.06504543
63	0xbe2c7a16	-0.16843447
64	0xbd6abce5	-0.05730905
65	0xbcc5457a	-0.02408098
66	0x3c9d6a7f	0.01921582
67	0xbd4f2ea7	-0.0505816
68	0xbb09fba3	-0.0021054528
69	0x3d171ca9	0.036892567
70	0xbbb02e40	-0.005376607
71	0xbc98e9d5	-0.018666187
72	0x3dcd0ded	0.10012422
73	0xbd325946	-0.04354217
74	0xbe9b99c3	-0.30390748
75	0x3ce76265	0.02824516
76	0xbd897b08	-0.067129195
77	0x3e4332a7	0.19062291
78	0xbc356155	-0.011070569
79	0x3ba88598	0.0051428787
80	0xbd90fe9c	-0.07079813
81	0xbcdfe0e0	-0.027328908
82	0x3e084e73	0.13311176
83	0x3b9ea5e8	0.004841555
84	0xbd92842f	-0.07154118
85	0x3d860b6e	0.06545149
86	0x3cedacb6	0.029013019
87	0xbd727c2d	-0.059200455
88	0xbca5e1e6	-0.020249318
89	0xbda60af0	-0.08107555
90	0xbd3f1601	-0.046651844
91	0xbd887fe0	-0.06665015
92	0x3d93dd76	0.07219975
93	0xbdb1ab2b	-0.08675226
94	0xbd473ecf	-0.048643883
95	0xbd80d9cb	-0.06291541
96	0x3e792217	0.2432941
97	0x3c4a271c	0.012338426
98	0x3d8a682f	0.06758153
99	0x3c002f56	0.007823786
100	0xbccb8f9a	-0.024848748
101	0x3c5d7cca	0.013518522
102	0xbce52306	-0.027970802
103	0x3b5b2d80	0.0033443868
104	0xbc1f9d2c	-0.009742063
105	0x3dcb4b12	0.09926428
106	0x3c26000d	0.010131848
107	0xbd5cab4b	-0.053874295
108	0xbd465d08	-0.048428565
109	0xbeb1db09	-0.34737423
110	0xbd8e723d	-0.06955383
111	0x3dd0a6e3	0.10188081
112	0x3db64bdb	0.08901187
113	0x3d94e1a5	0.07269601
114	0xbd4c1b6d	-0.049830843
115	0xbd419078	-0.047256917
116	0xbdbf8258	-0.09351033
117	0xbd087178	-0.033311337
118	0x3d760ffd	0.06007384
119	0x3cb1e1f5	0.02171419
120	0xbd026928	-0.031838566
121	0x3c2bf0c2	0.010494413
122	0x3df6ed26	0.12056951
123	0xbe3de1c8	-0.1854316
124	0xbd1360ef	-0.035981115
125	0x3d648cb0	0.055798233
126	0x3e04ac78	0.12956417
127	0x3d843df1	0.06457127
128	0x3d8a4353	0.06751122
129	0xbcaf87ad	-0.021427
130	0xbb28d3c6	-0.0025760992
131	0x3d4d52cb	0.050127786
132	0x3a0dafdd	0.0005404929
133	0x3dcccfb2	0.10000552
134	0x3dd0746f	0.10178458
135	0xbd7ef467	-0.0622448
136	0x3e012470	0.12611556
137	0x3e3a4da0	0.18193674
138	0xbdacece4	-0.08443621
139	0x3e0f1fae	0.13976929
140	0xbc11ca8e	-0.00889839
141	0xbd676438	-0.05649206
142	0xbcc84934	-0.024448968
143	0x3ce38844	0.027774937
144	0xbd49ccfe	-0.04926776
145	0xbc16c3b1	-0.00920193
146	0xbda4703d	-0.0802922
147	0x3cb42630	0.021990865
148	0x3d23f8a6	0.04003205
149	0x3ea6ba81	0.32564166
150	0xbda500ef	-0.08056819
151	0xbd363344	-0.044482484
152	0x3dcc5837	0.09977763
153	0xbd42826c	-0.04748766
154	0xbd4ea3ca	-0.05044917
155	0xbd8187bf	-0.0632472
156	0x3e403b5f	0.18772648
157	0x3b686345	0.003545956
158	0x3e365ac0	0.17808056
159	0xbe53edaa	-0.2069613
160	0x3e180c44	0.14848429
161	0xbe1c549b	-0.1526665
162	0xbd9da77b	-0.0769796
163	0x3d8c348c	0.0684596
164	0x3d9598b2	0.07304515
165	0x3ca88767	0.020572377
166	0x3d4d4f93	0.050124716
167	0xbe164860	-0.14676046
168	0xbdf0a60c	-0.11750421
169	0x3cb32e4c	0.021872662
170	0xbe4c527a	-0.19953337
171	0xbdc0ecde	-0.09420179
172	0xbd65cd12	-0.056103773
173	0x3c1785c6	0.009248203
174	0x3d574138	0.05255243
175	0xbd79cb66	-0.06098499
176	0x3e25279a	0.16128388
177	0xbb5d20c3	-0.0033741451
178	0x3d914a59	0.07094259
179	0xbe073373	-0.1320322
180	0xbcbe5d42	-0.023237828
181	0x3d94f99b	0.07274171
182	0xbb859193	-0.0040761917
183	0x3abfe337	0.0014639859
184	0x3d7037d4	0.05864699
185	0xbd4189ab	-0.04725043
186	0xbd513e82	-0.051085003
187	0x3d8edafc	0.06975362
188	0xbd9f6ca4	-0.077843934
189	0x3d3b791f	0.045769807
190	0xbcf840c7	-0.030304326
191	0xbdf3ba7f	-0.11900806
192	0x3d5b0e43	0.053480398
193	0x3d3a40d4	0.04547198
194	0x3d94cbcc	0.07265434
195	0xbd96f0ed	-0.07370172
196	0xbca72ab2	-0.0204061
197	0x3d72219d	0.059114087
198	0xbd7c9bd3	-0.061672043
199	0xbc871d6d	-0.016493523
200	0x3db9f76e	0.090803966
201	0xbaae8f09	-0.0013317774
202	0xbca51fff	-0.020156858
203	0xbe175b03	-0.14780812
204	0xbe686409	-0.2269441
205	0x3e6f9977	0.23398386
206	0xbd7dc2de	-0.061953418
207	0x3d146302	0.036227234
208	0x3d2cb86f	0.042168077
209	0xbbb12f6a	-0.0054072635
210	0x3d4a618c	0.049409434
211	0xbbb47b38	-0.005507853
212	0x3d61bc89	0.05511144
213	0x3dae6709	0.08515746
214	0xbd107667	-0.035269167
215	0xbd4f52cb	-0.050616067
216	0x3d7fd129	0.06245533
217	0xbcd3ddc0	-0.025862575
218	0xbc6d46c3	-0.014482203
219	0x3b80f86f	0.0039358656
220	0xbd40da8c	-0.047083423
221	0x3d4f5db9	0.05062649
222	0x3d3a96e2	0.04555405
223	0x3d21a1fe	0.03946113
224	0x3e805667	0.2506592
225	0xbbb1da10	-0.0054276064
226	0x3d084cee	0.03327649
227	0xbdeefb90	-0.116690755
228	0x3d7c1b4a	0.061549462
229	0xbc6aac0b	-0.014323245
230	0x3d1ca8f7	0.038247075
231	0x3e486342	0.19569114
232	0x3cd29f43	0.025710708
233	0xbd94ef3a	-0.07272191
234	0xbd673b76	-0.05645319
235	0xbe1cc2e5	-0.15308721
236	0x3ce483e0	0.027894914
237	0x3ea08015	0.3134772
238	0xbe5c93c3	-0.21540742
239	0x3dfa605d	0.12225411
240	0xbd85594a	-0.06511171
241	0xbd5259fd	-0.05135535
242	0x3cf96931	0.030445667
243	0xbc6f3cac	-0.014601868
244	0xbd7ffc08	-0.062496215
245	0x3d80f970	0.062975764
246	0xbde8829c	-0.11353037
247	0xbd96a390	-0.07355416
248	0x3d14fab9	0.03637192
249	0x3d88398d	0.06651602
250	0x3db9dbe8	0.09075147
251	0x3c93c073	0.018036103
252	0x3c84bc68	0.01620312
253	0xbe0e9145	-0.13922603
254	0xbd1fc397	-0.03900489
255	0x3b3d2e2d	0.0028866634

merge_net.1.0.bias f4 [2]
0	0x3d978190	0.07397759
1	0xbe6aa814	-0.22915679
